previous_models/ScoreNet1.pth (torch, 634622 bytes, 11 tensors)

Enc.conv.0.weight f4 [32, 7, 2, 2]
000000 cb 66 9e bf ff dc 8d bf 9a 9c d9 bf 3e fd d9 3f
       -1.237512 -1.1083068 -1.7000916 1.7030408
000010 7a 39 73 3e c0 c9 c0 3f 9f 8d 04 bf 57 e6 1c bf
       0.23752394 1.5061569 -0.51778597 -0.6128897
000020 8f 55 ad bf 84 a4 7f bf 4c 9d 60 bf c8 8b cf bf
       -1.3541735 -0.99860406 -0.87740016 -1.6214533
000030 00 3c 83 bf 6a a9 6e bf 98 e9 d8 bf 93 a1 d9 3e
       -1.0252686 -0.93227255 -1.6946287 0.42506084
000040 e0 a6 f9 be c6 f0 e2 bf f9 ad 08 c1 32 90 ac c0
       -0.48760128 -1.7729728 -8.542474 -5.392602
000050 a1 82 41 40 6b e8 c9 40 25 13 89 3f 1f a9 b7 c0
       3.023598 6.3096213 1.0708967 -5.7393947
000060 03 34 41 be db 69 c5 bb 04 49 87 3d 95 33 cc 3c
       -0.18867497 -0.006024582 0.066057235 0.02492694
000070 d8 13 55 be f4 a5 d7 40 25 7a f1 3e 57 09 26 be
       -0.20808351 6.739008 0.471635 -0.162145
000080 0e 58 f0 3f b2 51 a2 3c 96 e8 e9 c0 09 9e fa 3f
       1.8776872 0.019814346 -7.309642 1.9579479
000090 58 fe d4 bd 13 53 06 bd a7 be a6 c0 10 53 8f 3c
       -0.10400075 -0.03279407 -5.210773 0.017495662
0000a0 d7 87 f2 3e 32 bc 83 40 35 10 b1 c0 3a 21 01 3e
       0.47369263 4.116723 -5.5332284 0.12610331
0000b0 aa 08 d7 3d e3 31 f8 3e 2a 76 e2 c0 2d dd 4d 3f
       0.104996994 0.4847556 -7.0769243 0.8041561
0000c0 41 62 7a 3d e2 53 d3 3f ed e2 9d 3e bd ea 02 bf
       0.06112886 1.6509974 0.30837193 -0.5113943
0000d0 22 15 8e bd ca a5 51 3d b3 b0 44 3e 58 39 6c 3e
       -0.069376245 0.0511835 0.1920803 0.2306875
0000e0 c1 37 38 bf a3 8f b4 3f 20 15 93 bf 77 53 c3 3f
       -0.71960074 1.4106334 -1.1490822 1.5259846
0000f0 fa 92 ab 3d 1d ef 24 3f 44 5b 4d 3d 2a 95 b1 3e
       0.08377643 0.6442736 0.050135866 0.34684116
000100 72 46 8f 40 87 ce 90 40 76 c4 61 c0 22 9f 7e bf
       4.4773493 4.525211 -3.527616 -0.9946157
000110 e6 cd 71 be da 1f ca bf 5d 7b 62 c0 1e a0 db 3f
       -0.236137 -1.579097 -3.5387795 1.7158239
000120 44 e6 10 bd 4b 40 0c 40 68 2b 04 c0 a6 93 29 bf
       -0.03537585 2.1914241 -2.0651493 -0.6624092
000130 57 68 2a bd 6f b1 15 bf 47 22 55 3e 95 17 f4 3f
       -0.041603412 -0.5847387 0.20813857 1.9069697
000140 e3 52 b4 bd c8 10 66 bd b9 e4 1a be ad 0b df bd
       -0.08804872 -0.056168348 -0.15126313 -0.10890899
000150 d9 80 2c c0 df d9 37 40 90 75 ac 3f 27 7a 59 c0
       -2.6953642 2.8726728 1.3473377 -3.3980806
000160 9b b3 80 bf 1b e1 31 3f 85 8a 42 c0 60 54 84 3e
       -1.0054811 0.6948411 -3.0397046 0.25845623
000170 66 ca f2 bf 40 aa d1 3f 19 5e 62 3f 63 fc 91 bf
       -1.8968017 1.6380081 0.8842483 -1.1405147
000180 54 17 45 c0 37 91 39 3f 75 61 13 3f 4e 7b a2 be
       -3.0795488 0.72487205 0.5757058 -0.317347
000190 67 18 6d bf a7 a4 15 40 5b c1 25 bf eb 0b 13 bf
       -0.9261536 2.3381746 -0.6474816 -0.5744006
0001a0 29 73 80 c0 f8 34 ae bf d7 3e 80 c0 47 3b e1 bf
       -4.0140576 -1.3609915 -4.007671 -1.7596215
0001b0 0c d3 30 3e ca 8f 73 3e d3 10 3c bd f4 3b 28 3e
       0.17268008 0.2378532 -0.045914482 0.1642912
0001c0 80 77 ed 3e 15 be 9a 3d 91 d4 a8 3f 11 ea c7 3f
       0.46380234 0.075557865 1.318987 1.5618306
0001d0 f5 c9 59 bf b6 45 00 3e 4a 50 f5 3f 9b d9 8b bf
       -0.85073787 0.12526593 1.9165127 -1.0925783
0001e0 f7 41 c1 40 db 5b c5 be f8 72 c8 40 dc 7f cd bf
       6.0393023 -0.38546643 6.2640343 -1.6054645
0001f0 ac e2 17 40 21 c1 aa 3f c0 53 48 40 f8 32 13 bd
       2.37321 1.3340188 3.1301117 -0.03593728
000200 aa fe 03 40 6d 2e 96 3f 82 7a 86 40 64 d2 05 c0
       2.0624185 1.1732918 4.2024546 -2.0909662
000210 9c 6f f1 40 1f 3c 11 40 59 b1 b8 40 c4 c0 c7 bf
       7.544874 2.2692945 5.771649 -1.5605702
000220 75 54 13 bd a2 f7 98 3d 1b 8e 72 3e 0f 29 99 bd
       -0.035969216 0.07469107 0.23687021 -0.074785344
000230 48 84 ea 40 53 d7 00 bf 57 5b a1 be 78 b8 c1 bf
       7.3286476 -0.5032856 -0.31515 -1.513442
000240 86 f9 d4 bf 7e a6 b0 be 69 f5 aa 3f 8a 1a e8 c0
       -1.6638649 -0.34502023 1.3356143 -7.2532396
000250 0e 4c 60 3d 44 c2 88 3f b5 6e 51 3f f3 97 ba c0
       0.05476003 1.0684285 0.8180955 -5.8310485
000260 5b 79 51 40 88 1e b0 3f 34 d6 16 3f 75 c7 c6 c0
       3.273032 1.3759317 0.589206 -6.211848
000270 63 5b f0 bf 6d 22 d4 bf a2 e1 01 3e 2c 16 df c0
       -1.8777889 -1.6573006 0.12683728 -6.9714565
000280 4e 84 50 be c1 dc ff 3d b5 62 db be 1a 4f 68 bf
       -0.2036297 0.12493277 -0.42848745 -0.907457
000290 32 48 a6 bd 37 96 32 bc c0 fd e5 3d 78 c4 c6 3c
       -0.08119239 -0.010900072 0.112300396 0.024263605
0002a0 aa ff 5c c0 57 2b 7f bf 38 8e d7 3e dc 82 e6 bf
       -3.4531045 -0.99675506 0.42100692 -1.8008685
0002b0 54 95 ac 40 b5 f8 a1 bf fa 4c a2 c0 57 d9 0a bf
       5.3932285 -1.2654024 -5.0718966 -0.54237884
0002c0 74 34 0c c0 7c 98 46 3e 2f d2 4a 40 26 f0 2b c0
       -2.1907015 0.19394106 3.1690786 -2.6865325
0002d0 fc 23 3c c0 29 b9 b2 be c1 35 75 40 a3 84 71 c0
       -2.9396963 -0.3490689 3.8314059 -3.7737205
0002e0 1d 89 a1 c0 22 03 e9 bf 3b 1a 98 c0 ca 3e 83 c0
       -5.0479875 -1.8204081 -4.753202 -4.1014147
0002f0 1d 83 9d c0 17 03 55 bf 9b e8 b6 3c f0 63 a3 3f
       -4.922255 -0.8320784 0.022327712 1.2764874
000300 95 76 fa 3d 84 40 41 be 3e eb 04 be e0 2e 2e 3e
       0.12229649 -0.18872267 -0.12980363 0.17010069
000310 33 fb 67 c0 fb 96 68 c0 68 1f b1 3f 26 16 93 bf
       -3.624707 -3.634215 1.383771 -1.1491134
000320 d1 c7 4b 3f ed 2b eb bf 3d 14 29 40 65 da 7c c0
       0.7960177 -1.837278 2.6418602 -3.9508297
000330 65 81 38 c0 c1 f7 1c 3e a7 56 c4 3f c0 c5 ba be
       -2.8828976 0.15328886 1.5338944 -0.36478996
000340 a8 e7 10 c0 68 9b 62 3f e2 79 d0 3f 57 8f 66 40
       -2.2641392 0.8851838 1.6287196 3.6024988
000350 14 7e 5f 3f 19 36 5b 3e 5b 31 6b 40 40 7f 9d 3f
       0.87301755 0.21407355 3.6748874 1.2304459
000360 1e 35 46 c0 d8 a3 01 c0 48 b1 27 c1 fe ea 71 3f
       -3.096992 -2.0256252 -10.480782 0.94499195
000370 48 3a b8 3d 62 ed 01 bc 68 c0 f0 bd 43 d9 77 be
       0.08995491 -0.007930132 -0.117554486 -0.24203973
000380 d8 4f 28 bf c8 32 b1 3f bd 62 09 40 02 d0 4f 3f
       -0.6574683 1.3843622 2.1466515 0.8117677
000390 22 03 4a 3f 0f 55 d5 3f ce 27 11 3f ce 7f 82 bf
       0.7891103 1.6666583 0.5670136 -1.0195253
0003a0 4b 75 08 c0 b3 ff b8 3f e7 3f 15 3f bc 27 40 bf
       -2.132159 1.4453033 0.5830063 -0.7506063
0003b0 89 f3 ff be dc 69 d4 bd ca 15 84 40 4a b9 bf be
       -0.4999049 -0.103717536 4.12766 -0.37446052
0003c0 39 a3 2a bf 48 2a e0 3f a3 d2 34 40 08 4e 28 3f
       -0.6665531 1.7512903 2.8253562 0.65744066
0003d0 46 ac ae 40 e1 1f 0b 3f 10 7a 6d 40 a5 8c 19 3f
       5.4585295 0.5434552 3.710575 0.5998023
0003e0 17 6a e2 be a1 b9 0b bf 99 20 2b bf 82 d5 17 bf
       -0.44221565 -0.5458012 -0.66846615 -0.5931016
0003f0 81 3d 54 bf a8 7e 0b 3f dd 79 25 3f dc 7a cd bf
       -0.8290635 0.5449014 0.64639074 -1.6053119

Enc.conv.0.bias f4 [32]
000000 26 bc 54 c0 3c 4a fb c0 af e3 c3 bf cd ff 88 c0
       -3.3239837 -7.852812 -1.5303859 -4.2812257
000010 15 ec 96 be 97 d8 f3 c0 ca 87 aa c0 74 37 af c0
       -0.2947699 -7.620189 -5.329076 -5.475519
000020 c0 66 1b c0 4e dd a0 bf e9 c2 e8 c0 96 2d e1 c0
       -2.4281464 -1.2567537 -7.2737927 -7.0368147
000030 91 e3 b3 c0 89 38 03 bf 3c 3b b1 c0 68 bc 20 bf
       -5.621529 -0.5125814 -5.5384808 -0.62787485
000040 bb d6 a8 be 29 fb ec c0 c7 42 c7 c0 f7 00 25 c0
       -0.32976326 -7.405659 -6.2269015 -2.578184
000050 26 54 07 c0 ab 77 b9 c0 e6 8e bf c0 8e bb a3 c0
       -2.114511 -5.795858 -5.9861937 -5.116645
000060 ac 1d 43 bf 5a 7b 89 c0 0f d6 89 c0 e0 4f 61 c0
       -0.7621715 -4.2963076 -4.30738 -3.5205002
000070 36 9c 9d c0 8f d1 f3 c0 1b b5 a6 c0 de f0 82 3c
       -4.9253187 -7.619331 -5.2096076 0.015983995

Enc.conv.2.weight f4 [64, 32, 2, 2]
000000 da e2 f6 bd 0e a2 f4 3f b0 00 be 3e 5b c9 ba be
       -0.12054987 1.9111955 0.371099 -0.36481747
000010 8b d5 6d be b0 55 0b c1 94 66 34 bf de d2 12 c0
       -0.23225991 -8.70842 -0.7046902 -2.2941203
000020 34 9c b9 3f 30 43 b8 3f c9 5e 8a bf 90 86 b3 3f
       1.4500794 1.4395504 -1.0810176 1.402544
000030 59 f0 45 3f 2a 5e 8e 3f d4 c7 61 be 2d e0 0d 3f
       0.77319866 1.1122487 -0.22048885 0.5542019
000040 25 b5 05 c0 32 a8 51 bd 93 b1 7e 3f f6 bb ce 3f
       -2.0891812 -0.051185794 0.99489707 1.6151111
000050 be 29 c6 c0 f8 7b 64 3f d2 1e 01 c0 ec 35 a8 c0
       -6.1925955 0.8925166 -2.0175061 -5.2565823
000060 1e a3 f5 be 98 f8 1c 40 66 d4 6e bf 0c 6d af bf
       -0.4797601 2.452673 -0.93292844 -1.3705153
000070 f6 70 1a bf b7 d5 a1 bf b2 25 e1 bf d5 a9 26 40
       -0.60328615 -1.2643346 -1.7589629 2.6041157
000080 3a 75 38 c0 e4 78 9d bf db e5 b7 bf 89 d8 e9 3f
       -2.882155 -1.2302518 -1.4367021 1.8269206
000090 7b 93 32 c0 be fb 3b c0 f0 f9 1a c0 82 11 d7 bf
       -2.7902515 -2.9372401 -2.421505 -1.6802218
0000a0 58 fd 6f c0 8d 69 82 3f b4 7c a7 bd b5 d5 f1 bf
       -3.7498379 1.0188462 -0.08178082 -1.8893343
0000b0 98 7d d7 c0 b8 29 a6 bf 4b e4 71 3f e2 a9 5d 3f
       -6.7340813 -1.2981482 0.9448897 0.86587346
0000c0 08 55 30 bf bc 50 06 3f 76 30 6a c0 04 fa 48 bf
       -0.6887975 0.5246694 -3.6592078 -0.78506494
0000d0 5e 11 19 c0 b9 39 25 c0 fb ba 54 c0 8f 39 0e c0
       -2.391685 -2.581648 -3.3239124 -2.222263
0000e0 74 eb 9a 3f eb 54 a2 bf 23 cf 0f 3d cd a4 ac 3f
       1.2103105 -1.2682165 0.03510965 1.3487793
0000f0 f7 2f 28 3f 3f 7e 92 3e b9 44 dd be 32 aa df 3e
       0.6569819 0.28611943 -0.43216494 0.43684536
000100 4d f1 61 be 25 6e 23 be ae 7b 72 3f bf e4 0b 3f
       -0.22064705 -0.15959986 0.9471997 0.54645914
000110 93 86 6b c0 45 ef d7 3e 6d 36 51 40 ad 61 14 3f
       -3.6800888 0.42174736 3.268947 0.5796154
000120 7e 04 d4 3d 94 00 c0 3f fb b0 48 40 39 ae cb 3f
       0.10352419 1.5000176 3.135802 1.5912544
000130 3a 30 48 3f fa ab 2d 3e 5d 43 b7 bd c4 f4 c0 3e
       0.7819859 0.16960135 -0.089483954 0.3768674
000140 b8 ac 0a 40 d3 c0 44 bf b7 3d 97 be f7 45 d4 3f
       2.166792 -0.76856726 -0.29539272 1.6583852
000150 5c 2b 32 3f 5e 22 ba bf db f5 86 bf d5 5f 5b 3f
       0.6959741 -1.4541738 -1.0543779 0.85693103
000160 bf 5e 9e 3f f5 40 f8 3e 29 79 2a c0 e4 c0 61 c0
       1.2372664 0.48487058 -2.663645 -3.527398
000170 65 4c b0 be f6 27 ab bf 4c 6c 25 bd 61 36 14 c0
       -0.34433284 -1.337157 -0.040386483 -2.315819
000180 3d d0 5f 3f 5f 3b 33 3f 60 b4 1e 3e 44 9e 83 3e
       0.8742712 0.7001247 0.15498495 0.25706685
000190 52 f3 8b 3f 05 32 3b 3f 9c 67 31 3f e5 51 93 3e
       1.093363 0.731232 0.6929872 0.28773418
0001a0 41 38 9e 3f 78 80 03 c1 48 f5 53 bd 86 62 58 3f
       1.2360917 -8.218864 -0.05174759 0.84525335
0001b0 2c 12 f2 be 43 b1 62 bf d9 54 19 3d 99 bc 0c 3e
       -0.4727949 -0.8855173 0.037434433 0.1374382
0001c0 49 ba 85 3e 19 91 0e bf e1 1d 4b bf 67 37 a6 3f
       0.26118687 -0.5569015 -0.79342467 1.2985657
0001d0 aa 44 4a be d0 ba f6 3f 00 4d 1c 40 c9 c2 4e 3f
       -0.19752756 1.9275761 2.4421997 0.8076597
0001e0 86 dc 38 3f 4c 08 c1 bf 59 09 24 3e f5 12 86 40
       0.7221149 -1.5080657 0.16019191 4.189814
0001f0 79 52 cb bd ae 30 f7 bf 41 5a b9 3f 67 69 8b 3f
       -0.0992784 -1.9311731 1.4480668 1.0891541
000200 a0 ab 3f bf bc ef a6 3c 7c 45 fd bf 93 a6 80 3f
       -0.74871254 0.020377986 -1.978683 1.0050834
000210 8a 12 18 c1 df 08 a7 c1 dc f5 cf 40 a8 97 db bf
       -9.504526 -20.879332 6.498762 -1.7155657
000220 49 8c c5 3f ed 6c 6c 3f ee c2 ea 3f 82 f0 bb 3f
       1.5433437 0.9235371 1.8340738 1.4682772
000230 26 48 de 3c b2 70 0d 3f 87 2b 17 c0 12 16 63 bf
       0.027134012 0.55250084 -2.3620317 -0.8870555
000240 6d 73 c0 3f 8f 86 d1 bd ee 29 78 c0 6c 76 c1 3f
       1.5035225 -0.10230743 -3.8775592 1.5114264
000250 1f 0e 68 c1 cb c7 26 c1 f3 24 24 41 4f ec 8a 40
       -14.503448 -10.423778 10.259021 4.3413463
000260 61 96 8d c0 f9 19 e2 3e 2f b5 70 c0 e8 b8 cd c0
       -4.424607 0.4416044 -3.7610586 -6.4288216
000270 c8 2b dc bf 82 e4 f5 c0 87 a0 cc c0 4b 4f b8 40
       -1.7200861 -7.684144 -6.3945956 5.7596793
000280 6b 57 4e 3e c3 7b 52 c0 61 60 ae c0 4b 0a b6 c0
       0.20150535 -3.2888038 -5.449265 -5.6887565
000290 a7 0d 05 c0 74 4c 2c c0 de a6 c0 bf 42 5e 41 c0
       -2.0789583 -2.6921663 -1.5050924 -3.021378
0002a0 b0 1c af c0 e5 d1 02 c1 52 c6 39 40 69 d0 24 bf
       -5.472252 -8.176244 2.9027295 -0.6438051
0002b0 1e fd 71 c0 f7 9e c7 c0 22 f8 b3 3f ab d4 47 c0
       -3.781074 -6.238155 1.4060099 -3.1223552
0002c0 b2 6e a3 bf 19 76 88 40 ab ba a6 c0 79 d2 ed 3f
       -1.2768157 4.264416 -5.2102866 1.8579856
0002d0 aa 60 f2 bd 7f b4 98 c0 f4 f6 81 bf a6 39 a4 c0
       -0.118348435 -4.772033 -1.0153489 -5.132037
0002e0 2c f1 36 3f 92 d1 b4 3e 03 4c e3 3f 9d f1 a7 bf
       0.7146175 0.3531614 1.7757572 -1.312061
0002f0 78 0c b4 3f b2 bc 15 c0 d0 9f 01 3e bd 37 8d c0
       1.4066305 -2.339642 0.1265862 -4.413054
000300 af 7b 92 c0 97 51 22 3f b7 89 d9 3f 2b 71 61 3e
       -4.577598 0.63405746 1.6995152 0.22015826
000310 18 0c 1a 40 1b df 21 c1 b1 39 c2 40 f9 fd 85 c0
       2.4069881 -10.116969 6.0695424 -4.1872525
000320 3d ee fd be d2 63 77 40 fd 16 90 40 84 1a 60 40
       -0.49595824 3.8654675 4.502806 3.5016184
000330 5e db c5 bf 8e dc 99 c0 d9 40 dd bd 6d c9 18 c0
       -1.545757 -4.808173 -0.10803384 -2.387294
000340 ab 5e 87 3f 4e 18 84 be de 48 79 3e d5 fc e7 bd
       1.0575765 -0.25799793 0.24344203 -0.11327521
000350 22 25 e6 3f 4c bf 62 be 84 5a 98 c0 6c 7e 07 c0
       1.7980082 -0.22143286 -4.7610493 -2.1170912
000360 ae ea ae 40 fa 9c 23 40 7f 49 34 c1 31 49 8b bf
       5.4661474 2.556456 -11.267943 -1.0881711
000370 08 3c 48 c0 56 96 73 c0 9d 70 b6 3f 91 2a 9a c0
       -3.128664 -3.8060508 1.4253117 -4.817696
000380 66 71 85 40 aa 63 6a 3e 57 fa 13 3f 44 ad 4f 3f
       4.1700926 0.22889581 0.57803863 0.8112376
000390 a0 f2 c3 3e 0f d8 21 40 33 62 65 3e ca 0b af 40
       0.38271046 2.5288122 0.22400741 5.470189
0003a0 25 c5 f7 3f 31 c3 52 c0 b9 3c 40 bd 46 98 ba bf
       1.9357039 -3.2931635 -0.04693291 -1.457772
0003b0 2d 28 0b 3f 38 15 26 3f 72 19 10 bf 3b 19 4d c0
       0.5435818 0.6487613 -0.56288826 -3.204665
0003c0 50 18 ec bc ff a6 59 c1 48 ce ea 3e 42 bc bf be
       -0.028820187 -13.603271 0.45860505 -0.37448317
0003d0 a6 5f 4c 3f e2 ed e4 bf 41 03 61 40 98 cc dc 3f
       0.7983345 -1.7885096 3.5158236 1.7249937
0003e0 22 12 b6 40 12 33 4a c0 80 32 27 40 d1 1a 8b 3f
       5.6897135 -3.159367 2.6124573 1.0867559
0003f0 89 05 a5 3e e5 94 61 bf 29 80 cd 3f e2 22 2e c0
       0.32230785 -0.8811782 1.6054736 -2.720879

Enc.conv.2.bias f4 [64]
000000 45 50 16 be 63 0f 5c bf c5 65 53 3f e0 92 93 3e
       -0.14679058 -0.8596098 0.82577163 0.28822994
000010 8c 99 00 be 29 51 a0 be f8 6d 67 3f ec da 86 be
       -0.12558573 -0.3131192 0.90402174 -0.263389
000020 d0 b3 c3 bf cf d3 e6 3d 85 82 7f bf 8a 6d 4b be
       -1.528925 0.11270868 -0.9980853 -0.19866005
000030 6d eb fb 3e ef 7f 6d be 0d 4f b4 bd 22 33 08 be
       0.49203053 -0.23193334 -0.0880414 -0.13300756
000040 73 05 55 be 48 6b 1c 3f 09 a7 0d c0 1c bd 8d 3d
       -0.2080286 0.611012 -2.21332 0.069208354
000050 07 5a 94 be ad 40 f7 3c dd 2e ce bc 94 f1 bd 3b
       -0.28974935 0.030182207 -0.02516883 0.0057966206
000060 79 f4 ae be bc 39 c6 be 51 b1 06 3d 31 2d 56 3e
       -0.34170893 -0.38715923 0.032883946 0.20915677
000070 58 10 f0 3e 08 27 26 bf b6 d6 19 3f 0c b4 55 3f
       0.4688747 -0.64903307 0.6009325 0.83477855
000080 9f b1 f9 be be 23 49 3f 00 01 62 be 5d 83 8c 3e
       -0.48768327 0.78570163 -0.22070694 0.27443972
000090 1c ba a5 be 12 79 48 be e1 a6 bf 3e 32 04 b9 be
       -0.32368553 -0.19577435 0.37432006 -0.36136013
0000a0 41 10 2d 3f 15 75 0a be ac 4a 1d be 43 7c 60 3e
       0.67602926 -0.13521226 -0.15360516 0.21922402
0000b0 c4 47 e4 bd aa 9d 46 3f 68 62 c2 be 6d 61 7d 3f
       -0.11146501 0.77584326 -0.37965703 0.98976785
0000c0 bd 65 a1 bc 2f 24 ed be 42 54 0e be 6d ad e5 3c
       -0.019701833 -0.46316668 -0.1389933 0.028036797
0000d0 be d6 fd 3d a8 7a 83 3e 05 02 04 3e b2 81 85 3f
       0.123944744 0.25679517 0.12891395 1.0430205
0000e0 08 6f 1c 3f e5 69 93 be 0b b1 84 bc df 6a 14 bc
       0.6110692 -0.2879173 -0.016197702 -0.009058683
0000f0 3b a5 b9 3d 10 2c ee be 60 2b 64 3f 55 a7 22 3f
       0.09064718 -0.46517992 0.89128685 0.6353658

Enc.conv.3.weight f4 [64]
000000 b6 03 af 3c c7 5c 99 3f 74 0b 27 3f 85 28 d2 3e
       0.021364074 1.1981438 0.6525185 0.4104654
000010 bd 4f b9 3d d4 b5 56 3f c1 fe a6 3e ba 93 8f 3f
       0.09048412 0.838712 0.32616237 1.1216958
000020 92 95 e7 3e 74 a0 c2 3e 52 a2 a9 3f 0c d9 87 3f
       0.452313 0.3801304 1.3252661 1.0613112
000030 52 5a 24 3f 3a fe b0 3f 2c 78 a8 3d fe be b9 bc
       0.6420032 1.3827584 0.08226046 -0.02267408
000040 b4 e8 6a 3f 8f a0 2f 3f c1 96 9b 3f 18 85 b7 3b
       0.91761327 0.6860437 1.2155381 0.005600583
000050 e6 d0 83 3e eb d5 f2 3d ac 9d 45 3f b0 a5 ed 3d
       0.25745314 0.11857208 0.77193713 0.11603868
000060 22 5f 44 3d 24 8f e1 3d bf bf 76 3d 28 a9 38 3e
       0.04794229 0.1101363 0.060241457 0.18033278
000070 5e 16 b0 3e e9 20 91 3f d3 2b 24 3e 81 b7 55 3e
       0.34392065 1.1338168 0.16032343 0.20870782
000080 e4 95 8c 3a ca 32 9a 3f ef 8d e6 3d 60 f0 15 3d
       0.0010725823 1.204675 0.112575404 0.036606193
000090 87 13 97 3d 49 dc 56 3f dc b8 57 3f fe f3 5b 3f
       0.073767714 0.8392988 0.8426645 0.8591918
0000a0 7f 61 52 3f 35 64 e2 be 09 89 78 3c f4 c1 f9 3e
       0.8218002 -0.44217077 0.0151693905 0.48780787
0000b0 5c 7c 59 3f 8d 3c bf 3d 49 1e 06 3f 61 9a a2 3f
       0.8495538 0.09337721 0.5238996 1.2703363
0000c0 1d 55 17 3e 92 55 25 3e 38 d0 89 3f 39 a3 b6 bc
       0.14778562 0.16145924 1.0766668 -0.022294628
0000d0 05 71 98 3f ce 48 d7 3d d9 76 09 3d fa f2 79 3f
       1.1909491 0.10511933 0.033560608 0.9763638
0000e0 54 dd 2b bc 00 23 55 3f 1d d8 14 3d f2 c0 14 3f
       -0.01048978 0.8325653 0.036338914 0.5810691
0000f0 e9 7c 85 3d 07 ca 27 3f a2 dc 59 3f cf fd 8b 3f
       0.06517965 0.65542644 0.85102284 1.0936831

Enc.conv.3.bias f4 [64]
000000 61 25 08 bf 85 ba be bf 36 14 84 be a6 30 c0 be
       -0.53182036 -1.4900671 -0.2579667 -0.37537116
000010 c2 15 3d bf cb 74 47 bf c2 63 a7 bf ee 9e bb bf
       -0.73861325 -0.77912587 -1.3077319 -1.4657876
000020 99 b2 02 3e 9c 1d 01 3c 7c 14 03 3d 1d ab 24 bf
       0.12763442 0.007880595 0.032001957 -0.643236
000030 2e 02 fa bf 27 87 76 bf c7 a3 2f bf 39 1e 6d be
       -1.9531915 -0.96299976 -0.6860928 -0.2315606
000040 13 b9 87 3f a3 1e f7 be 41 2b 2f bf 77 e2 bd bd
       1.0603355 -0.4826556 -0.68425375 -0.0927171
000050 9c f9 e8 bf f5 3c 74 bf 18 09 a8 bf 29 f6 36 bf
       -1.8201175 -0.95405513 -1.3127775 -0.7146936
000060 b3 72 2a bf 93 d4 4d bf bf 7e 95 bf 23 e2 ac bf
       -0.6658127 -0.8040249 -1.1679305 -1.3506511
000070 76 a5 8c bf c2 51 cd bf 5d 80 91 bf 07 df 91 bf
       -1.0987995 -1.6040576 -1.1367298 -1.1396188
000080 fb 3b 2d bd f8 d0 9e bf 8b 77 41 bf 57 2d 6f be
       -0.04229353 -1.2407522 -0.75573033 -0.2335714
000090 63 94 02 bf 72 4c ef bf 70 c6 60 be e9 1f c8 bf
       -0.5100767 -1.8695204 -0.21950698 -1.5634738
0000a0 74 a3 55 bd 8f 93 ac 3d 4c 15 f4 be 3b fa a0 3e
       -0.052157834 0.08426582 -0.47672498 0.3144091
0000b0 6b fa bd bf ae ca 10 bf 9f d1 ef bf bb f1 ab 3f
       -1.4842046 -0.56559265 -1.8735846 1.3433145
0000c0 61 4e 4e bf 93 bd 84 bf 2b ca c5 3f be 46 b2 be
       -0.80588347 -1.0370353 1.5452322 -0.34819597
0000d0 88 40 48 bf 80 89 5e bf 66 99 00 bf 92 6a c7 3f
       -0.78223467 -0.8692856 -0.5023407 1.5579398
0000e0 91 e6 21 be 56 74 4a bf 17 51 c7 be 16 2b fc 3c
       -0.1581061 -0.79083765 -0.38929054 0.030782264
0000f0 9f 6b 08 bf b8 50 10 bf ca c0 61 bf 93 ef ba bf
       -0.53289217 -0.5637317 -0.881848 -1.4604362

Enc.conv.3.running_mean f4 [64]
000000 a1 61 bf c0 eb 8e 85 c1 e8 2e bb c1 bc 6f 18 40
       -5.9806676 -16.694784 -23.397903 2.3818197
000010 83 a2 0d c1 ad e6 70 c1 35 71 14 c2 f7 9f ae c1
       -8.852176 -15.056317 -37.110554 -21.828108
000020 34 5d 04 41 0c 01 13 41 85 8c 5b c1 2f 55 42 c1
       8.272755 9.187756 -13.721807 -12.145797
000030 99 15 99 c1 a9 25 1a c2 8e 3e b5 c1 e3 12 c9 c0
       -19.135546 -38.536777 -22.655544 -6.2835555
000040 cc 4b a4 c1 45 00 10 c2 97 0d d5 c1 af d7 f1 c0
       -20.53701 -36.000263 -26.631636 -7.5575786
000050 4c 99 9e c0 ff cf bf c1 aa 74 b3 c1 bb 71 40 c1
       -4.956213 -23.97656 -22.431965 -12.027766
000060 e2 f1 54 3f 5d ff 63 c0 7a 76 4f c1 1e cd e4 c0
       0.83181584 -3.5624611 -12.966425 -7.1500387
000070 9e 78 06 c2 b9 cd c6 c1 a7 04 36 c1 b5 36 b4 c1
       -33.61779 -24.85045 -11.376136 -22.526712
000080 09 85 93 c1 b6 4f 06 c1 a1 9c e4 c1 07 16 35 c1
       -18.439959 -8.394461 -28.576479 -11.317878
000090 c7 ec 66 c0 5f ee 71 c1 fe 5f ce c0 44 88 8b c1
       -3.6082017 -15.120696 -6.449218 -17.441536
0000a0 aa 0c 88 3e fa 6e 55 c0 b6 fe ab c0 18 5e d0 c1
       0.26572162 -3.3348985 -5.3748426 -26.045944
0000b0 36 bb 85 c1 ea b6 89 c1 2d b1 13 c2 04 db 41 c1
       -16.716412 -17.214314 -36.923023 -12.115971
0000c0 c1 1f 39 c1 2e f6 2a c1 28 ee ca 3e 7c b6 7a c1
       -11.570252 -10.685102 0.39634824 -15.669552
0000d0 c1 8d 46 c2 20 a2 10 c1 59 a7 f2 c0 ca db 83 40
       -49.63843 -9.039581 -7.582928 4.1205797
0000e0 21 a5 be c1 99 6d a2 c1 94 ae 2e c1 b4 18 45 c1
       -23.83063 -20.303514 -10.917622 -12.318531
0000f0 7f 1d b3 c0 42 aa 40 40 c8 7c 0a c2 ce 09 0b c1
       -5.5973506 3.0103917 -34.621857 -8.689894

Enc.conv.3.running_var f4 [64]
000000 cb 7c a9 43 71 bc 52 44 25 27 6a 44 d6 78 02 44
       338.97495 842.9444 936.61163 521.88806
000010 96 5b 00 44 aa c1 02 44 01 34 90 44 27 32 87 44
       513.431 523.026 1153.6251 1081.5673
000020 dc 63 b8 43 f4 3d fa 43 d2 40 e4 44 43 52 2d 45
       368.78015 500.484 1826.0256 2773.1414
000030 9f f9 19 44 87 26 2f 45 b5 41 15 44 1b 5c 57 43
       615.9003 2802.408 597.0267 215.35979
000040 e0 ab c4 44 f0 ba a9 44 cb 92 7f 44 dc 24 da 43
       1573.3711 1357.8418 1022.29364 436.28796
000050 99 9a e3 43 85 73 eb 43 cd cf aa 44 61 d7 b0 43
       455.2078 470.9025 1366.4938 353.68265
000060 4e 3f 6a 42 7d f1 b0 42 5f 63 b0 43 62 9b 05 43
       58.56182 88.47166 352.77634 133.60696
000070 14 bd 2f 45 3f f8 35 44 ea 13 9d 43 b6 02 a0 44
       2811.8174 727.87885 314.15558 1280.0847
000080 bb 3a 37 44 c4 ff 1d 44 dc 20 4b 44 9a 61 de 43
       732.91766 631.99634 812.5134 444.7625
000090 6c 66 bc 42 e4 be 36 44 46 50 72 44 ce 34 11 44
       94.20004 730.98267 969.2543 580.8251
0000a0 d1 54 28 44 ed 92 88 44 b0 9c 57 42 a9 7f 5c 44
       673.32526 1092.5914 53.903015 881.9947
0000b0 af f0 38 44 06 c3 53 44 3d de b0 44 3a d3 06 45
       739.7607 847.04724 1414.945 2157.2017
0000c0 49 11 af 43 74 82 3a 43 1f 0d dd 44 c5 9a 13 44
       350.13504 186.50958 1768.41 590.4183
0000d0 34 ff 3f 45 af 5e 92 43 1b 20 19 44 d0 9c 53 44
       3071.9502 292.73972 612.50165 846.4502
0000e0 d5 5f 1d 44 eb 33 9b 44 ca 35 17 43 38 ac a7 44
       629.4974 1241.6224 151.21011 1341.3818
0000f0 23 96 33 43 e9 87 cb 43 cc 85 e1 44 28 7d 04 44
       179.58647 407.0618 1804.1812 529.95557

Enc.linear.weight f4 [256, 576]
000000 d0 e4 06 3d 54 f5 15 3d 7a 6c 79 bd 3c 36 12 3c
       0.032933056 0.036610916 -0.060894467 0.008924063
000010 b1 c7 8a bd 4c ec fd bc 9d 7d 3a 3d b3 f6 52 bc
       -0.06776369 -0.030996464 0.04552995 -0.0128762005
000020 8a 05 bc bd 80 1e d6 bc 46 3c 6e bc 2a 1f a1 ba
       -0.09180744 -0.02613759 -0.0145407375 -0.0012292613
000030 27 65 6c bc d1 e3 0b bc e7 db fd 3c 50 ca 97 bc
       -0.0144284135 -0.008538202 0.030988647 -0.018529087
000040 81 3f d8 3c cb af 1f bd cc 10 93 3c 74 d4 18 bd
       0.026397469 -0.03898601 0.017952345 -0.037311986
000050 50 19 c2 3c b7 44 93 3d 43 1b 5b 3c d9 a3 f4 bd
       0.02369371 0.07190841 0.013373199 -0.11945314
000060 fc 38 4d 3d 4c 87 76 3c 2c c4 30 3b c9 8c 96 bc
       0.050103173 0.015046906 0.0026972396 -0.018377678
000070 a1 36 90 3b bc e2 ca bd 77 76 6d 3d d9 68 cd bc
       0.0044010435 -0.099065274 0.057974305 -0.02507441
000080 3c 70 77 bc 27 e1 77 bd 83 18 23 3c 7b 56 5e bd
       -0.015102442 -0.060517456 0.0099545745 -0.054281693
000090 ba 0b 8e 3b 1f 10 1c bb 14 5a f2 bc 7b 08 60 bd
       0.004334894 -0.002381332 -0.029583968 -0.054695588
0000a0 22 3b a7 3d 12 2f b2 bd a8 25 a0 3d 9e bf f3 39
       0.081655756 -0.08700384 0.07819682 0.00046491338
0000b0 c3 7d 82 bd 14 44 17 bd 36 2f 99 bc ee e2 f5 3c
       -0.063716434 -0.03693016 -0.01869927 0.030015435
0000c0 98 0a 26 3d cc 24 86 bd 6e 61 09 bd cd c6 3f 3d
       0.040537447 -0.06549987 -0.03354018 0.04682045
0000d0 d0 3a 31 3c 59 08 10 bc 0b 77 e0 bc 7f 1c 74 bb
       0.010817245 -0.008791053 -0.027400514 -0.003724843
0000e0 4f c7 43 bc 78 fc 85 3d 8e 71 85 3d 00 49 f9 3c
       -0.011949374 0.06542295 0.065157995 0.030430317
0000f0 ec a9 f8 3c 55 b1 9a bc d9 74 b4 3d 5f ff cd 3b
       0.030354463 -0.018883387 0.088113494 0.006286546
000100 30 ab fe ba 3d ee 7b bc 0a 2d 0a bc 86 dc de 3c
       -0.001942968 -0.015376625 -0.00843359 0.027204763
000110 bd b8 33 3c be 05 0a bd 64 d3 8d bc d5 52 c9 bc
       0.010969338 -0.033696882 -0.017312713 -0.02457563
000120 2a 1b 6d bc 17 3b 72 bd df 65 d4 bd d1 18 2d ba
       -0.014471808 -0.059138384 -0.10370993 -0.0006603124
000130 51 b4 98 3d 87 54 89 bd 0a 06 13 bd 55 d1 25 bc
       0.074562676 -0.067055754 -0.03589443 -0.010120709
000140 16 51 20 bd 42 28 a6 bd d7 61 cd 3c b2 df 6d 3c
       -0.03913983 -0.08113147 0.025071068 0.014518665
000150 6b 8d 71 3c c5 a1 89 3d 67 e8 09 3b eb f2 38 bc
       0.014743189 0.06720308 0.0021043064 -0.011288385
000160 ff 0f 6c bd cc 4a 06 be 9d 9c 89 bd c8 0a 15 bd
       -0.057632443 -0.1311447 -0.06719325 -0.036387235
000170 e7 21 81 bd f2 48 8b 3d e2 1f 89 3c c9 f1 9a 3d
       -0.063052945 0.068010226 0.016738836 0.07565648
000180 39 65 3e bd 12 74 38 bc 42 20 05 3d c0 99 db bc
       -0.046483252 -0.011258142 0.032501467 -0.026806712
000190 a5 ac b5 bd d2 58 d2 bc a5 8a ca bc c5 47 75 bd
       -0.0887082 -0.025677118 -0.024724314 -0.059882898
0001a0 13 df 9c bd cb ff 09 3d d5 cc b1 bd a7 0f db 3c
       -0.076597355 0.03369121 -0.08681647 0.026740862
0001b0 8a 7d 2e 3a ca 2d b8 bc c7 33 6d 3c d1 92 36 3d
       0.000665628 -0.022482771 0.014477677 0.04457361
0001c0 d8 24 ff ba ea 49 08 3d a2 ea 54 bb f7 91 35 bd
       -0.0019465936 0.033273615 -0.0032488485 -0.044328656
0001d0 56 a7 c1 3c a2 f1 b8 bc 27 e2 66 bc ee 89 3b 3d
       0.023639362 -0.022576157 -0.014092005 0.045785837
0001e0 46 f1 44 3d 65 db 1b 3d d8 9d ad 3d c9 a1 c4 3c
       0.04808166 0.038051028 0.08477372 0.024002926
0001f0 10 2a 04 3d de 3c 25 3c 1c e1 9a 3d 02 e9 8a 3d
       0.032266676 0.010085313 0.075624675 0.06782724
000200 83 60 e6 3b d5 f6 2a 3d b1 9b 8c bd 6d e9 a6 3c
       0.007030548 0.041739304 -0.06865633 0.020374978
000210 23 ba 4f 3d 35 e2 63 3c b5 2d 62 3c 58 23 33 bd
       0.050714623 0.013908912 0.013804843 -0.04373488
000220 f0 c3 ab bc f7 1b 1d bd 68 2f 27 3d 5d 5a a6 bd
       -0.020967454 -0.038356747 0.040816694 -0.08122704
000230 7d 53 d0 bd da d8 25 be c7 42 8c bd a5 19 83 bd
       -0.10172174 -0.16196004 -0.06848674 -0.06401376
000240 eb 5c 4c bd 73 d6 ac bd 1a 0e c5 bd c9 0b 01 bd
       -0.0498933 -0.084393404 -0.0962183 -0.03150538
000250 90 0a 60 bd d2 41 5a bd 2f a5 85 bd 6d 33 5a bd
       -0.054697573 -0.053285427 -0.06525647 -0.0532717
000260 25 78 3b 3d 0a 72 0c be 8c 43 90 bc 8f 78 07 be
       0.045768876 -0.13715377 -0.017610334 -0.13229583
000270 86 ac 96 3c 6b 0a df bc 85 b2 4c bd a9 90 fc bc
       0.018392812 -0.027226647 -0.049974937 -0.030830698
000280 85 06 d8 3d 83 52 98 bd 87 58 8d bb 31 03 b1 bd
       0.105481185 -0.07437613 -0.004313532 -0.08643187
000290 74 53 91 3c bd 35 01 bd 46 b9 bc bb 2b 99 4f 3c
       0.017739989 -0.03154539 -0.005759391 0.012670795
0002a0 80 e5 49 bd 24 b9 0e bc ab 0a 8d 3c 34 85 6e bc
       -0.049291134 -0.008711133 0.017217001 -0.014558125
0002b0 6c d7 d9 bc 86 cc f5 bc 77 6d 98 3d 4a 2a 9d bd
       -0.026591979 -0.030004751 0.07442754 -0.076740816
0002c0 bf ba 03 3d f2 8d 77 3d 8e 09 06 be d7 e7 09 be
       0.032160517 0.060438104 -0.13089582 -0.13467346
0002d0 9a 92 5c bd c5 71 35 3d e8 7c ed bd d3 d2 4e bb
       -0.053850748 0.044297952 -0.115960896 -0.0031558766
0002e0 a5 66 22 3d 1c b3 2a bd 1b 91 0d 3c 19 9c f2 bd
       0.03964867 -0.04167472 0.008640553 -0.118461795
0002f0 ff 8d 82 3d b5 82 57 bd e5 3b 6d 3c 2e 45 86 bd
       0.0637474 -0.052614886 0.014479612 -0.06556164
000300 c1 92 08 3c 5c 5d 90 3d 16 8d 3a bd 2b 94 a8 3c
       0.00833577 0.07049057 -0.045544706 0.020578464
000310 eb 71 90 3d 36 87 7a bc 9b 21 40 bd 2a 4d b8 bc
       0.07052978 -0.015291026 -0.04690705 -0.022497732
000320 38 29 c0 bb da e2 a5 3c 0f c4 17 3d 49 cf db 3b
       -0.0058642887 0.020249773 0.03705221 0.00670806
000330 a0 36 7c 3d 2b 11 01 bb 43 29 1e 3c 3e 3f 28 bc
       0.061575532 -0.001969407 0.009653392 -0.010268984
000340 79 bb d5 bc 4d cf 8f 3c a3 6b 38 bc ed 8c 0c bc
       -0.02609037 0.017554903 -0.011256131 -0.008578521
000350 7d 27 2b 3d 54 2e 1e 3d d5 0f 58 bd c1 54 bd bc
       0.041785706 0.0386184 -0.052749474 -0.023111703
000360 db a6 35 3d 1b 3c 1f 3d 58 07 a4 3d 9a f9 71 3d
       0.04434858 0.03887568 0.08009213 0.05907593
000370 9b e7 59 3c 20 99 28 3d 3e f6 56 3c cd 79 95 bd
       0.013299848 0.041161656 0.013120232 -0.07298622
000380 99 92 90 bd bf f7 2a 3d ca e9 ac 3d 6f 64 3a bc
       -0.07059211 0.041740175 0.08443029 -0.011376484
000390 dd 24 2f 3d d5 c9 84 bd c9 21 79 3c 44 f1 81 bd
       0.042759765 -0.06483809 0.015205809 -0.06344846
0003a0 6d 77 7c bd 2e ae 16 be 84 73 85 bc f0 0c 26 3d
       -0.06163733 -0.14714882 -0.016290434 0.040539682
0003b0 3e 25 25 3d bc d6 c9 3c c0 84 da ba 17 20 32 bd
       0.04031872 0.024638526 -0.0016671643 -0.043487635
0003c0 9c e2 a5 39 4b 54 13 bd ff 23 4c bd 4b 06 a1 3c
       0.0003164009 -0.03596906 -0.049839016 0.019656321
0003d0 a0 47 ed 3c 2c ee d3 3c 76 61 a7 bb 2e e5 82 bd
       0.028964818 0.025870405 -0.005108054 -0.06391369
0003e0 76 12 dd bc 16 97 51 3d 43 62 d1 3c 93 9d 0e bd
       -0.026986342 0.051169477 0.02555955 -0.034818243
0003f0 d6 d3 65 bd 42 9a 66 ba f4 90 eb bc 3d 00 0b 3d
       -0.056110226 -0.000879679 -0.028755642 0.033935774

Enc.linear.bias f4 [256]
000000 d8 36 13 bd 53 c4 d7 3e cf ea ec 3d ae 32 c1 bb
       -0.035940975 0.4214197 0.11568224 -0.005895934
000010 63 62 97 be cc 43 98 3c de b9 da 3e 22 50 d3 3b
       -0.2956725 0.018587016 0.4271993 0.0064487616
000020 03 15 16 be 67 58 48 bd 6f 49 19 bc fe eb 5c 3e
       -0.14656453 -0.048912432 -0.009355887 0.21574399
000030 ce d8 38 41 ee 35 7f 3c 60 8b 12 41 5f 7d 46 bd
       11.552931 0.015576823 9.159027 -0.048459407
000040 02 05 3a 3f 29 3b 2e bd 6f 7e 87 be 39 52 8e 40
       0.7266389 -0.04253689 -0.2646365 4.447537
000050 73 6e ed bc 01 02 2a bc 09 d5 85 be 95 20 5c bd
       -0.02898333 -0.010376454 -0.26139095 -0.05374201
000060 1e 2a b1 bc b5 ff 34 3f d4 be 18 3c 7f c1 3a 3f
       -0.021626528 0.7070268 0.009322841 0.729515
000070 88 d5 6c 3b c1 60 21 bd 00 9d 1b bd 59 53 c0 40
       0.0036138017 -0.039398912 -0.037991524 6.0101743
000080 01 e1 31 bd fc 1f e6 bc 5b c9 82 3c 17 07 75 3c
       -0.04342747 -0.028091423 0.015965154 0.014955304
000090 31 29 86 bc 10 f0 23 be 68 9c c9 bd c5 f7 4b bd
       -0.016377063 -0.16009545 -0.09844285 -0.04979684
0000a0 a8 2c c5 3c f2 41 6f bd d3 23 a7 bc 24 83 18 3b
       0.024069145 -0.0584125 -0.020402825 0.0023271525
0000b0 2f 78 18 bd 94 bc f0 be dc b2 a8 be 6c fa 1e be
       -0.03722399 -0.47018874 -0.3294896 -0.15525216
0000c0 30 d2 83 40 b1 1c 1a bc a3 c1 23 bd f3 59 0f bd
       4.1194077 -0.009406255 -0.03997959 -0.03499789
0000d0 5c 28 93 bd 45 96 d5 bd 0b d2 41 bd c5 68 e0 bd
       -0.07185432 -0.10429052 -0.047319453 -0.10957483
0000e0 7e 62 b9 bc 75 ea 64 bc 63 00 68 bd bf 3f 12 bd
       -0.022629973 -0.013971915 -0.056640994 -0.035705324
0000f0 10 38 fd bc 31 e3 d9 3e a3 ab 31 bb 4f 77 9f bd
       -0.030910522 0.42556146 -0.002711036 -0.07786428
000100 dc af 44 bd cf 24 39 be b0 c3 c9 3e e4 18 c2 3c
       -0.048019275 -0.18080448 0.3940711 0.02369351
000110 62 f2 24 be 6a 7d f0 3d 59 b5 b6 3f 83 c4 fe 3b
       -0.16108087 0.11742671 1.4274093 0.007774891
000120 4d d4 30 bc 8e 5a f9 3e 2f 52 61 bd f0 63 6a 41
       -0.010792804 0.487019 -0.055010017 14.649399
000130 f3 34 93 3c 8d e7 61 bd 6e 44 d8 bc 14 57 59 bd
       0.017969584 -0.055152465 -0.026399817 -0.05306156
000140 8a 29 f1 bd 38 0c 44 bc 0a e3 25 be 3c 84 82 bd
       -0.11775501 -0.011965804 -0.1619989 -0.06372878
000150 1f d0 db bd e4 61 3a bd 69 42 31 3c 48 20 1a 3d
       -0.10733055 -0.045503512 0.010819056 0.037628442
000160 7d 5f 7b 40 77 a1 ee bc 12 76 01 bf 5b a3 2f bd
       3.9277031 -0.029129727 -0.50570786 -0.042880397
000170 83 57 40 3d 93 25 a9 3b c8 34 d3 40 6e 97 45 bc
       0.046958458 0.00516195 6.600193 -0.012060029
000180 4d b0 d6 bd 7e e5 21 bd fa c4 d8 be 82 39 b2 bd
       -0.104828455 -0.0395255 -0.4233778 -0.08702375
000190 a9 a3 f6 be 17 7a de 3d 90 b1 16 bf 1c 9c 39 bd
       -0.48171738 0.108631305 -0.5886469 -0.045314893
0001a0 ea c5 11 bd b2 89 2c 3f 08 45 99 3d 69 9f ae bd
       -0.035589136 0.67397606 0.0748387 -0.08526499
0001b0 da ca 73 bd c3 00 a0 3d f2 b9 0f bd eb 4a e7 be
       -0.059519626 0.07812645 -0.03508944 -0.45174345
0001c0 cc 95 64 bd db 17 86 bd b6 cc 38 3f 6c 2d f9 3a
       -0.05580692 -0.06547519 0.72187364 0.0019010729
0001d0 d9 b1 bf 3b c1 77 91 3e ee ff 49 bd 49 b6 da 3e
       0.0058500585 0.28411677 -0.04931634 0.42717198
0001e0 c5 6f c2 b9 0b 95 6b 3e d0 70 ed bd a0 69 19 be
       -0.00037085838 0.23006074 -0.11593783 -0.14981699
0001f0 67 7c 62 bd fe 99 00 bd 0f 47 e7 3a 7c cf a0 bc
       -0.05529442 -0.03139686 0.0017645078 -0.019630186
000200 e4 0a 66 be fe d0 c0 39 8d fc 73 3e d7 ba 03 bf
       -0.22465092 0.00036776805 0.23826809 -0.5145697
000210 86 41 1a 3e 2a 4c 12 bc 59 38 ab bc 78 92 c2 bd
       0.15064058 -0.008929292 -0.020900892 -0.09500593
000220 51 65 28 3e bf d5 08 3d ee a7 6b be f1 94 76 3e
       0.16444899 0.03340697 -0.23013279 0.24080254
000230 f0 19 97 be d5 f5 69 3c e7 90 08 bd 1f 51 25 3c
       -0.29511976 0.014279802 -0.033341315 0.010090142
000240 55 b8 93 3b 2f 7b 82 bc 2f 5a d2 bc d3 19 af bc
       0.004508058 -0.01592788 -0.025677769 -0.021374619
000250 a3 79 48 3c 4a a4 82 3c d0 66 68 40 f7 0b 90 bc
       0.012236032 0.01594748 3.6312752 -0.01758383
000260 c0 b9 a1 3c 21 d9 6b 3c ee 15 7c 3e 0a f2 07 be
       0.019741893 0.014395029 0.2461774 -0.13275924
000270 0e 0b 2a 3f 2f 9c 74 3f 8e d6 4a bd bb a5 ee 3e
       0.6642312 0.9555082 -0.04952102 0.46610817
000280 e6 a2 4e bd 99 90 38 3f 5b ea 52 41 ff 50 e6 3b
       -0.05044832 0.7209564 13.182216 0.0070286985
000290 9b 33 2c 40 38 d6 b4 bc 60 bb f8 3b 7e ee 1a bd
       2.6906497 -0.022074804 0.007590696 -0.0378251
0002a0 4d a6 7a bd e0 97 32 40 84 df 1a 3f 01 50 5a bd
       -0.061193753 2.7905197 0.6049731 -0.053298954
0002b0 a1 1b ca 3d 5b 0b b0 be 2d 56 c3 bd 11 f3 23 3e
       0.09868551 -0.34383664 -0.09537921 0.16010691
0002c0 f5 66 e9 b7 90 c0 96 3f f9 4c ff 3d 0d c9 a2 3c
       -2.7823708e-05 1.1777515 0.12465853 0.01987126
0002d0 37 aa f7 be c5 66 98 3e 4a 03 c6 bc 60 03 7d bd
       -0.4837205 0.29765907 -0.02417149 -0.061770797
0002e0 51 c2 fe be a7 37 68 bc 34 66 2d be 13 7c 6f 3e
       -0.49757627 -0.014173425 -0.16933519 0.23387174
0002f0 92 01 35 bd e8 a4 b3 bd f6 46 6a bc 65 50 45 be
       -0.04419095 -0.08771688 -0.014299145 -0.1926895
000300 26 b9 64 3e 7d 42 23 bb 20 4f cb bd 6d fc 55 bd
       0.22336254 -0.0024911456 -0.09927201 -0.052242685
000310 6d 52 3b 40 29 f5 e1 bd c0 e9 70 bd 17 6d 0c 3e
       2.9269059 -0.11033089 -0.05881667 0.1371349
000320 74 0c 18 3c 67 4d 89 3b 57 d5 ff 3d 15 1e 1f be
       0.009280313 0.0041901353 0.12491863 -0.15538819
000330 fe 16 0f 3c cf 5b 33 3c 8c 7d 05 bd f2 04 80 bd
       0.008733509 0.010947182 -0.032590434 -0.06250943
000340 e2 27 09 3c d7 29 55 bb 88 13 89 bd e8 77 3a bd
       0.008371325 -0.003252616 -0.066931784 -0.045524508
000350 48 a0 9f 3e 49 d7 ad bb eb 95 20 bd a5 64 48 be
       0.31176972 -0.005305205 -0.039205473 -0.19569643
000360 75 82 80 be e6 f8 e3 40 8b a9 83 bb 98 1d 18 be
       -0.2509953 7.124133 -0.004018014 -0.14855039
000370 b8 ef 1b be fd 04 4b 3c 63 84 48 be 59 b1 91 bc
       -0.15228164 0.012391326 -0.19581752 -0.017784761
000380 8a c5 32 bc d2 c7 03 bd 2f 05 64 be 42 13 30 bd
       -0.010911355 -0.032172985 -0.22267602 -0.042987116
000390 08 5b 8e 3c cc e5 1c 3e 5f 03 6f 3f 88 d9 8e 40
       0.017377391 0.15322036 0.9336452 4.464054
0003a0 f2 18 43 be 15 0b 94 3c e7 6d 30 bc 47 65 73 3e
       -0.19052485 0.01807169 -0.01076839 0.23769103
0003b0 7b e2 16 bd 2a 6d 0e be 73 a4 5d be b1 06 8c bc
       -0.036837082 -0.1390883 -0.21644764 -0.017093034
0003c0 3d 42 88 be 72 74 86 3e 64 6b 82 3c b3 81 61 bd
       -0.26613036 0.26260716 0.015920348 -0.05505533
0003d0 5d 5c bb be cc 6d 1d 3f eb 90 d2 bc 79 de 24 3f
       -0.36593905 0.6149566 -0.025703868 0.64401966
0003e0 69 d4 90 bc a7 82 58 bd ef b5 1d bd a2 8b ca bd
       -0.01767941 -0.052858975 -0.038503584 -0.09889914
0003f0 d1 ac 53 bd b3 81 73 3f d8 ef 04 3b dd c9 65 be
       -0.051678482 0.9511978 0.002028456 -0.22440286

linear.0.weight f4 [1, 512]
000000 8f c5 30 bd 7c 92 40 3c d2 b9 aa 3c 26 8d f1 3c
       -0.043157157 0.011753675 0.02084056 0.02948625
000010 9e c2 e4 3c 8f 3b 27 bd 80 94 d9 bc 06 4c 89 3c
       0.027924832 -0.040828284 -0.026560068 0.016759884
000020 28 0e f0 3b da 4f 8c bc ea 7f fc 3c 92 de ad 3c
       0.0073259063 -0.01712792 0.030822713 0.021224294
000030 77 c0 16 3d 24 c6 0c bd cd 12 db bb 7d ea 29 3d
       0.036804643 -0.03436865 -0.006685591 0.04148339
000040 09 e5 bc 39 c0 3e a0 3b 02 77 61 bc eb f4 de bc
       0.000360288 0.004890293 -0.013761284 -0.027216395
000050 83 96 29 bd aa 54 f8 3c 62 81 eb 3c 41 36 a3 bc
       -0.041403305 0.030313808 0.028748218 -0.019923331
000060 ce a4 c2 3c d8 cf 64 3c 62 41 c5 3c 00 55 e5 bb
       0.023760226 0.013965569 0.024079029 -0.006998658
000070 e8 fe 21 bc 6c c0 2d bc aa 93 ef 3c d8 89 ca bc
       -0.009887435 -0.010604959 0.029245216 -0.024723932
000080 96 39 af 3c 60 94 b7 ba 2b 42 18 3d 38 ab 93 bc
       0.021389764 -0.0014006011 0.037172478 -0.01802598
000090 d4 12 71 3c c0 cb 74 3c b7 82 a7 bd 7f 91 0f 3d
       0.014713962 0.014941156 -0.08179229 0.035050865
0000a0 a8 68 8c 3c f3 f6 95 bc e8 5e ea 3b dc 71 10 bc
       0.017139748 -0.018306231 0.007152427 -0.008816209
0000b0 51 8f 2e 3d 1a c8 03 bd 66 14 db 3c c4 42 21 3c
       0.042617146 -0.032173254 0.026743125 0.009842578
0000c0 dc e6 af 3d d8 9f 75 3c 42 88 bd 3c 1e 8f 33 bd
       0.08588955 0.014991723 0.023136262 -0.04383766
0000d0 41 7e 26 bd 32 c7 a3 3c 7c 6b 02 bd 61 82 1f bd
       -0.04064775 0.019992445 -0.031840786 -0.0389427
0000e0 68 f7 88 3c e8 ab e7 bb 10 a7 55 bc 69 5f 03 3d
       0.016719535 -0.0070700534 -0.013040319 0.032073412
0000f0 60 3c 8a 3a 50 c4 73 bc ee 10 92 3c 29 de 79 3d
       0.0010546558 -0.0148783475 0.017830338 0.061002884
000100 49 f8 a5 bd 78 2f 91 3c 56 a5 a9 3c 11 e2 08 3d
       -0.08103997 0.01772283 0.020708721 0.03341872
000110 ed 8e e9 bd bc ff 3d 3c 10 e9 05 be 86 75 8f 3c
       -0.11404214 0.011596616 -0.13077188 0.017512094
000120 26 2b d4 bc 80 b9 4f 3b f6 e4 c9 3c 34 03 b2 3d
       -0.025899481 0.003169626 0.02464531 0.08692017
000130 00 6d 4a 3c 80 64 60 bb c2 e7 6f bc 00 a2 8b 3b
       0.012355089 -0.003423959 -0.014642658 0.0042612553
000140 00 6e 2d 3b 03 c3 9f bc fa 9e a7 3c ff 44 32 3d
       0.002646327 -0.019502169 0.020461548 0.04352283
000150 d0 1c f3 3b 8f 0b 30 3d d8 28 63 3c 24 03 1a 3c
       0.007419206 0.042979773 0.013864718 0.009400163
000160 ee 53 9b bc 2f 68 fb bc ae 83 56 bc 8a bc f2 3c
       -0.01896092 -0.030689327 -0.013092918 0.029630918
000170 06 9e c4 3c c6 2f a2 bc ad 0a 53 ba 10 38 94 bb
       0.024001133 -0.01979817 -0.0008050602 -0.0045232847
000180 00 fb 35 3c fe 90 c2 3c e5 b8 c4 bc f9 41 0d 3d
       0.011107206 0.023750778 -0.024013946 0.034486745
000190 15 66 13 3d 66 27 98 3c 16 90 17 bd 90 20 a4 bb
       0.035986025 0.018573474 -0.037002645 -0.0050087646
0001a0 e0 d5 18 bb 0a 87 21 bb 40 58 77 3a ad 6d 20 3d
       -0.0023320839 -0.002464714 0.00094354525 0.039167095
0001b0 a6 ac a9 3c 70 33 a3 3b 78 07 4e bc 00 79 6e 3a
       0.020712208 0.004980497 -0.012575023 0.000909701
0001c0 d0 51 01 bc 99 0f 1a 3d 1d d2 2f bd b0 ae 76 bc
       -0.007893041 0.03761253 -0.04292499 -0.015056297
0001d0 30 35 1f 3b 73 d7 26 bd 99 b3 8e bc 59 6c 2b 3d
       0.0024293177 -0.040732812 -0.017419623 0.041851375
0001e0 6e e4 ee 3c 8b 68 d4 bc 52 64 f2 3d 57 3e c3 bc
       0.029161658 -0.025928756 0.11835541 -0.023833437
0001f0 24 fc 16 3c cf 26 71 3d 9c d3 ff bc bf 09 fa bc
       0.009215388 0.0588749 -0.031228833 -0.030522225
000200 08 1b 6a bc 25 04 1e 3d 3f 24 16 3d 2f 0b 0c 3d
       -0.014288671 0.03857817 0.03665566 0.034190353
000210 1e 71 f6 3c c1 ea ba bc 40 61 00 bd b0 2a 25 3c
       0.030083235 -0.022817018 -0.031342745 0.010080978
000220 59 1e 0d 3d 48 b0 31 bc 28 e0 9f bc 70 24 49 bc
       0.03445277 -0.010845251 -0.019516066 -0.012276754
000230 7f 86 24 3d 91 10 29 3d 64 df 80 3c e8 48 e8 bb
       0.040167328 0.041275565 0.015731521 -0.007088769
000240 99 19 1b 3d cf a5 24 3d 14 43 10 bd 1c 78 86 3c
       0.03786621 0.04019719 -0.03522022 0.016414694
000250 eb 05 2d 3d 40 52 31 3b 83 4c 45 bd 30 03 27 bb
       0.042241972 0.0027057081 -0.04816867 -0.0025484078
000260 2e 6f b8 3c c0 24 26 bd f8 f3 35 3c 94 04 2c bc
       0.022513952 -0.04056239 0.01110553 -0.010499138
000270 4e 01 d8 3c bf 88 0a 3e 02 cc a5 bc 83 db 70 bc
       0.02636781 0.13528727 -0.02023888 -0.014700773
000280 00 6d 9a bb cf 51 32 bd 73 69 91 bb a9 9b 2a bd
       -0.004712701 -0.04353505 -0.0044376194 -0.041652355
000290 c3 99 b1 3c ef ab c2 bc 04 f2 3f 3c aa fc b1 3c
       0.021679765 -0.023763625 0.011715416 0.021726925
0002a0 7e e8 f6 bc 0c f5 ae bc 5e 15 85 bc 39 54 db bc
       -0.030140158 -0.021357082 -0.01624554 -0.026773559
0002b0 a8 92 57 bc ac e2 01 bd 97 7c cb bc 66 2e 37 bc
       -0.013157524 -0.03171031 -0.024839683 -0.011180496
0002c0 60 0a 80 bc b8 b5 80 3c 2a 08 bd 3c 20 f3 c3 bc
       -0.015629947 0.01571165 0.023075182 -0.023919642
0002d0 88 56 1b bc b9 18 19 bd 7b 67 06 3d 6b 96 bf 3c
       -0.00948108 -0.037377093 0.03281353 0.023387155
0002e0 c9 de 11 3d 70 a1 0f bc 25 a5 0b 3d 12 dd 13 bd
       0.035612855 -0.008766517 0.03409304 -0.0360995
0002f0 45 57 db bc 56 79 bf bd 70 ea 64 bb 0a ef f1 3c
       -0.026775012 -0.09349315 -0.0034929775 0.029532928
000300 90 e7 e9 bc 0a 39 ad bc 49 b2 60 bd 33 76 2a bd
       -0.0285528 -0.021145362 -0.054857526 -0.04161663
000310 4c 4c a6 bb c0 70 15 3b 13 36 2d bd 15 40 e5 bc
       -0.0050750133 0.00228028 -0.042287897 -0.027984658
000320 53 1a 24 bd 00 63 dc 3b 48 53 1f bd 96 72 80 bd
       -0.040064167 0.006725669 -0.038897783 -0.062718555
000330 f7 5c 32 3d 00 a6 22 3c 70 d5 01 bc e0 67 22 bb
       0.04354569 0.009927273 -0.007924423 -0.0024781153
000340 c8 03 87 3b 04 2e 16 bc 17 66 2b bd c6 db bb 3c
       0.004120324 -0.009166244 -0.041845407 0.022931945
000350 38 71 8c bc 4f f5 23 bc 67 5d 13 3d 1a 7e 9b bd
       -0.01714383 -0.010007217 0.035977747 -0.07592411
000360 92 81 d3 3c a6 bd cf 3b a3 db 2e bd 78 04 d5 bb
       0.02581862 0.0063397465 -0.04268993 -0.006500777
000370 6c 96 a8 3d cf 7b 33 bd b8 cd c8 bb 4c 6f 6d bc
       0.08231816 -0.043819245 -0.006128039 -0.014491867
000380 b5 13 13 bd 00 9f d3 3b 00 9c 9f bb 45 64 0a 3d
       -0.035907466 0.0064581633 -0.0048708916 0.03378703
000390 56 d6 10 bd 7c 4d 45 be 74 a1 b0 3d 52 5c 3c bc
       -0.035360657 -0.19267839 0.08624545 -0.01149662
0003a0 e4 40 e5 bc 3c eb 43 3c 12 01 d8 3c 13 a7 32 3d
       -0.027985044 0.01195794 0.026367698 0.043616366
0003b0 ce f1 e9 3c 26 35 fd 3c 46 d6 eb 3c e0 b1 c4 bb
       0.028557684 0.030909132 0.028788697 -0.0060026497
0003c0 75 1c 18 3d a7 c1 0c 3d ea 73 ee 3c 41 19 24 3d
       0.037136514 0.03436437 0.029108007 0.040063147
0003d0 ac ad 91 bc a9 44 63 bd 21 ae 2c 3d 36 f7 e2 3c
       -0.017783009 -0.0554854 0.04215825 0.02770577
0003e0 10 e9 48 3c 42 63 94 3c 84 61 d0 bc 1a 68 bf 3d
       0.012262598 0.018113736 -0.025437124 0.09346028
0003f0 5d 8b 6e 3d 38 c8 cd 3b 4f 96 9f bc 8e 8a 57 bd
       0.058238376 0.0062799715 -0.019480852 -0.05262237
