previous_models/ScoreNet2.pth (torch, 899817 bytes, 17 tensors)

Enc.conv.0.weight f4 [32, 7, 2, 2]
000000 48 6a fe be 94 13 43 bf f0 a1 a0 bf 44 b9 d5 bf
       -0.4969046 -0.7620175 -1.2549419 -1.6697164
000010 23 d8 c6 bf 8e 2e 9c 3f c2 6d ee bf 55 58 d6 bf
       -1.553471 1.2201707 -1.8627245 -1.6745707
000020 bd 87 a7 be 48 0e a4 3f a8 8e 02 3f c4 20 01 bf
       -0.32720748 1.2816858 0.50998926 -0.5044062
000030 15 78 5c 40 1a 88 d1 bf 7c 90 37 c0 64 4d a4 be
       3.4448292 -1.636966 -2.8681936 -0.32090294
000040 b8 cf d9 be 79 f8 75 bf 09 31 e6 c0 6d 08 58 c0
       -0.4254129 -0.96082264 -7.1934857 -3.3755143
000050 0c dd 24 40 0c 49 56 40 99 24 d1 3e 49 83 a3 c0
       2.5759916 3.3482084 0.40848234 -5.109776
000060 cb 98 69 be da 3b 3a bd f4 06 da 3c 62 ce 6d bc
       -0.22812192 -0.045467235 0.026614644 -0.0145145375
000070 f2 b4 9a bd 37 d4 a8 40 d1 2c 85 3e 82 d6 da bd
       -0.07554044 5.275905 0.26010755 -0.10685445
000080 7f 14 ee 3f 04 cc 1c bc 9f c1 c4 c0 02 b9 12 40
       1.8600005 -0.0095701255 -6.1486354 2.292542
000090 2a 90 1f 3e 41 68 03 bd 44 11 92 c0 d4 5d 05 3d
       0.15582338 -0.032081846 -4.5646076 0.032560185
0000a0 be ea 28 3e 28 07 41 40 9c 9c 94 c0 fa 0a 9a 3d
       0.16495797 3.0160618 -4.6441174 0.07521625
0000b0 73 15 4d 3f e1 c6 a1 3f 39 8e c6 c0 38 5d 9e 3f
       0.80110854 1.2638818 -6.204861 1.2372198
0000c0 30 bf bd be b9 82 e0 3f f6 60 cd c0 30 42 3c bc
       -0.37059927 1.7539893 -6.418086 -0.01149039
0000d0 e3 be e8 3e 0a 3d 13 3f 09 4f 37 3f 2d 31 41 3f
       0.45458135 0.57515013 0.71604973 0.7546566
0000e0 eb 2f 0f 3f ee 9c 2f c0 03 04 83 3f ed 04 36 40
       0.5593249 -2.7439532 1.0235599 2.8440506
0000f0 d2 fb a4 be 59 13 7d 40 69 f4 56 be e4 ff d3 bf
       -0.32223374 3.954306 -0.20991673 -1.6562467
000100 ac a4 5c 40 53 70 95 be 13 60 c8 bf dc 63 c1 3e
       3.4475508 -0.2918726 -1.565432 0.377715
000110 74 17 06 40 f9 5e aa c0 e1 f6 27 bf 49 e7 1f 40
       2.0951815 -5.3240933 -0.6561108 2.4984915
000120 92 1a a4 3f f5 61 8c 3f 43 dc a6 bf 40 26 e9 3f
       1.2820609 1.0967394 -1.3035969 1.8214798
000130 cb 79 00 40 0c 8e 27 c0 cb 58 ad 3f 82 d0 1e 40
       2.0074337 -2.6180449 1.3542722 2.4814763
000140 8c b6 56 3d 4f a6 ac 3d a8 dc 30 bc 05 49 01 3d
       0.052420184 0.08430158 -0.010794796 0.031563777
000150 67 aa e2 bf 38 9e a0 3f 39 53 8f 3e 34 69 1e c0
       -1.7708253 1.2548285 0.2799318 -2.475171
000160 5c 24 33 c0 04 52 4e 3f 41 65 00 c0 72 9d 18 40
       -2.7990942 0.80593896 -2.00618 2.3846097
000170 ea f9 fd bf 55 cf b5 3f b8 ee fd 3d 41 0b 5e bf
       -1.9841893 1.4203898 0.123990476 -0.8673592
000180 79 3e 05 c0 3a 73 75 3f f2 04 16 3f 62 ef 0a 3f
       -2.081938 0.95878947 0.58601296 0.5427152
000190 54 fa 5d c0 4f 29 30 40 a3 ca 66 3f be ac 38 3f
       -3.4684038 2.7525213 0.9015295 0.72138584
0001a0 09 68 71 c0 04 31 b9 3e 5d 5c bb bf af f7 73 be
       -3.7719748 0.36170208 -1.4637562 -0.23824953
0001b0 86 6a 58 3f 4c 18 69 3f 62 74 20 3f ee 44 56 3f
       0.8453754 0.910527 0.62677586 0.8369893
0001c0 d1 83 89 bf 94 ae 90 3e 81 6f da 3e b9 a7 df 3c
       -1.0743352 0.28258193 0.42663196 0.027301656
0001d0 70 4f 0f c0 e8 02 42 bc e9 67 41 3f 12 d4 60 bf
       -2.2392235 -0.011841513 0.7554918 -0.87823594
0001e0 4d 1e a6 3d 90 96 4e 3f 07 43 cf 40 e0 34 82 be
       0.08111248 0.8069849 6.476932 -0.25430965
0001f0 5f b3 87 3f e2 31 99 bf c9 f3 75 40 b6 f9 17 bf
       1.0601615 -1.1968348 3.8430045 -0.59365404
000200 79 59 db 3e 29 aa f4 3f fe cf 59 40 60 02 c6 bf
       0.428417 1.9114429 3.4033198 -1.5469475
000210 69 b2 82 40 ae 91 c7 3f 49 09 01 41 ba eb 53 be
       4.0842786 1.5591333 8.064767 -0.20695391
000220 6b 35 63 bd de 10 62 3d de 96 5e 3e 81 17 c1 bd
       -0.055470865 0.055191867 0.21737239 -0.09428311
000230 b8 f5 d1 40 9a be 65 be 70 1e 71 be 24 64 25 bf
       6.561245 -0.2243599 -0.23546767 -0.6460593
000240 5d ff 17 be b5 3c e8 be 12 96 aa 3f 7a 02 ea c0
       -0.14843507 -0.45358816 1.3327048 -7.3128023
000250 3e 19 1b 3e 7d 16 a9 3e 8a e8 7d bd 0c 12 a7 c0
       0.15146348 0.3302497 -0.061989345 -5.220953
000260 2a 6f 5d 40 cb 57 16 bf cf fb 1c 3f c4 42 c8 c0
       3.45991 -0.5872771 0.6132173 -6.25815
000270 2f a7 49 3d 76 eb 9c bc a6 5f 13 3f 8a f3 df c0
       0.049231704 -0.019155245 0.5756782 -6.998479
000280 7b 2b 2c 3f 35 ea f5 be ef 86 fb bd 7a 21 0a c0
       0.67253846 -0.48030248 -0.12281596 -2.1582932
000290 14 8d a4 bc 84 a7 4d 3d 1e 94 31 3e a0 d8 ae 3d
       -0.020086803 0.050208583 0.17341658 0.08537412
0002a0 2b d3 82 c0 da fd 3f bf 82 4f f1 3f fb b3 ab bf
       -4.0882773 -0.7499672 1.8852389 -1.3414301
0002b0 ff 6e 6f 40 eb 5f bb bf 46 c8 c9 c0 3b 23 e8 3d
       3.7411497 -1.4638647 -6.3056974 0.11334845
0002c0 3d d3 29 c0 cc dc 15 bf ea 10 2a 40 e7 47 0e 3f
       -2.653518 -0.58540034 2.6572824 0.55578464
0002d0 12 78 5e c0 62 8d a1 3e 50 dc 88 3f b7 9b 2c c0
       -3.4760785 0.3155318 1.0692234 -2.697004
0002e0 6e 7d 8c 3d e7 5c bc bf e8 9e 77 c0 1f 10 4e c0
       0.06859861 -1.4715852 -3.8690739 -3.219734
0002f0 98 68 b8 c0 3f 89 f7 bd 85 e8 0f 3e c6 cd b3 3e
       -5.762768 -0.120867245 0.14053543 0.3511793
000300 df fd d9 3d af 7d 51 be 6f 27 15 be b3 f2 1d 3e
       0.10644125 -0.204581 -0.14565824 0.15424614
000310 cf 67 2c c0 1c 35 70 c0 a4 bd 0b 3f f1 05 15 3f
       -2.693836 -3.7532415 0.54586244 0.5821219
000320 61 64 38 3e 0a 90 b8 be cb c4 73 3d 62 e0 93 c0
       0.18007042 -0.36047393 0.05951385 -4.6211405
000330 c2 99 78 bf 0d 26 4b 3f 5c d4 78 3f d1 09 55 40
       -0.97109616 0.79354936 0.97199035 3.3287241
000340 78 4e 35 bf 06 e2 00 3d 8c af 88 3e a2 2e bf 40
       -0.7082286 0.031465553 0.26696432 5.9744425
000350 dc a3 c4 3f 9e 3d be be c0 6e 0a c0 cc c0 75 40
       1.5362506 -0.37156385 -2.1630096 3.8398924
000360 44 b1 ad c0 23 bd e7 bf 27 f5 22 c1 e1 c6 c1 3f
       -5.427889 -1.8104595 -10.184852 1.5138818
000370 b6 c8 7a 3d 42 24 16 bd ce cb 15 be 48 a2 8a be
       0.06122657 -0.036655672 -0.14628527 -0.27076936
000380 7d 1a 8f be 1c b0 16 40 3e 93 1f 40 08 eb 2b 3e
       -0.27949896 2.3544989 2.493362 0.16788876
000390 bd 46 23 40 87 9f de 3f 7e eb 02 3f 74 ca 9d bd
       2.5511925 1.7392434 0.5114058 -0.077046305
0003a0 f0 8b 0c 3e ca d4 74 40 99 85 f5 3e 72 a1 32 3f
       0.13725257 3.8254876 0.4795349 0.69777596
0003b0 d8 5f a7 3e 5d 2d 0c 40 f9 31 07 40 6c b9 3f 3f
       0.3269031 2.1902688 2.112425 0.74892306
0003c0 60 f0 3b 3d af 22 31 40 b0 40 12 40 93 ef 03 3f
       0.045883536 2.767742 2.2851982 0.51537436
0003d0 63 71 47 3f d6 f6 f9 be 78 21 d6 3f d0 84 15 40
       0.7790739 -0.48821133 1.6728964 2.3362312
0003e0 0a bd 0f bf f0 41 2a bf e2 a8 49 bf d4 5d 36 bf
       -0.56147826 -0.6650686 -0.7877332 -0.7123692
0003f0 21 ca b8 bf 8e b1 c1 bf 58 01 3c bd 77 85 d1 be
       -1.4436685 -1.513231 -0.04589972 -0.40922138

Enc.conv.0.bias f4 [32]
000000 c5 5f 8a c0 1b 6d 0c c1 97 2f 59 c0 11 56 92 c0
       -4.3241906 -8.776637 -3.3935297 -4.573006
000010 c8 26 99 bf 7c 6c f2 c0 67 17 b6 c0 1f b0 e2 c0
       -1.196496 -7.5757427 -5.6903567 -7.083999
000020 4e 82 39 c0 ce 43 03 bf 15 e1 04 c1 63 b9 dc c0
       -2.8985782 -0.51275337 -8.304952 -6.89763
000030 ca f9 bf c0 be 47 b5 be ea 13 bf c0 74 23 0c bf
       -5.999242 -0.35406297 -5.971181 -0.547416
000040 67 42 15 bf 86 2e ca c0 cc 36 be c0 79 fe 40 c0
       -0.58304447 -6.318179 -5.944189 -3.0155318
000050 26 54 07 c0 a0 42 cb c0 e7 09 b0 c0 97 64 89 c0
       -2.114511 -6.351883 -5.501209 -4.293529
000060 0b 47 38 c0 f8 80 48 c0 21 75 81 c0 c9 b6 60 c0
       -2.879336 -3.1328716 -4.045548 -3.5111563
000070 36 4a ba c0 f7 0f 04 c1 c6 d1 d9 c0 6b f1 dc be
       -5.821559 -8.253898 -6.806857 -0.43152937

Enc.conv.2.weight f4 [64, 32, 2, 2]
000000 da e2 f6 bd 0e a2 f4 3f b0 00 be 3e 5b c9 ba be
       -0.12054987 1.9111955 0.371099 -0.36481747
000010 8b d5 6d be b0 55 0b c1 94 66 34 bf de d2 12 c0
       -0.23225991 -8.70842 -0.7046902 -2.2941203
000020 34 9c b9 3f 30 43 b8 3f c9 5e 8a bf 90 86 b3 3f
       1.4500794 1.4395504 -1.0810176 1.402544
000030 59 f0 45 3f 2a 5e 8e 3f d4 c7 61 be 2d e0 0d 3f
       0.77319866 1.1122487 -0.22048885 0.5542019
000040 25 b5 05 c0 32 a8 51 bd 93 b1 7e 3f f6 bb ce 3f
       -2.0891812 -0.051185794 0.99489707 1.6151111
000050 be 29 c6 c0 f8 7b 64 3f d2 1e 01 c0 ec 35 a8 c0
       -6.1925955 0.8925166 -2.0175061 -5.2565823
000060 1e a3 f5 be 98 f8 1c 40 66 d4 6e bf 0c 6d af bf
       -0.4797601 2.452673 -0.93292844 -1.3705153
000070 f6 70 1a bf b7 d5 a1 bf b2 25 e1 bf d5 a9 26 40
       -0.60328615 -1.2643346 -1.7589629 2.6041157
000080 3a 75 38 c0 e4 78 9d bf db e5 b7 bf 89 d8 e9 3f
       -2.882155 -1.2302518 -1.4367021 1.8269206
000090 7b 93 32 c0 be fb 3b c0 f0 f9 1a c0 82 11 d7 bf
       -2.7902515 -2.9372401 -2.421505 -1.6802218
0000a0 58 fd 6f c0 8d 69 82 3f b4 7c a7 bd b5 d5 f1 bf
       -3.7498379 1.0188462 -0.08178082 -1.8893343
0000b0 98 7d d7 c0 b8 29 a6 bf 4b e4 71 3f e2 a9 5d 3f
       -6.7340813 -1.2981482 0.9448897 0.86587346
0000c0 08 55 30 bf bc 50 06 3f 76 30 6a c0 04 fa 48 bf
       -0.6887975 0.5246694 -3.6592078 -0.78506494
0000d0 5e 11 19 c0 b9 39 25 c0 fb ba 54 c0 8f 39 0e c0
       -2.391685 -2.581648 -3.3239124 -2.222263
0000e0 74 eb 9a 3f eb 54 a2 bf 23 cf 0f 3d cd a4 ac 3f
       1.2103105 -1.2682165 0.03510965 1.3487793
0000f0 f7 2f 28 3f 3f 7e 92 3e b9 44 dd be 32 aa df 3e
       0.6569819 0.28611943 -0.43216494 0.43684536
000100 4d f1 61 be 25 6e 23 be ae 7b 72 3f bf e4 0b 3f
       -0.22064705 -0.15959986 0.9471997 0.54645914
000110 93 86 6b c0 45 ef d7 3e 6d 36 51 40 ad 61 14 3f
       -3.6800888 0.42174736 3.268947 0.5796154
000120 7e 04 d4 3d 94 00 c0 3f fb b0 48 40 39 ae cb 3f
       0.10352419 1.5000176 3.135802 1.5912544
000130 3a 30 48 3f fa ab 2d 3e 5d 43 b7 bd c4 f4 c0 3e
       0.7819859 0.16960135 -0.089483954 0.3768674
000140 b8 ac 0a 40 d3 c0 44 bf b7 3d 97 be f7 45 d4 3f
       2.166792 -0.76856726 -0.29539272 1.6583852
000150 5c 2b 32 3f 5e 22 ba bf db f5 86 bf d5 5f 5b 3f
       0.6959741 -1.4541738 -1.0543779 0.85693103
000160 bf 5e 9e 3f f5 40 f8 3e 29 79 2a c0 e4 c0 61 c0
       1.2372664 0.48487058 -2.663645 -3.527398
000170 65 4c b0 be f6 27 ab bf 4c 6c 25 bd 61 36 14 c0
       -0.34433284 -1.337157 -0.040386483 -2.315819
000180 3d d0 5f 3f 5f 3b 33 3f 60 b4 1e 3e 44 9e 83 3e
       0.8742712 0.7001247 0.15498495 0.25706685
000190 52 f3 8b 3f 05 32 3b 3f 9c 67 31 3f e5 51 93 3e
       1.093363 0.731232 0.6929872 0.28773418
0001a0 41 38 9e 3f 78 80 03 c1 48 f5 53 bd 86 62 58 3f
       1.2360917 -8.218864 -0.05174759 0.84525335
0001b0 2c 12 f2 be 43 b1 62 bf d9 54 19 3d 99 bc 0c 3e
       -0.4727949 -0.8855173 0.037434433 0.1374382
0001c0 49 ba 85 3e 19 91 0e bf e1 1d 4b bf 67 37 a6 3f
       0.26118687 -0.5569015 -0.79342467 1.2985657
0001d0 aa 44 4a be d0 ba f6 3f 00 4d 1c 40 c9 c2 4e 3f
       -0.19752756 1.9275761 2.4421997 0.8076597
0001e0 86 dc 38 3f 4c 08 c1 bf 59 09 24 3e f5 12 86 40
       0.7221149 -1.5080657 0.16019191 4.189814
0001f0 79 52 cb bd ae 30 f7 bf 41 5a b9 3f 67 69 8b 3f
       -0.0992784 -1.9311731 1.4480668 1.0891541
000200 6d ba c9 3e 81 ed b9 3f 03 77 43 bf 33 b1 d8 be
       0.39400044 1.4525605 -0.7635347 -0.42322692
000210 f4 a2 00 c1 e9 3f 62 c1 3f 0f 66 40 1b 8f a2 c0
       -8.0397835 -14.140603 3.5946805 -5.079969
000220 7d ce be 3f b0 a4 ff 3e f5 33 19 c0 91 75 03 40
       1.4906765 0.49930334 -2.3937962 2.0540507
000230 05 db 91 3f 16 ad c5 bd 73 7e d0 be b0 c1 ef bf
       1.1394964 -0.09652154 -0.40721473 -1.8730984
000240 8e 82 c5 3f d1 7c 62 c0 b7 92 b6 bf 6a c4 35 bf
       1.5430467 -3.5388682 -1.4263524 -0.7100283
000250 ec 44 77 c1 b6 10 aa c0 2b cd 0d 41 64 8f 0c 41
       -15.454327 -5.31454 8.86259 8.785007
000260 fb 1b 58 c0 25 54 4b bf c6 a3 05 c0 25 72 7d c0
       -3.3767078 -0.7942527 -2.088121 -3.9600918
000270 31 e4 87 40 c8 25 11 c0 12 c3 33 c1 ba 7f f3 40
       4.2466054 -2.267931 -11.235125 7.6093416
000280 02 81 bf 3e 58 0b 5c c0 47 e3 e8 c0 21 b7 b3 c0
       0.37403113 -3.4381924 -7.277744 -5.6161046
000290 4a 85 2d c0 f7 6b 9a bf de 84 23 c0 74 21 d0 bf
       -2.7112603 -1.2064198 -2.5549846 -1.6260209
0002a0 31 02 0c c0 ee b5 25 c1 e9 22 63 40 a9 e3 98 40
       -2.1876338 -10.356916 3.5490057 4.7777905
0002b0 47 08 eb c0 8b 63 0c c1 24 68 35 40 79 c4 0b c0
       -7.3447604 -8.7743025 2.8344812 -2.1838667
0002c0 47 c7 a1 3f 57 77 f6 3f 10 cb 9d c0 bc 14 55 bf
       1.263894 1.925517 -4.931038 -0.83234763
0002d0 aa 1c 82 bf 28 45 32 c0 bc 1d 5b c0 32 71 18 bf
       -1.0164998 -2.785471 -3.4236898 -0.5954772
0002e0 ba be a0 be 25 b2 50 bf 0f 7c d7 be f0 46 07 c0
       -0.31395513 -0.81521827 -0.42086837 -2.1137047
0002f0 34 af 45 40 c3 ee 4a c0 69 57 c5 3e 73 aa 14 c0
       3.0888186 -3.1708229 0.3854325 -2.3229034
000300 0b 50 44 bf a6 ea d1 bf ef 33 e1 3f fb 96 85 3e
       -0.76684636 -1.6399734 1.7593974 0.2609175
000310 fa c1 f5 bf 0f 43 92 c0 98 b1 dd 40 53 01 9a c0
       -1.9199822 -4.570686 6.927929 -4.8126616
000320 e6 da 81 3f 76 d9 86 40 38 2f 9f 40 b3 a5 82 40
       1.0144928 4.2140455 4.974514 4.082727
000330 75 30 b5 be dd bc 73 c0 5b 21 87 bf 34 a3 1b c0
       -0.35388532 -3.8084023 -1.0557054 -2.4318361
000340 ab 5e 87 3f 4e 18 84 be de 48 79 3e d5 fc e7 bd
       1.0575765 -0.25799793 0.24344203 -0.11327521
000350 b7 59 4c 40 54 82 58 bf e6 cc 14 40 03 84 13 bf
       3.1929758 -0.84573865 2.325006 -0.5762331
000360 17 d0 6e bd 9b 0a 07 bf 9f f1 03 c1 43 d2 ac 3f
       -0.05830392 -0.5275056 -8.24649 1.3501667
000370 a1 39 0d c0 d7 88 56 bf f7 38 38 3f b3 b1 32 40
       -2.2066424 -0.8380255 0.7196192 2.792096
000380 17 98 4a 40 ef 52 e0 3d ae ba c4 be 26 b7 3f 40
       3.1655328 0.10953318 -0.38423675 2.9955535
000390 b6 2b 22 40 7c 85 33 40 70 9c 79 3f 2a df cd 40
       2.533918 2.8050222 0.9750433 6.4334917
0003a0 62 ea 81 c0 d7 aa a4 3e d3 5b c5 bf c8 5e a7 3e
       -4.059861 0.3216159 -1.5418648 0.326895
0003b0 7c fb 0d bf 51 cc 01 c0 f4 86 20 c0 0b da 8c bf
       -0.5546186 -2.0280955 -2.508237 -1.1004041
0003c0 70 14 31 c0 49 27 44 c1 7a f0 d3 3f 45 40 b9 be
       -2.7668724 -12.259591 1.6557763 -0.36181846
0003d0 f1 84 80 c0 3e 66 bd 3f e5 d5 c2 3f 73 01 61 41
       -4.016228 1.4796827 1.5221525 14.062854
0003e0 37 f4 b0 40 22 51 f7 c0 ae 80 0b 41 36 47 8c c0
       5.5298114 -7.728654 8.718916 -4.3836927
0003f0 30 3e bf bf 14 8f f0 be ef d2 ab 3f 54 96 06 3e
       -1.4940853 -0.4698416 1.3423747 0.13143283

Enc.conv.2.bias f4 [64]
000000 45 50 16 be 6c 21 55 bf 36 c2 3b 3f ad 66 18 3d
       -0.14679058 -0.8325412 0.7334322 0.037207294
000010 8c 99 00 be c5 b6 4a be 29 bd 67 3f ea 49 64 be
       -0.12558573 -0.19796284 0.9052301 -0.22293821
000020 18 85 b0 bf ea 59 4a be 1a 36 8d bf a1 52 80 be
       -1.3790617 -0.19760862 -1.1032135 -0.2506304
000030 a0 eb fb 3e 79 50 29 be 13 4f b4 bd 22 33 08 be
       0.49203205 -0.16534604 -0.08804145 -0.13300756
000040 31 5e 8c be 6e a8 fa 3e c5 4f 07 c0 b9 a0 97 3d
       -0.27415612 0.48956627 -2.1142437 0.07403702
000050 de 60 94 be ad 40 f7 3c 2c e6 dd 3c 94 f1 bd 3b
       -0.28980154 0.030182207 0.027087294 0.0057966206
000060 79 f4 ae be bc 39 c6 be 37 b1 06 3d 22 37 56 3e
       -0.34170893 -0.38715923 0.03288385 0.20919469
000070 e6 63 d4 3e a6 8a 39 bf b6 d6 19 3f 44 30 55 3f
       0.41482466 -0.72477186 0.6009325 0.8327677
000080 1f e4 c1 be e1 1f 49 3f 9d f5 60 be 3a f9 8b 3e
       -0.37869355 0.7856427 -0.21968694 0.27338582
000090 1c ba a5 be 0e 68 00 be 00 a9 a4 3e 3b 47 7c be
       -0.32368553 -0.12539694 0.32160187 -0.24636547
0000a0 66 43 09 3f 46 2a 8b bd ac 4a 1d be 39 65 41 3e
       0.53618467 -0.067951724 -0.15360516 0.1888627
0000b0 dc 80 ad bc 51 ac 4a 3f 41 c6 be be de fa 8a 3f
       -0.021179609 0.79169184 -0.3726063 1.0857809
0000c0 bd 65 a1 bc 0a 85 f1 be f8 e4 8b be 6d ad e5 3c
       -0.019701833 -0.47171813 -0.27323127 0.028036797
0000d0 98 af c3 3d a8 7a 83 3e 05 02 04 3e ee 16 8d 3f
       0.09554976 0.25679517 0.12891395 1.1022623
0000e0 08 6f 1c 3f d1 dc bf be 0b b1 84 bc 68 4e bd 3c
       0.6110692 -0.37473157 -0.016197702 0.023108676
0000f0 3b a5 b9 3d e5 8a 03 bf 72 37 5c 3f 06 bf 1a 3f
       0.09064718 -0.5138381 0.860221 0.6044773

Enc.conv.3.weight f4 [64]
000000 b6 03 af 3c 7b 8e 0f 40 fa 89 d2 3f 8d 31 c2 3f
       0.021364074 2.2430713 1.6448357 1.5171372
000010 bd 4f b9 3d 62 8e 27 40 38 11 8e 3e 5e 49 02 40
       0.09048412 2.6180654 0.27747512 2.035728
000020 ee 96 12 40 1c e1 8f 3f 21 8f 4a 40 8f 0c 10 40
       2.290462 1.1240573 3.164986 2.2507665
000030 c6 53 24 3f 54 3a d1 3e 6d 4e 15 3e fe be b9 bc
       0.6419033 0.40864813 0.14580698 -0.02267408
000040 46 3a f2 3f a3 b9 e5 3f c0 45 42 40 31 1c e3 3f
       1.8924034 1.7947277 3.0355072 1.7742978
000050 43 4c a4 3e eb d5 f2 3d 2c 0e b9 3f b0 a5 ed 3d
       0.32089433 0.11857208 1.445745 0.11603868
000060 22 5f 44 3d 24 8f e1 3d 65 31 1f 3e fe 23 18 3e
       0.04794229 0.1101363 0.15546186 0.1485748
000070 82 01 19 40 af 03 2c 40 d3 2b 24 3e 72 0c bc 3f
       2.390717 2.6877248 0.16032343 1.4691298
000080 2e 56 c6 bf d8 3c 03 40 ee b3 13 3e c8 39 85 3c
       -1.549505 2.0505886 0.14424106 0.016262904
000090 87 13 97 3d d0 e1 f1 3f 2c 44 eb bf 21 b4 e4 3f
       0.073767714 1.8897038 -1.838018 1.7867471
0000a0 b0 68 1d 40 87 a7 c9 bf 09 89 78 3c 75 80 df 3f
       2.4595146 -1.575425 0.0151693905 1.7461077
0000b0 6d 7d f2 3f ba f6 db 3f 03 cc ec 3f 95 dd 45 40
       1.8944527 1.718467 1.849976 3.0916493
0000c0 1d 55 17 3e 3e ed d9 3f ab eb 2a 40 39 a3 b6 bc
       0.14778562 1.7025526 2.670634 -0.022294628
0000d0 7a b0 f3 3f ce 48 d7 3d d9 76 09 3d 8b a5 47 40
       1.9038231 0.10511933 0.033560608 3.119479
0000e0 54 dd 2b bc af c4 26 40 1d d8 14 3d 0b a6 31 40
       -0.01048978 2.6057546 0.036338914 2.7757595
0000f0 e9 7c 85 3d fe f8 c9 3f 69 fa 04 40 9a be 37 40
       0.06517965 1.5779111 2.0777838 2.8710084

Enc.conv.3.bias f4 [64]
000000 61 25 08 bf 01 8a 75 bf 9f 56 71 3d ed ec 3b 3f
       -0.53182036 -0.959137 0.0589205 0.73408395
000010 c2 15 3d bf 49 b2 3a bf 45 9c a3 bf c0 64 9a bf
       -0.73861325 -0.7292829 -1.2782065 -1.2061996
000020 27 32 3e 3f 38 1c 8a 3e 5a 40 e7 3f 34 dc 35 bf
       0.74295276 0.26974654 1.8066514 -0.7103913
000030 44 05 fa bf 2b a3 bf bf 79 5d 1f bf 39 1e 6d be
       -1.9532857 -1.497167 -0.62252 -0.2315606
000040 1f 90 1a 40 99 4f 4e 3f 54 19 09 c0 7a 78 ef 3e
       2.4150465 0.80590206 -2.142171 0.46771604
000050 61 e6 e0 bf f5 3c 74 bf e9 17 83 bf 29 f6 36 bf
       -1.7570306 -0.95405513 -1.0241672 -0.7146936
000060 b3 72 2a bf 93 d4 4d bf 74 5d 89 bf fb f0 b0 bf
       -0.6658127 -0.8040249 -1.0731645 -1.3823541
000070 21 a7 b8 bf 5a 1c 9c bf 5d 80 91 bf 3f 1c d9 be
       -1.4426004 -1.2196152 -1.1367298 -0.42404363
000080 e6 11 96 3f 42 29 aa bf 1a 19 29 bf 9a e2 b3 bd
       1.1724212 -1.3293841 -0.66053927 -0.08783455
000090 63 94 02 bf 37 89 60 3f d2 18 13 3f 55 2d 12 be
       -0.5100767 0.87709373 0.5745975 -0.14275105
0000a0 48 1b 69 3f 36 ed 04 3f 4c 15 f4 be bc 94 db 3f
       0.9105725 0.51924455 -0.47672498 1.7154765
0000b0 51 fd 91 bf 8e 4a ce be 65 e0 34 bf e5 5e fa 3f
       -1.1405431 -0.40291256 -0.706549 1.956021
0000c0 61 4e 4e bf 06 a4 b6 3d 08 4a 24 40 be 46 b2 be
       -0.80588347 0.08918004 2.5670185 -0.34819597
0000d0 f5 d1 48 bf 80 89 5e bf 66 99 00 bf c2 53 73 40
       -0.7844537 -0.8692856 -0.5023407 3.8019872
0000e0 91 e6 21 be de c3 9b bf 17 51 c7 be 2c f2 fc 3f
       -0.1581061 -1.2169149 -0.38929054 1.9761405
0000f0 9f 6b 08 bf 8f 30 48 3e e5 41 15 bf 8b 76 fb bf
       -0.53289217 0.19549774 -0.5830367 -1.9645551

Enc.conv.3.running_mean f4 [64]
000000 56 7c 97 c1 eb f5 e0 c1 35 cb 98 c1 d3 2c a6 c1
       -18.93571 -28.120077 -19.099222 -20.771887
000010 3d fa be c1 a3 a9 a0 bf 19 c4 5b c2 4a d9 3f c1
       -23.872187 -1.2551769 -54.9415 -11.990549
000020 55 05 30 c0 12 87 0c 41 f1 4c 2a c1 b3 0a 7e 3f
       -2.7503254 8.782976 -10.6437845 0.99235076
000030 eb cc a7 c1 5c af 45 c2 d5 14 d6 c1 60 56 26 c1
       -20.975058 -49.42125 -26.760172 -10.396088
000040 73 d2 19 c1 03 85 9c c1 13 12 ea c1 40 cc eb c0
       -9.613879 -19.564947 -29.258825 -7.368683
000050 78 40 30 c1 40 71 28 c2 19 59 3d c2 04 e6 fa c1
       -11.015739 -42.110596 -47.33701 -31.362312
000060 cc 64 87 3f 0e 9a 8d 3f 80 9e db c1 50 27 11 c1
       1.0577636 1.1062639 -27.452393 -9.072098
000070 a4 6e 6f c1 f2 ef 0a c2 12 86 22 c1 cf e9 5b c1
       -14.964512 -34.73432 -10.157732 -13.744582
000080 ab 0a ee c1 b3 5c e1 c0 f7 95 41 c2 14 28 cc c1
       -29.755209 -7.042566 -48.39645 -25.51957
000090 01 c0 94 c0 aa 6e 59 c1 ad d6 2a c1 a9 bb 09 c2
       -4.648438 -13.589518 -10.677411 -34.43326
0000a0 a4 1d 4e 41 72 8b 07 c2 b1 eb cf c0 78 71 ae c0
       12.8822365 -33.886177 -6.497521 -5.451351
0000b0 c3 c1 fc c0 b0 c8 47 c1 c6 08 09 c2 e5 93 aa 40
       -7.8986526 -12.486496 -34.258568 5.3305535
0000c0 be 1f 18 c1 d1 f8 97 c0 47 35 3a 41 1e 79 84 c1
       -9.50775 -4.749123 11.638007 -16.55914
0000d0 26 9c da c1 cf be 64 c1 c5 41 58 c1 53 fb 56 40
       -27.326244 -14.296584 -13.516057 3.3590896
0000e0 de 3d 21 c2 90 fb 0a 3f 7c be 5a c1 39 a5 9e 40
       -40.310417 0.54290104 -13.671505 4.957669
0000f0 af b7 39 c1 3b 71 07 c1 00 fc 35 c2 a8 f8 85 c1
       -11.607345 -8.465144 -45.496094 -16.746414

Enc.conv.3.running_var f4 [64]
000000 cd b1 0b 44 37 02 59 44 94 46 3b 44 a5 69 dc 43
       558.77814 868.0346 749.1028 440.82535
000010 5f 6c 80 44 39 94 e2 43 d5 f6 30 45 21 44 76 43
       1027.3866 453.158 2831.427 246.26613
000020 dd c6 65 43 7d 6d 98 43 d9 57 2d 45 b0 e4 51 44
       229.77681 304.85538 2773.4905 839.57324
000030 ad f9 07 44 26 20 49 45 25 19 38 44 b2 03 2f 44
       543.9012 3218.0093 736.3929 700.05774
000040 62 d5 43 44 69 81 85 44 1e 17 cc 44 c1 0a 96 43
       783.3341 1068.0441 1632.7224 300.084
000050 68 e7 11 44 52 38 ca 44 97 16 c1 44 54 05 d0 44
       583.6157 1617.76 1544.7059 1664.1665
000060 e3 a5 95 42 09 a8 47 42 9f ab 4b 44 4b 1f 6c 43
       74.824 49.914097 814.6816 236.12224
000070 1c c2 04 44 76 e9 81 44 df 2f 57 43 7d 58 8b 44
       531.03296 1039.2957 215.187 1114.7653
000080 dc b8 e2 43 78 bf 0c 44 71 83 1b 45 70 0d 13 45
       453.4442 562.9917 2488.215 2352.8398
000090 7d e2 2f 43 e7 1d c3 43 fb e5 18 44 7f 75 8b 44
       175.88472 390.2336 611.59344 1115.6718
0000a0 80 bc 1f 44 0f 7f 21 44 69 20 b5 42 16 68 05 44
       638.9453 645.9853 90.5633 533.62634
0000b0 5b f6 09 44 e9 d3 fa 43 e4 1e 51 44 95 69 7f 44
       551.8493 501.65555 836.48267 1021.6497
0000c0 c4 57 b4 43 32 03 18 43 3b 7a cc 44 ae 33 34 44
       360.68567 152.01248 1635.8197 720.8075
0000d0 60 a0 92 44 0d 1f a2 43 d3 39 05 44 40 21 0b 44
       1173.0117 324.24258 532.9035 556.51953
0000e0 b9 6d 16 45 16 7c 2f 44 b3 85 d9 43 ec 3d 82 44
       2406.8577 701.93884 435.04453 1041.935
0000f0 3f 09 95 43 53 60 b1 43 90 b2 13 45 90 1e 3d 44
       298.07224 354.75253 2363.1602 756.47754

Enc.linear.weight f4 [256, 576]
000000 d0 e4 06 3d 54 f5 15 3d 7a 6c 79 bd 3c 36 12 3c
       0.032933056 0.036610916 -0.060894467 0.008924063
000010 b1 c7 8a bd 4c ec fd bc 9d 7d 3a 3d b3 f6 52 bc
       -0.06776369 -0.030996464 0.04552995 -0.0128762005
000020 8a 05 bc bd 80 1e d6 bc 46 3c 6e bc 2a 1f a1 ba
       -0.09180744 -0.02613759 -0.0145407375 -0.0012292613
000030 27 65 6c bc d1 e3 0b bc e7 db fd 3c 50 ca 97 bc
       -0.0144284135 -0.008538202 0.030988647 -0.018529087
000040 81 3f d8 3c cb af 1f bd cc 10 93 3c 74 d4 18 bd
       0.026397469 -0.03898601 0.017952345 -0.037311986
000050 50 19 c2 3c b7 44 93 3d 43 1b 5b 3c d9 a3 f4 bd
       0.02369371 0.07190841 0.013373199 -0.11945314
000060 fc 38 4d 3d 4c 87 76 3c 2c c4 30 3b c9 8c 96 bc
       0.050103173 0.015046906 0.0026972396 -0.018377678
000070 a1 36 90 3b bc e2 ca bd 77 76 6d 3d d9 68 cd bc
       0.0044010435 -0.099065274 0.057974305 -0.02507441
000080 3c 70 77 bc 27 e1 77 bd 83 18 23 3c 7b 56 5e bd
       -0.015102442 -0.060517456 0.0099545745 -0.054281693
000090 ba 0b 8e 3b 1f 10 1c bb 14 5a f2 bc 7b 08 60 bd
       0.004334894 -0.002381332 -0.029583968 -0.054695588
0000a0 22 3b a7 3d 12 2f b2 bd a8 25 a0 3d 9e bf f3 39
       0.081655756 -0.08700384 0.07819682 0.00046491338
0000b0 c3 7d 82 bd 14 44 17 bd 36 2f 99 bc ee e2 f5 3c
       -0.063716434 -0.03693016 -0.01869927 0.030015435
0000c0 98 0a 26 3d cc 24 86 bd 6e 61 09 bd cd c6 3f 3d
       0.040537447 -0.06549987 -0.03354018 0.04682045
0000d0 d0 3a 31 3c 59 08 10 bc 0b 77 e0 bc 7f 1c 74 bb
       0.010817245 -0.008791053 -0.027400514 -0.003724843
0000e0 4f c7 43 bc 78 fc 85 3d 8e 71 85 3d 00 49 f9 3c
       -0.011949374 0.06542295 0.065157995 0.030430317
0000f0 ec a9 f8 3c 55 b1 9a bc d9 74 b4 3d 5f ff cd 3b
       0.030354463 -0.018883387 0.088113494 0.006286546
000100 30 ab fe ba 3d ee 7b bc 0a 2d 0a bc 86 dc de 3c
       -0.001942968 -0.015376625 -0.00843359 0.027204763
000110 bd b8 33 3c be 05 0a bd 64 d3 8d bc d5 52 c9 bc
       0.010969338 -0.033696882 -0.017312713 -0.02457563
000120 2a 1b 6d bc 17 3b 72 bd df 65 d4 bd d1 18 2d ba
       -0.014471808 -0.059138384 -0.10370993 -0.0006603124
000130 51 b4 98 3d 87 54 89 bd 0a 06 13 bd 55 d1 25 bc
       0.074562676 -0.067055754 -0.03589443 -0.010120709
000140 16 51 20 bd 42 28 a6 bd d7 61 cd 3c b2 df 6d 3c
       -0.03913983 -0.08113147 0.025071068 0.014518665
000150 6b 8d 71 3c c5 a1 89 3d 67 e8 09 3b eb f2 38 bc
       0.014743189 0.06720308 0.0021043064 -0.011288385
000160 ff 0f 6c bd cc 4a 06 be 9d 9c 89 bd c8 0a 15 bd
       -0.057632443 -0.1311447 -0.06719325 -0.036387235
000170 e7 21 81 bd f2 48 8b 3d e2 1f 89 3c c9 f1 9a 3d
       -0.063052945 0.068010226 0.016738836 0.07565648
000180 39 65 3e bd 12 74 38 bc 42 20 05 3d c0 99 db bc
       -0.046483252 -0.011258142 0.032501467 -0.026806712
000190 a5 ac b5 bd d2 58 d2 bc a5 8a ca bc c5 47 75 bd
       -0.0887082 -0.025677118 -0.024724314 -0.059882898
0001a0 13 df 9c bd cb ff 09 3d d5 cc b1 bd a7 0f db 3c
       -0.076597355 0.03369121 -0.08681647 0.026740862
0001b0 8a 7d 2e 3a ca 2d b8 bc c7 33 6d 3c d1 92 36 3d
       0.000665628 -0.022482771 0.014477677 0.04457361
0001c0 d8 24 ff ba ea 49 08 3d a2 ea 54 bb f7 91 35 bd
       -0.0019465936 0.033273615 -0.0032488485 -0.044328656
0001d0 56 a7 c1 3c a2 f1 b8 bc 27 e2 66 bc ee 89 3b 3d
       0.023639362 -0.022576157 -0.014092005 0.045785837
0001e0 46 f1 44 3d 65 db 1b 3d d8 9d ad 3d c9 a1 c4 3c
       0.04808166 0.038051028 0.08477372 0.024002926
0001f0 10 2a 04 3d de 3c 25 3c 1c e1 9a 3d 02 e9 8a 3d
       0.032266676 0.010085313 0.075624675 0.06782724
000200 83 60 e6 3b d5 f6 2a 3d b1 9b 8c bd 6d e9 a6 3c
       0.007030548 0.041739304 -0.06865633 0.020374978
000210 23 ba 4f 3d 35 e2 63 3c b5 2d 62 3c 58 23 33 bd
       0.050714623 0.013908912 0.013804843 -0.04373488
000220 f0 c3 ab bc f7 1b 1d bd 68 2f 27 3d 5d 5a a6 bd
       -0.020967454 -0.038356747 0.040816694 -0.08122704
000230 7d 53 d0 bd da d8 25 be c7 42 8c bd a5 19 83 bd
       -0.10172174 -0.16196004 -0.06848674 -0.06401376
000240 eb 5c 4c bd 73 d6 ac bd 1a 0e c5 bd c9 0b 01 bd
       -0.0498933 -0.084393404 -0.0962183 -0.03150538
000250 90 0a 60 bd d2 41 5a bd 2f a5 85 bd 6d 33 5a bd
       -0.054697573 -0.053285427 -0.06525647 -0.0532717
000260 25 78 3b 3d 0a 72 0c be 8c 43 90 bc 8f 78 07 be
       0.045768876 -0.13715377 -0.017610334 -0.13229583
000270 86 ac 96 3c 6b 0a df bc 85 b2 4c bd a9 90 fc bc
       0.018392812 -0.027226647 -0.049974937 -0.030830698
000280 85 06 d8 3d 83 52 98 bd 87 58 8d bb 31 03 b1 bd
       0.105481185 -0.07437613 -0.004313532 -0.08643187
000290 74 53 91 3c bd 35 01 bd 46 b9 bc bb 2b 99 4f 3c
       0.017739989 -0.03154539 -0.005759391 0.012670795
0002a0 80 e5 49 bd 24 b9 0e bc ab 0a 8d 3c 34 85 6e bc
       -0.049291134 -0.008711133 0.017217001 -0.014558125
0002b0 6c d7 d9 bc 86 cc f5 bc 77 6d 98 3d 4a 2a 9d bd
       -0.026591979 -0.030004751 0.07442754 -0.076740816
0002c0 bf ba 03 3d f2 8d 77 3d 8e 09 06 be d7 e7 09 be
       0.032160517 0.060438104 -0.13089582 -0.13467346
0002d0 9a 92 5c bd c5 71 35 3d e8 7c ed bd d3 d2 4e bb
       -0.053850748 0.044297952 -0.115960896 -0.0031558766
0002e0 a5 66 22 3d 1c b3 2a bd 1b 91 0d 3c 19 9c f2 bd
       0.03964867 -0.04167472 0.008640553 -0.118461795
0002f0 ff 8d 82 3d b5 82 57 bd e5 3b 6d 3c 2e 45 86 bd
       0.0637474 -0.052614886 0.014479612 -0.06556164
000300 c1 92 08 3c 5c 5d 90 3d 16 8d 3a bd 2b 94 a8 3c
       0.00833577 0.07049057 -0.045544706 0.020578464
000310 eb 71 90 3d 36 87 7a bc 9b 21 40 bd 2a 4d b8 bc
       0.07052978 -0.015291026 -0.04690705 -0.022497732
000320 38 29 c0 bb da e2 a5 3c 0f c4 17 3d 49 cf db 3b
       -0.0058642887 0.020249773 0.03705221 0.00670806
000330 a0 36 7c 3d 2b 11 01 bb 43 29 1e 3c 3e 3f 28 bc
       0.061575532 -0.001969407 0.009653392 -0.010268984
000340 79 bb d5 bc 4d cf 8f 3c a3 6b 38 bc ed 8c 0c bc
       -0.02609037 0.017554903 -0.011256131 -0.008578521
000350 7d 27 2b 3d 54 2e 1e 3d d5 0f 58 bd c1 54 bd bc
       0.041785706 0.0386184 -0.052749474 -0.023111703
000360 db a6 35 3d 1b 3c 1f 3d 58 07 a4 3d 9a f9 71 3d
       0.04434858 0.03887568 0.08009213 0.05907593
000370 9b e7 59 3c 20 99 28 3d 3e f6 56 3c cd 79 95 bd
       0.013299848 0.041161656 0.013120232 -0.07298622
000380 99 92 90 bd bf f7 2a 3d ca e9 ac 3d 6f 64 3a bc
       -0.07059211 0.041740175 0.08443029 -0.011376484
000390 dd 24 2f 3d d5 c9 84 bd c9 21 79 3c 44 f1 81 bd
       0.042759765 -0.06483809 0.015205809 -0.06344846
0003a0 6d 77 7c bd 2e ae 16 be 84 73 85 bc f0 0c 26 3d
       -0.06163733 -0.14714882 -0.016290434 0.040539682
0003b0 3e 25 25 3d bc d6 c9 3c c0 84 da ba 17 20 32 bd
       0.04031872 0.024638526 -0.0016671643 -0.043487635
0003c0 9c e2 a5 39 4b 54 13 bd ff 23 4c bd 4b 06 a1 3c
       0.0003164009 -0.03596906 -0.049839016 0.019656321
0003d0 a0 47 ed 3c 2c ee d3 3c 76 61 a7 bb 2e e5 82 bd
       0.028964818 0.025870405 -0.005108054 -0.06391369
0003e0 76 12 dd bc 16 97 51 3d 43 62 d1 3c 93 9d 0e bd
       -0.026986342 0.051169477 0.02555955 -0.034818243
0003f0 d6 d3 65 bd 42 9a 66 ba f4 90 eb bc 3d 00 0b 3d
       -0.056110226 -0.000879679 -0.028755642 0.033935774

Enc.linear.bias f4 [256]
000000 d8 36 13 bd 53 c4 d7 3e cf ea ec 3d ae 32 c1 bb
       -0.035940975 0.4214197 0.11568224 -0.005895934
000010 6b 29 ce be cc 43 98 3c a6 a9 77 3e 22 50 d3 3b
       -0.40265974 0.018587016 0.2418581 0.0064487616
000020 03 15 16 be 67 58 48 bd 7a 76 06 3d 3a 52 83 3e
       -0.14656453 -0.048912432 0.03282783 0.2564867
000030 dd cb 28 41 ee 35 7f 3c ce dd 0c 41 5f 7d 46 bd
       10.549771 0.015576823 8.804152 -0.048459407
000040 7d 8f ce 3f 29 3b 2e bd 6f 7e 87 be 06 aa 8c 40
       1.6137539 -0.04253689 -0.2646365 4.395755
000050 73 6e ed bc 01 02 2a bc e6 cf eb 3d 95 20 5c bd
       -0.02898333 -0.010376454 0.11514263 -0.05374201
000060 1e 2a b1 bc bd 20 48 3f d4 be 18 3c 7f c1 3a 3f
       -0.021626528 0.78174955 0.009322841 0.729515
000070 88 d5 6c 3b c1 60 21 bd 00 9d 1b bd 50 d2 cd 40
       0.0036138017 -0.039398912 -0.037991524 6.431923
000080 01 e1 31 bd fc 1f e6 bc 5b c9 82 3c 17 07 75 3c
       -0.04342747 -0.028091423 0.015965154 0.014955304
000090 31 29 86 bc 10 f0 23 be 20 32 e9 bd 86 99 a6 bd
       -0.016377063 -0.16009545 -0.11386514 -0.08134751
0000a0 a8 2c c5 3c f2 41 6f bd d3 23 a7 bc 24 83 18 3b
       0.024069145 -0.0584125 -0.020402825 0.0023271525
0000b0 2f 78 18 bd 94 bc f0 be dc b2 a8 be f0 c3 75 bd
       -0.03722399 -0.47018874 -0.3294896 -0.060001314
0000c0 ea 87 78 40 b1 1c 1a bc a3 c1 23 bd f3 59 0f bd
       3.8832955 -0.009406255 -0.03997959 -0.03499789
0000d0 5c 28 93 bd 45 96 d5 bd 0b d2 41 bd 2b b5 cf bd
       -0.07185432 -0.10429052 -0.047319453 -0.10141977
0000e0 7e 62 b9 bc 75 ea 64 bc 63 00 68 bd bf 3f 12 bd
       -0.022629973 -0.013971915 -0.056640994 -0.035705324
0000f0 10 38 fd bc 31 e3 d9 3e a3 ab 31 bb cb a0 93 bd
       -0.030910522 0.42556146 -0.002711036 -0.07208403
000100 8e 83 93 3c cf 24 39 be b0 c3 c9 3e e4 18 c2 3c
       0.018007066 -0.18080448 0.3940711 0.02369351
000110 5b 17 60 bd 02 7f 5b 3e 07 ff ca 3f 83 c4 fe 3b
       -0.054709774 0.21435168 1.5859078 0.007774891
000120 4d d4 30 bc 8e 5a f9 3e d3 4b c8 bd 5d c3 78 41
       -0.010792804 0.487019 -0.09780087 15.547696
000130 f3 34 93 3c 8d e7 61 bd 6e 44 d8 bc 14 57 59 bd
       0.017969584 -0.055152465 -0.026399817 -0.05306156
000140 51 29 54 be 38 0c 44 bc 0a e3 25 be 3c 84 82 bd
       -0.20718886 -0.011965804 -0.1619989 -0.06372878
000150 1f d0 db bd e4 61 3a bd 69 42 31 3c 48 20 1a 3d
       -0.10733055 -0.045503512 0.010819056 0.037628442
000160 96 cd 75 40 77 a1 ee bc bd 19 9e 3d 49 26 ff bd
       3.840673 -0.029129727 0.07719753 -0.12458474
000170 83 57 40 3d 93 25 a9 3b ce ed bd 40 6e 97 45 bc
       0.046958458 0.00516195 5.935279 -0.012060029
000180 4d b0 d6 bd 7e e5 21 bd fa c4 d8 be 79 d0 06 3c
       -0.104828455 -0.0395255 -0.4233778 0.008228415
000190 e5 a7 dd be 17 7a de 3d 90 b1 16 bf 1c 9c 39 bd
       -0.43292156 0.108631305 -0.5886469 -0.045314893
0001a0 ea c5 11 bd 3f 7c 2a 3f 08 45 99 3d 9a 1c e1 bd
       -0.035589136 0.66595834 0.0748387 -0.109917834
0001b0 da ca 73 bd c3 00 a0 3d f2 b9 0f bd eb 4a e7 be
       -0.059519626 0.07812645 -0.03508944 -0.45174345
0001c0 cc 95 64 bd db 17 86 bd b6 cc 38 3f 6c 2d f9 3a
       -0.05580692 -0.06547519 0.72187364 0.0019010729
0001d0 d9 b1 bf 3b c1 77 91 3e ee ff 49 bd 49 b6 da 3e
       0.0058500585 0.28411677 -0.04931634 0.42717198
0001e0 e1 08 e5 3d 0b 95 6b 3e ad c8 66 bf a0 69 19 be
       0.11183334 0.23006074 -0.90149957 -0.14981699
0001f0 67 7c 62 bd e2 c3 9c 3c 0f 47 e7 3a 7c cf a0 bc
       -0.05529442 0.019136373 0.0017645078 -0.019630186
000200 e4 0a 66 be fe d0 c0 39 8d fc 73 3e e1 10 0b bf
       -0.22465092 0.00036776805 0.23826809 -0.5432263
000210 86 41 1a 3e 2a 4c 12 bc 59 38 ab bc 78 92 c2 bd
       0.15064058 -0.008929292 -0.020900892 -0.09500593
000220 51 65 28 3e bf d5 08 3d ee a7 6b be f1 69 5e 3e
       0.16444899 0.03340697 -0.23013279 0.21720101
000230 33 50 09 3e d5 f5 69 3c e7 90 08 bd 1f 51 25 3c
       0.134095 0.014279802 -0.033341315 0.010090142
000240 55 b8 93 3b 2f 7b 82 bc 2f 5a d2 bc d3 19 af bc
       0.004508058 -0.01592788 -0.025677769 -0.021374619
000250 a3 79 48 3c 4a a4 82 3c 50 09 01 41 f7 0b 90 bc
       0.012236032 0.01594748 8.064774 -0.01758383
000260 c0 b9 a1 3c 21 d9 6b 3c ee 15 7c 3e 0a f2 07 be
       0.019741893 0.014395029 0.2461774 -0.13275924
000270 0e 0b 2a 3f 9e d9 e6 40 8e d6 4a bd c5 e2 11 41
       0.6642312 7.2140646 -0.04952102 9.117864
000280 e6 a2 4e bd cf a6 2f 3f f0 b3 58 41 ff 50 e6 3b
       -0.05044832 0.68613905 13.54393 0.0070286985
000290 39 6a 62 40 38 d6 b4 bc 60 bb f8 3b 7e ee 1a bd
       3.5377333 -0.022074804 0.007590696 -0.0378251
0002a0 4d a6 7a bd e0 97 32 40 84 df 1a 3f 01 50 5a bd
       -0.061193753 2.7905197 0.6049731 -0.053298954
0002b0 8d f5 e2 3c f9 36 a0 be db ef 2e b9 4c 07 88 3f
       0.027704978 -0.3129194 -0.00016683286 1.0627227
0002c0 f5 66 e9 b7 90 c0 96 3f f9 4c ff 3d 0d c9 a2 3c
       -2.7823708e-05 1.1777515 0.12465853 0.01987126
0002d0 37 aa f7 be c5 66 98 3e 0b 16 9d ba 9b b7 06 bc
       -0.4837205 0.29765907 -0.0011984719 -0.008222486
0002e0 c8 de e0 be a7 37 68 bc 34 66 2d be 13 7c 6f 3e
       -0.4391997 -0.014173425 -0.16933519 0.23387174
0002f0 92 01 35 bd 20 77 ec 3b f6 46 6a bc 65 50 45 be
       -0.04419095 0.0072163492 -0.014299145 -0.1926895
000300 f2 33 ba 3e 7d 42 23 bb 95 0c f3 bd 6d fc 55 bd
       0.36367756 -0.0024911456 -0.11867634 -0.052242685
000310 a0 e8 7c 40 88 81 78 bc c0 e9 70 bd 17 6d 0c 3e
       3.9516983 -0.015167601 -0.05881667 0.1371349
000320 74 0c 18 3c 67 4d 89 3b 57 d5 ff 3d e1 35 bb bc
       0.009280313 0.0041901353 0.12491863 -0.02285284
000330 fe 16 0f 3c cf 5b 33 3c 8c 7d 05 bd f2 04 80 bd
       0.008733509 0.010947182 -0.032590434 -0.06250943
000340 e2 27 09 3c d7 29 55 bb 88 13 89 bd e8 77 3a bd
       0.008371325 -0.003252616 -0.066931784 -0.045524508
000350 48 a0 9f 3e c6 27 b9 be eb 95 20 bd 5f 94 11 be
       0.31176972 -0.36163157 -0.039205473 -0.14216755
000360 75 82 80 be 91 4b df 40 8b a9 83 bb 98 1d 18 be
       -0.2509953 6.9779744 -0.004018014 -0.14855039
000370 28 bf 69 bd fd 04 4b 3c 63 84 48 be 59 b1 91 bc
       -0.057067066 0.012391326 -0.19581752 -0.017784761
000380 e3 a1 dc bd d2 c7 03 bd 2f 05 64 be 42 13 30 bd
       -0.10773065 -0.032172985 -0.22267602 -0.042987116
000390 08 5b 8e 3c 1d 56 9a 3d 26 c1 74 3f 43 9d 9c 40
       0.017377391 0.07535956 0.9560722 4.894197
0003a0 f2 18 43 be 15 0b 94 3c e7 6d 30 bc 47 65 73 3e
       -0.19052485 0.01807169 -0.01076839 0.23769103
0003b0 7b e2 16 bd 2a 6d 0e be 73 a4 5d be b1 06 8c bc
       -0.036837082 -0.1390883 -0.21644764 -0.017093034
0003c0 3d 42 88 be 72 74 86 3e 64 6b 82 3c b3 81 61 bd
       -0.26613036 0.26260716 0.015920348 -0.05505533
0003d0 22 9c d6 be f0 be dd 3e eb 90 d2 bc 9d 61 1b 3f
       -0.41915995 0.43309736 -0.025703868 0.6069582
0003e0 69 d4 90 bc a7 82 58 bd ef b5 1d bd d3 d9 81 bb
       -0.01767941 -0.052858975 -0.038503584 -0.0039627342
0003f0 4c 26 3b 3c 72 74 7f 3f d8 ef 04 3b 15 78 0c be
       0.011422705 0.99787056 0.002028456 -0.13717683

linear.0.weight f4 [128, 512]
000000 b0 5b af bb 08 e1 e7 3b c9 36 19 3d 40 73 e3 3b
       -0.005351506 0.0070763864 0.037405763 0.006941229
000010 a5 83 48 bd 67 52 1a bd 6d 75 14 3e 54 14 dd bc
       -0.04895367 -0.03767624 0.1449792 -0.026987232
000020 3f eb 2e 3d ba c1 d5 3c 60 9c bc ba 30 65 2f bd
       0.042704817 0.026093353 -0.0014389865 -0.04282111
000030 dc 7f b1 3d e9 9c b5 bc 16 c5 11 3e 7b 88 1f 3d
       0.08666965 -0.022169547 0.14235339 0.038948517
000040 be 84 f7 3d 07 e9 06 3d 70 84 4b 3c c5 33 8c 3d
       0.120858654 0.032937076 0.012421712 0.06845812
000050 b8 57 2d bc 98 2c 9d 3b 6f 6b 39 bd 00 fd 31 ba
       -0.010579996 0.0047965758 -0.045268472 -0.0006789714
000060 74 7a b9 bc 50 db be 3b 8e 12 b0 3c 90 91 3b 3b
       -0.022641398 0.005824484 0.021493223 0.0028620698
000070 94 4b 0a 3c 97 ff d6 bc 3e 6f fa 3c 53 8f 8f bb
       0.008440871 -0.026244922 0.030570623 -0.0043810993
000080 b3 7e a1 bc a4 7d 42 3c 4f f8 b6 bc e0 fc 8a 3a
       -0.019713735 0.011870775 -0.0223352 0.0010603927
000090 c8 93 96 bb 07 93 26 3d db ca 06 bd e4 ab 98 bc
       -0.0045952536 0.04066756 -0.0329083 -0.018636651
0000a0 60 f5 f6 ba f6 3e 97 3c 00 3b 2b bd 18 cb af bc
       -0.0018841438 0.01846264 -0.041804314 -0.021459147
0000b0 7c 25 8f 3c fa f8 c0 bc 08 0e 10 3c 6c 13 11 bd
       0.017473929 -0.023556221 0.008792408 -0.035418913
0000c0 63 d2 49 bd 5f dc 20 3d 77 35 f6 bc 00 4f 38 bc
       -0.049272906 0.039272662 -0.03005479 -0.011249304
0000d0 80 09 de 39 73 5c 83 bc 9e 9d cb 3c f9 3e 28 bd
       0.00042350218 -0.016035294 0.024855431 -0.04107568
0000e0 80 14 1e 3c 3b 7f 08 3d 49 8d 07 3d bc 02 08 3c
       0.009648442 0.03332446 0.033093724 0.008301433
0000f0 9e ac 9b 3c 1d b1 1f 3d e0 68 f2 3b c5 ac c5 bc
       0.019003209 0.038987268 0.007397756 -0.024130234
000100 50 fa 0a bd 1a 05 d8 3c b8 f0 e4 bb 00 0d 04 3c
       -0.033930123 0.02636962 -0.0069867037 0.00805974
000110 c0 0b 7a 3c 00 56 18 3a f9 b7 55 bc 44 da 29 bd
       0.0152615905 0.0005811155 -0.013044351 -0.04146792
000120 00 d0 72 ba e7 0f 80 bc 0c 42 45 bc 35 dc a5 bd
       -0.0009262562 -0.015632583 -0.012039673 -0.08098642
000130 a9 9d 0d 3d 64 36 45 3c 2b 7a 23 3d ae 47 d4 3c
       0.034574185 0.0120368935 0.03991143 0.025913086
000140 28 ed f7 3b 98 ca 5d 3c 90 4a 17 3c 30 35 f6 bb
       0.007566113 0.013537072 0.009234086 -0.0075136647
000150 4b 18 94 bc 88 c3 a7 bc ec 2d 6f bc 9c 3e 12 3c
       -0.01807799 -0.020478979 -0.014598351 0.00892606
000160 5c 11 e8 3d f8 07 d1 bb ef 33 fa be c0 f2 63 ba
       0.11331436 -0.006379124 -0.48867747 -0.00086955354
000170 34 3f 06 bd 20 ce 24 3c 77 ad c8 be f6 1d b7 3c
       -0.03277512 0.01005891 -0.39194843 0.022353154
000180 3d 8d b6 bc 8c 34 02 bd c0 63 0f bb 46 0c d5 3c
       -0.022284145 -0.031788394 -0.0021879524 0.026006829
000190 2e 65 67 bd a4 a3 1a bc 40 fd 4c ba 5e 5c 80 bc
       -0.056492977 -0.009438429 -0.00078197196 -0.015669044
0001a0 11 e1 1d 3d 14 63 ef bd e0 d5 97 ba 74 3c 4e 3d
       0.03854472 -0.116888195 -0.0011584125 0.05035062
0001b0 b9 3b 2f 3d 80 1a 1f bd 2e 8a 83 3c 84 1e b7 bc
       0.042781565 -0.03884363 0.0160571 -0.022353418
0001c0 84 42 41 bc d6 96 82 bc d0 10 c8 3b 91 06 86 bc
       -0.011795644 -0.015941065 0.00610552 -0.016360553
0001d0 29 16 2f 3d 06 fa 20 bd cd 98 a2 bc 74 8e 63 3c
       0.042745743 -0.03930094 -0.019848252 0.013888944
0001e0 ee c4 b1 3d 00 8d 41 3a c1 c6 c9 be a7 e1 c6 bc
       0.086801395 0.00073833764 -0.3940945 -0.024277521
0001f0 dc 09 1e bc 44 b5 6b bc 2a a6 1e bd e6 53 d0 3c
       -0.009645905 -0.014386479 -0.038732685 0.02543063
000200 56 4c f0 3c c3 eb 9a bc 32 79 e0 3c f0 c4 f0 bb
       0.029333275 -0.018911248 0.02740154 -0.0073476955
000210 5f e3 0d 3d 2c 09 70 3c d6 41 d4 3c 0f 0a 23 3d
       0.034640666 0.014650624 0.0259103 0.039804514
000220 60 e6 5d bc 9c 31 df bc d6 ef b3 3c 31 af e0 bd
       -0.013543695 -0.027245335 0.021964949 -0.10970915
000230 a4 b5 23 be b8 76 08 bc 58 51 83 bb 60 38 5b 3c
       -0.15987259 -0.008329086 -0.0040074997 0.01338014
000240 26 f2 e8 bc ee 01 87 bc 90 ea 24 bc 86 03 17 bd
       -0.028435778 -0.016480412 -0.01006569 -0.036868595
000250 eb f8 90 bc c0 3f 2e bb ec 02 38 bd 92 83 62 bc
       -0.017696818 -0.002658829 -0.04492466 -0.013825314
000260 ce 8c a5 3c 00 af 49 3b 20 97 cf 3b 8c 6a 3b bc
       0.020208742 0.0030774474 0.006335154 -0.011438977
000270 df d3 2e bd 6f 5f 95 3e c2 bd ff bc c7 dc 44 3e
       -0.042682525 0.29174373 -0.031218413 0.19224845
000280 aa 7d 75 bc dd b4 11 3d e3 b4 83 3d 80 49 9f bc
       -0.014983574 0.035572875 0.06430986 -0.019444227
000290 1f e9 57 3c db a7 19 3d 10 78 6b 3b 52 d0 9a 3c
       0.013178139 0.037513595 0.0035929717 0.018898163
0002a0 f6 ca 30 bd a8 b9 71 bc 00 50 0d 38 08 b3 10 bd
       -0.04316231 -0.014753737 3.3691525e-05 -0.035326988
0002b0 54 b5 d9 bc ac a6 1d bd 17 cb f5 bc d3 36 7d 3f
       -0.026575722 -0.03848903 -0.030004067 0.9891178
0002c0 6b 4a 03 3d 37 2e 0e 3d cc 19 3c 3c c0 0b b4 3b
       0.032053392 0.034712043 0.01148076 0.005494565
0002d0 98 fd 2a bc 30 d8 29 3b 04 ca 9b bc d0 6e 1d 3b
       -0.010436438 0.0025916211 -0.019017227 0.0024022348
0002e0 94 e4 81 3c 16 8f 9d 3c 50 6a 06 bd 40 90 58 bb
       0.015856065 0.019233268 -0.03281623 -0.0033044964
0002f0 4e 0d e1 3c 6e 96 e5 3c ff fd f8 bc a5 65 27 3d
       0.027472164 0.028025832 -0.030394552 0.04086842
000300 f7 4c 3f bc 1a 8e 88 3c 9d 94 31 bd b0 11 fd bc
       -0.011676065 0.016669322 -0.04335462 -0.030892223
000310 a7 07 08 3e 7a 66 fa 3c 35 e6 10 3d f0 a4 5a bc
       0.13284169 0.030566443 0.035375793 -0.013344988
000320 c0 d7 97 3a 6c bb 08 3c e0 26 93 3a 69 ee 03 3d
       0.0011584684 0.008345466 0.0011226796 0.032209788
000330 48 94 7b 3c 4d 16 8c bc d2 2c 90 3c e2 50 d8 3c
       0.015355177 -0.017100478 0.017599497 0.026405755
000340 5e de 25 bd d2 99 de 3c 9f 38 d5 bc bf aa cc bc
       -0.04049527 0.027172957 -0.026027976 -0.024983762
000350 12 4f ee 3c 12 9e 02 3c e8 9f e7 bb 8f c2 ec bd
       0.029090438 0.007972257 -0.007068623 -0.115605466
000360 06 b4 a5 3c 9d 2d 22 be 4c 84 b7 bc 44 57 eb bc
       0.020227443 -0.15837713 -0.022401951 -0.028728135
000370 90 2a 37 bc 46 a9 a5 3c 97 76 f3 bc c0 f7 3f bb
       -0.011179581 0.020222317 -0.029719634 -0.0029291958
000380 9c 81 19 bc 30 27 44 3c 60 73 99 3b e5 24 d6 bc
       -0.00936928 0.011972234 0.004682943 -0.02614064
000390 62 30 a9 3c 3e b7 f2 3c 27 ae 1a 3d 79 a6 2d 3c
       0.020652954 0.029628392 0.03776374 0.010598772
0003a0 1c 39 93 3c a5 2b 2d 3d c0 a2 77 bc fa 1b c9 3c
       0.017971568 0.04227795 -0.015114486 0.024549473
0003b0 81 98 0b 3d b6 f0 d2 3c 7b 53 2f bd 00 92 52 3c
       0.034080986 0.025749546 -0.042804223 0.012852192
0003c0 7d 1e b8 bc 34 21 7f 3c e3 3f cd bc ab 0d 2d 3d
       -0.022475475 0.015571881 -0.025054878 0.042249363
0003d0 5b 77 2f 3d b5 78 92 3d e2 43 ab 3c ca 5c 80 bc
       0.042838436 0.07151929 0.020906392 -0.015669245
0003e0 58 78 0e 3c 8f 84 01 3d e8 40 f5 bb 00 b7 c4 3b
       0.008695684 0.03162056 -0.007484544 0.0060032606
0003f0 62 fc d5 3c 12 d0 c7 3c f9 45 bd bc cc 22 53 3c
       0.026121322 0.024391208 -0.023104655 0.012886714

linear.0.bias f4 [128]
000000 16 5f 0d 3c 59 f9 b2 3b ef 44 5c 3c c7 6d b5 3c
       0.008628627 0.0054618535 0.013444169 0.022147072
000010 fd 0f f3 bc 83 01 34 3c 97 14 27 bc f4 40 dd bc
       -0.02967071 0.010986689 -0.01019778 -0.027008511
000020 99 60 ca 3c 2f be e0 bc 6e 9c d8 bc 74 4f e1 bb
       0.024704264 -0.027434437 -0.026441779 -0.0068759266
000030 06 dc 38 3d 67 09 31 bd 56 53 fc bc b1 15 92 bc
       0.045131706 -0.043221857 -0.030801456 -0.017832609
000040 dd 03 26 bd ad 05 58 bc c9 dc c2 bc 05 ce 02 bd
       -0.040531028 -0.013184947 -0.02378692 -0.031934757
000050 09 46 42 3b 7b 74 0b bd 1f 6f 98 3a fd d1 df bb
       0.0029643795 -0.03404663 0.0011629796 -0.0068304525
000060 0c 6e 9b bc 96 d5 0f 3d 7f 75 8a bc a3 6a 13 bd
       -0.018973373 0.0351158 -0.01690173 -0.03599037
000070 3d 72 9b 3a 4f 1b 6e 3b 2c c3 15 3d 2c 13 28 bc
       0.0011859607 0.0036332195 0.036563084 -0.010258477
000080 b0 06 1f bd 20 5b 23 bd 7c 5e 3c 3d 81 87 93 bc
       -0.038824737 -0.039881825 0.045988545 -0.01800895
000090 7e 65 aa bc b8 fd 18 bd 84 6c 37 3c 94 10 06 3d
       -0.020800348 -0.03735134 0.011195306 0.032730654
0000a0 37 6e ff bb 7a 0d 55 bc 52 6c db 3c 11 11 be ba
       -0.007795121 -0.013003701 0.02678505 -0.0014500936
0000b0 6f 6e 23 3d 02 02 a6 3b 3b 34 00 bd 76 e0 f9 3c
       0.03990024 0.0050661573 -0.03129981 0.03050254
0000c0 77 7e ea 3c 9e 53 37 3c 94 f0 d1 bc ce 9f 0c 3d
       0.028624756 0.0111893695 -0.025627412 0.03433209
0000d0 b8 31 a1 bc 75 1f a7 3b e2 ca ec 3c 70 08 a1 3a
       -0.019677028 0.0051001855 0.028905336 0.001228584
0000e0 89 12 c2 3a 1c 93 39 3a 46 f3 84 3c 61 4f 3b bc
       0.0014806549 0.0007079111 0.016229283 -0.0114325
0000f0 de 8c f5 3b b3 1a 95 3c b5 1d 03 3d 93 cd 20 3b
       0.0074935993 0.018201208 0.032010753 0.0024536594
000100 f4 0b 14 bd 48 53 c6 3c 74 ee 0b 3d d6 e3 a0 bc
       -0.036144212 0.024209633 0.034162953 -0.01963989
000110 a0 0e b0 bc d3 70 dc bc 08 31 a4 bc 68 58 ca 3c
       -0.021491349 -0.026909268 -0.020042911 0.024700359
000120 9a 21 af bc 82 0b 13 bd a4 e6 53 3c d0 43 98 bc
       -0.021378327 -0.035899647 0.012933407 -0.018587023
000130 92 74 25 3d 21 12 54 3d b9 98 29 ba 44 d2 8d bc
       0.040394373 0.0517751 -0.0006469596 -0.017312177
000140 03 3a 46 bb 6c 1e 16 3d ef 56 32 3d fb f3 fe bc
       -0.003024698 0.036650106 0.043539938 -0.031122198
000150 c0 74 e1 3c ab 39 11 3c 97 08 c4 3c 5f a1 2c 3d
       0.027521491 0.008863847 0.023929877 0.042146083
000160 9c a5 80 bc 7a 9b bd bc b5 07 17 3d fc 77 5d bc
       -0.015703969 -0.023145426 0.036872584 -0.013517376
000170 6a 7d 29 bd ef db 58 3c 55 68 8a bc e1 6f 2e 3d
       -0.04137937 0.01323603 -0.016895453 0.042587165
000180 5e 6c 6e 3a 92 4c 1f 3d 36 60 0e bd 38 e7 8a bc
       0.00090951275 0.038891383 -0.034759723 -0.016955957
000190 fb 3a 19 3d 9f 06 0c bc 2b 72 81 3c 39 8a a8 bc
       0.037409764 -0.0085465005 0.01580151 -0.020573722
0001a0 6a 63 1e 3d 67 3d d3 3c 00 91 95 3c ae 6f 68 3c
       0.038669027 0.025786115 0.018257618 0.014186783
0001b0 1d 16 2a 3d bf 80 db 3c c6 d7 3e 3d f6 02 9f bc
       0.041524995 0.02679479 0.046592496 -0.019410592
0001c0 62 f8 b0 3c ec 61 e0 bc 1c d5 86 3c cb 20 e7 bc
       0.021602813 -0.027390443 0.01645904 -0.02821388
0001d0 fd 2e 2f bc ee a2 52 bc ac 48 c9 bc 31 12 bd bc
       -0.010692355 -0.012856228 -0.024570785 -0.023079963
0001e0 25 15 06 3a e3 4f 91 3c 8f 17 a9 3c 73 cb 1d 3d
       0.0005114845 0.017738288 0.020641116 0.038524102
0001f0 18 87 c7 b9 06 a6 1a 3d 5c b1 62 bc 48 6d 5e bc
       -0.0003805689 0.03775599 -0.013836231 -0.013575859
