previous_models/Vec1.pth (torch, 629591 bytes, 6 tensors)

conv.0.weight f4 [32, 7, 2, 2]
000000 ff 48 8d be a9 25 cb be 86 a5 0d c0 84 e2 66 be
       -0.27594754 -0.3967717 -2.2132277 -0.22547346
000010 01 d6 73 bf 80 01 ba 3e 12 82 43 3f 37 ff fb be
       -0.9524842 0.3632927 0.76370347 -0.4921815
000020 5e 2f bf bb 17 16 b6 3e 87 a7 6e 3f 95 d1 9e 3e
       -0.005834504 0.35563728 0.93224376 0.31019273
000030 cb b1 8a be 5e e6 7d bf 4c 50 bd 3f d0 0e e6 bf
       -0.2708877 -0.9917964 1.479013 -1.797327
000040 81 11 45 bf ce b1 f1 3e 8b 71 bb 3f a4 1f 12 bf
       -0.76979834 0.47205967 1.4644026 -0.5707953
000050 79 ee a6 be c9 a3 ba bf ec 5b ec be 0d ea 2d bf
       -0.32603815 -1.4581233 -0.4616388 -0.6793526
000060 67 73 f7 be 65 b3 f9 be d8 03 10 be 4a dc b1 be
       -0.48330233 -0.4876968 -0.14063966 -0.3473838
000070 8d ee 93 bf 4c 68 40 bf 9b 90 b9 bf 97 42 c3 bf
       -1.1557175 -0.75159144 -1.4497255 -1.5254697
000080 c8 0b 1a be 5f 0b d0 3f 73 74 95 3c 24 a2 4d 3f
       -0.15043557 1.625347 0.018244004 0.8032553
000090 91 54 bc 3d fe 86 01 40 53 31 6a be 9a 19 b2 bd
       0.09195817 2.0238643 -0.22870378 -0.08696289
0000a0 0b ba 07 bf d0 88 05 bf ec 6a 04 bf 9b e3 87 3d
       -0.53018254 -0.52161884 -0.5172565 0.06635209
0000b0 f4 5c 06 bf c5 b5 ee be ad 0e b5 be 06 93 aa bd
       -0.52485585 -0.46623054 -0.3536276 -0.08328824
0000c0 e9 30 2b 40 b3 6d c6 bf 5f b8 24 3d 68 cf ad bf
       2.6748602 -1.5502228 0.040214892 -1.357892
0000d0 74 55 99 3e b0 b5 6d 3e a4 56 83 bc 3d d0 fd 3d
       0.29948008 0.2321384 -0.016032524 0.12393234
0000e0 ec 28 8c 3e 11 04 c2 3d a4 ff bf 3e 06 4a 00 3e
       0.2737497 0.09473432 0.37499726 0.12528238
0000f0 72 a1 12 3e 2b 06 1f c0 14 61 7b be 19 37 39 be
       0.14319399 -2.4847515 -0.24548751 -0.18087424
000100 d2 cb 67 3e 6f 4c 04 c0 03 3e fa 3e 34 a9 df bb
       0.22636345 -2.0671651 0.48875436 -0.0068255905
000110 bc c7 fe 3e 78 fd 0a c0 da 4e 05 40 a8 f7 da 3e
       0.4976176 -2.1717205 2.0829377 0.42767072
000120 22 db 91 bf e5 9e 31 c0 97 5a ad 3f 86 bf e2 be
       -1.1394999 -2.7753232 1.3543271 -0.44286746
000130 c5 76 40 40 b8 a4 2f 40 1d 8c 37 40 80 74 de 3f
       3.007249 2.7444286 2.8679268 1.7379303
000140 d6 07 b6 bd 4c 83 97 be f9 9f 5b be 53 83 a0 bc
       -0.08888213 -0.2959236 -0.21447743 -0.01959387
000150 44 59 79 bf 12 45 89 3d ce aa bb 3f 40 98 57 be
       -0.97401834 0.06702627 1.46615 -0.21054173
000160 19 6a 27 40 ae 53 ce bd b2 b9 eb bf 6f 7e 70 3f
       2.6158507 -0.100745544 -1.8416045 0.9394292
000170 7a 91 2c bf c2 53 4c 3d 46 50 04 40 66 d2 bc 3d
       -0.6740948 0.049884565 2.0673995 0.09219818
000180 b3 1c 90 bf 64 c7 05 3f d4 8b b4 3f f4 e4 28 be
       -1.1258758 0.5225737 1.4105172 -0.16493589
000190 12 e1 97 3f 5c 93 85 3e 40 18 d0 bf 17 bb 6c be
       1.1865561 0.2608899 -1.62574 -0.23118244
0001a0 6a fb 19 c0 19 7b fd 3e 97 f7 06 40 a6 df 2e bf
       -2.40597 0.4950798 2.1088617 -0.6831001
0001b0 b1 a8 3c 3e 26 02 af 3d 13 6d b1 3d 4e ad 1b be
       0.18423726 0.08545332 0.086633824 -0.15202829
0001c0 c1 16 17 bc 23 35 7e bf 1e 72 25 3b 1f e1 4f be
       -0.009221734 -0.9929983 0.002524502 -0.2030072
0001d0 dd 5a 50 3f 87 12 9f 3d f9 95 41 3e 85 d0 88 bf
       0.81388646 0.07767206 0.18904866 -1.0688635
0001e0 72 38 6e be ff 95 25 be e8 3e 9d be b9 0b 4b c0
       -0.2326372 -0.161705 -0.30712056 -3.1725905
0001f0 bd 27 8f be e7 aa 13 bf 8f 08 2c c0 0e 79 41 bb
       -0.27960005 -0.5768265 -2.6880224 -0.0029521617
000200 34 6d 9d be 89 28 02 3e 33 b0 b2 bf dd 0d 2b bf
       -0.30747378 0.12710775 -1.3960022 -0.6681803
000210 fd 27 b1 3e 47 98 a6 be ec eb 22 bf 54 4b 8b 3e
       0.3460082 -0.32538053 -0.6364124 0.27205908
000220 be 97 4a be 57 98 e9 be 1a c0 a4 be 21 99 c8 be
       -0.19784448 -0.4562404 -0.32177812 -0.39179328
000230 b4 ab ac be 81 d1 e2 bd 86 96 09 3d 49 d7 84 be
       -0.3372475 -0.11075116 0.033590816 -0.259455
000240 11 e0 1e 3e 90 dd 9b 3f 56 a8 8b 3e 4c 91 0d c0
       0.15515162 1.217699 0.27276868 -2.2119932
000250 d1 8a 37 3c 3b 1c 91 bd 59 c3 94 bd 13 d8 05 be
       0.01120253 -0.07085463 -0.07263822 -0.13070707
000260 e2 df 17 40 7b f0 8f 3e 58 b7 c7 be 1e bf c1 bf
       2.3730397 0.2811316 -0.39007068 -1.5136449
000270 6d e4 04 40 46 21 65 3f c6 f8 9d 3e f9 de 15 c0
       2.076442 0.89503896 0.30853862 -2.3417342
000280 aa 59 91 3f e8 0e 01 3e b7 da 0d 3e 47 ec 40 3f
       1.1355488 0.12603343 0.13852964 0.7536053
000290 7a 5e e0 bd 62 14 bb be fa 41 9c be 19 5a 37 bd
       -0.1095552 -0.36538988 -0.30519086 -0.04476366
0002a0 76 24 b0 3e 03 71 9f 3e ab 67 81 be 70 12 da 3f
       0.34402817 0.3114091 -0.25274405 1.7036877
0002b0 87 ce a8 bd 65 67 a9 bd 7a c3 01 be 3c b9 06 be
       -0.08242517 -0.08271674 -0.12672225 -0.13156599
0002c0 d2 07 b2 3f e2 cf 18 3f 2c 20 5c be cf 7d 18 3f
       1.3908637 0.59692204 -0.21496648 0.5956697
0002d0 e0 25 2f 3f b1 8a f9 3e d3 54 e9 3d e0 15 6a 3e
       0.6841717 0.48738626 0.11393132 0.22859907
0002e0 ea 60 c8 3e 2a 96 22 be 18 9b e0 be ee 91 72 be
       0.3913644 -0.15877596 -0.43868327 -0.2368848
0002f0 4f af e3 3e 6d 71 f9 3f 03 3f 93 3f a1 ec a1 be
       0.44469687 1.948774 1.1503605 -0.31625846
000300 57 25 d8 be f6 a8 14 bf e7 61 21 bf 25 90 ca be
       -0.42215988 -0.58070314 -0.6304001 -0.395631
000310 87 6e 70 3d 3e fd ab 3f 6c 83 17 c0 f2 15 97 3d
       0.058699157 1.3436658 -2.3673964 0.073772326
000320 b9 a2 65 bc 23 8a 24 40 ff 27 1f bf 2b f1 8a 3e
       -0.014015847 2.5709312 -0.62170404 0.27137122
000330 77 b5 b1 bd 77 af 08 40 30 f8 d8 be f3 b9 96 3d
       -0.0867719 2.1357095 -0.42376852 0.07359686
000340 47 bf f0 3d e4 bb 18 40 d1 f7 cf bf 69 31 d9 3c
       0.11755233 2.386468 -1.6247503 0.026512818
000350 f5 60 b5 3e 11 b2 42 40 7f 08 94 bf 5a f8 5a 3e
       0.35425535 3.0421183 -1.1565093 0.21383801
000360 67 dd d8 3e 85 66 80 be 77 8a 88 bf 4b 41 34 3e
       0.42356417 -0.25078216 -1.0667256 0.17603032
000370 51 6a 47 3e de fe a1 3e 8a 62 d0 3d 57 47 a4 3e
       0.1947415 0.3163976 0.10175045 0.32085678
000380 6e 3c 48 bd 66 64 0f 3e f5 df d5 bc 00 76 92 be
       -0.048885755 0.14003143 -0.026107768 -0.28605652
000390 ae cb a1 be b4 60 16 bf 63 86 a1 3d ea 5d 5a 3f
       -0.31600708 -0.5874131 0.0788696 0.8529955
0003a0 e8 da c7 3d 33 9a 42 3e 5b 2c ef 3e 1f 18 0f 3e
       0.0975855 0.19004135 0.46713528 0.13974045
0003b0 d9 ab 44 3e 04 d0 4a be d9 db bb 3e 45 76 0b 3e
       0.1920618 -0.19805914 0.36691168 0.13619335
0003c0 02 86 36 be 00 a1 a4 be ea fb 41 3f 16 e1 9d 3d
       -0.17824557 -0.32154083 0.75775015 0.07708947
0003d0 d4 20 6d bd ca cb 04 bb 3d 08 63 3f ab c3 b6 be
       -0.057892635 -0.002026307 0.88684446 -0.35696158
0003e0 e7 f1 b9 41 80 2b b9 41 f6 95 b9 41 05 4e ba 41
       23.243116 23.14624 23.198223 23.288095
0003f0 1d 3a cb 3f 40 92 4d be 86 14 0c bd 31 3c 10 bf
       1.587711 -0.20075321 -0.03419926 -0.56341845

conv.0.bias f4 [32]
000000 95 49 0e c0 2d 43 0e c0 af 88 28 c0 ee 78 de bf
       -2.223241 -2.22285 -2.6333425 -1.7380655
000010 93 28 ad bf ab b7 9a bf d8 bc e0 bf 63 9f cb bf
       -1.3528007 -1.2087301 -1.755763 -1.5908016
000020 ac 61 b7 41 ea af 56 3e d4 15 1d c0 5d 34 50 c0
       22.922691 0.20965543 -2.4544573 -3.253196
000030 dd a6 2a c0 b9 7d 41 bf c6 77 b4 41 6d da b2 41
       -2.6664345 -0.7558246 22.558483 22.356653
000040 6f 0d ad 41 28 09 e0 bf 8d e5 f8 bf a9 f6 dd bf
       21.63156 -1.7502794 -1.9445053 -1.73409
000050 c4 f3 2f bd e6 6e 49 c0 55 f9 2f c0 87 4e e5 bf
       -0.042957082 -3.1473937 -2.749593 -1.791459
000060 c7 d6 5a bf b9 de b3 41 9f 20 17 c0 c2 cf 84 3f
       -0.85483974 22.483751 -2.361366 1.0375903
000070 70 96 b8 be 01 8b 5d c0 6d 3a 2e c0 a6 35 af be
       -0.36052275 -3.4616091 -2.722316 -0.34220618

conv.2.weight f4 [64, 32, 2, 2]
000000 c9 94 07 be 9c ce 1f 3f b0 2a b1 bd 3a 9f 85 3f
       -0.13240351 0.62424636 -0.0865072 1.0439217
000010 51 7c 1b c0 86 20 78 3f a6 86 36 3e 61 43 f7 bf
       -2.4294627 0.96924627 0.17824802 -1.9317437
000020 59 27 f2 3e 78 b2 ad 3f 66 b4 8f bf f0 3c a8 3f
       0.47295645 1.3570089 -1.1226928 1.3143597
000030 63 0b 31 3f 3b cb 14 40 36 3b 88 bf 2d 51 14 3f
       0.69158 2.3249042 -1.064307 0.57936364
000040 8d 53 9c 3e be 3d 71 be 6f 7d 42 bf 12 c8 46 bf
       0.30532494 -0.23558709 -0.75972646 -0.77649033
000050 ee 05 f2 be 48 ac 32 3f a1 86 bc 3e f8 a0 b7 3f
       -0.4727015 0.6979413 0.36821464 1.4345999
000060 d2 79 a2 3e 29 c4 d5 3e 4c 31 9c bf b3 69 2f bf
       0.31733567 0.4175122 -1.2202544 -0.6852066
000070 08 1d 97 be 1c e8 88 c0 cd d8 72 bf 01 27 3e c0
       -0.29514337 -4.2783337 -0.9486206 -2.9711306
000080 31 fa 22 be b4 99 a2 3c b6 46 3d 3d f7 00 eb be
       -0.15915753 0.019848682 0.046210013 -0.45899174
000090 53 6c fc 3e 2c 10 8f bf 01 56 a8 3f 97 86 7b 3e
       0.49301395 -1.117681 1.3151246 0.2456306
0000a0 43 35 50 3f 06 6b 72 be d4 8a 5b c0 f1 74 90 bf
       0.8133127 -0.23673639 -3.4303484 -1.1285688
0000b0 92 33 3c c0 4c bb 16 40 a0 4f 83 bf 3a 8f c4 bc
       -2.9406476 2.3551817 -1.0258675 -0.023994077
0000c0 38 f2 24 be 45 31 1c 3f a9 70 66 3b c0 4e d0 bf
       -0.16108024 0.6101268 0.0035162366 -1.6274033
0000d0 e6 40 b9 bf bb e8 d8 bf 8a 04 86 bf a1 4c c6 bd
       -1.447293 -1.6946024 -1.0470135 -0.096825846
0000e0 96 bf bd be 9e ed 11 bf e2 43 26 be 4f 0d 68 39
       -0.3706023 -0.570032 -0.16236833 0.00022130202
0000f0 c6 ab 8d be 5e c0 88 bc a3 29 26 3d d6 34 2f 3b
       -0.27670115 -0.01669329 0.04056705 0.0026734374
000100 75 64 e8 be b0 90 7e be 30 6e 6c 3c 04 49 12 bf
       -0.45389143 -0.24859881 0.014430568 -0.57142663
000110 d1 fc 9c bf 34 a9 11 40 03 3d a9 bf 09 21 83 3e
       -1.2264653 2.2759523 -1.3221744 0.2561114
000120 17 d7 02 bf e4 37 d7 be 80 1b ad bf 3a 52 8f 3f
       -0.5110945 -0.4203483 -1.3524017 1.1196969
000130 6a 03 c8 bd 37 4b 73 c0 65 30 4e bf 44 96 97 bf
       -0.09766276 -3.8014657 -0.80542594 -1.1842732
000140 dd 51 04 3f ca 72 43 bf ee 38 a0 3b ce 22 d9 3c
       0.51687413 -0.7634703 0.004889599 0.026505854
000150 53 2e ba 40 08 a8 73 40 26 c0 1a 3f dd ee 8b bf
       5.818155 3.8071308 0.60449445 -1.093227
000160 fd 63 58 3f 1f d5 e4 3f 2e 35 6f 3f 7a 4d cc bf
       0.8452757 1.7877539 0.9344052 -1.5961144
000170 b8 55 fc bf e0 52 e7 3d 9e 64 f3 bf d0 a3 0b bf
       -1.9713659 0.11295104 -1.9015081 -0.54546833
000180 59 a3 39 3e fa bd 01 bf 6d db 75 3e fb 6a 1d 3f
       0.18128718 -0.50680506 0.24009486 0.61491364
000190 38 72 c0 38 a8 54 12 be 3b ff 69 be b8 ff 01 be
       9.176548e-05 -0.14290106 -0.22851269 -0.12695205
0001a0 79 20 e6 be fe 9e 00 be f3 53 21 3e a7 78 d1 3e
       -0.4494665 -0.1256065 0.1575468 0.40912363
0001b0 fe 71 ec 3f ba 75 aa bd be 12 e8 3f ca 33 80 3f
       1.8472288 -0.08323236 1.813072 1.0015805
0001c0 d7 5d b9 bf f4 66 59 3f 5c 48 0b c0 d2 4f 4c c0
       -1.4481763 0.8492272 -2.1762915 -3.1923718
0001d0 93 55 b7 3f 8e da e3 3e 92 83 c0 3f cc 21 b4 bf
       1.432299 0.44502681 1.5040152 -1.4072814
0001e0 2f 35 90 bf c9 e7 23 3f 07 b8 cd be c4 e6 bc bb
       -1.126623 0.6402555 -0.40179464 -0.005764814
0001f0 c7 75 bf bd 17 f9 fe 3e c4 7c 04 bf f6 99 3d bf
       -0.09348636 0.49799415 -0.5175288 -0.7406305
000200 ab 92 be be fa 50 33 3f 00 2b 1d 3f ba 2a 88 3f
       -0.37221274 0.70045435 0.6139374 1.0638039
000210 64 22 96 bf 6a cf 07 bf a5 b9 07 3d 89 da 64 3f
       -1.1729245 -0.53050864 0.03313603 0.8939596
000220 db 2d 4f bf 87 26 6e 3f 3e a2 18 3f 3a 76 47 3f
       -0.80929345 0.9302754 0.5962256 0.77914774
000230 de 46 93 3e 83 4e fe be 3a 2e 47 bf 57 12 26 bf
       0.28765005 -0.49669275 -0.7780491 -0.64871734
000240 f8 dd 00 3f 54 a4 d6 3e a1 98 85 3f ff a5 c2 3f
       0.503387 0.41922247 1.0437204 1.5206908
000250 22 95 c0 3e 24 f4 e1 3e cb 1b 2c 3e 5b 0b 98 3f
       0.3761378 0.44131577 0.16807477 1.1878465
000260 f2 33 4c bf 50 62 6b bf d4 7d 3b bf 03 61 2b 3f
       -0.7976676 -0.9194689 -0.73238873 0.66944903
000270 4b 5a 4b bf e9 d5 e9 3f 5f 04 2e 40 e9 dc 5b 3e
       -0.7943465 1.8268405 2.7190168 0.2147099
000280 4b 7d 21 bf e0 41 fa be 10 3d 02 bf bf 73 3a bf
       -0.63081807 -0.48878384 -0.50874424 -0.72832865
000290 c2 ab 3a 3d 4e 58 91 3f a3 97 ea be 58 23 16 3f
       0.045573957 1.1355073 -0.45818815 0.5864768
0002a0 ca d6 96 3e 03 1f 20 c0 4c d8 ba be e7 7e 53 bf
       0.29460746 -2.5018928 -0.36493146 -0.8261551
0002b0 a6 15 30 3f 24 c0 2f 40 93 e2 05 40 55 b1 0d 40
       0.6878303 2.7461023 2.091954 2.2139485
0002c0 82 1c 04 be 1f 2c 3b 3f e0 8a e9 3e b5 26 a8 3e
       -0.129015 0.731142 0.45613766 0.3284203
0002d0 18 94 d2 bf dd b5 6f be 9b 68 6c bf 2e 15 8d be
       -1.6451445 -0.23409219 -0.92347115 -0.2755522
0002e0 cf 60 f3 3e 2c c4 c5 3e 6d 66 31 bd 69 fc 10 3e
       0.47534797 0.3862623 -0.04331057 0.14158787
0002f0 06 9a 0a 3d 50 6f fc bd 05 6d a0 3a 19 32 3e be
       0.033838294 -0.12325919 0.0012239522 -0.18573798
000300 2f a8 f0 be 30 ca 0b be 29 9c e8 be bf 7a e3 be
       -0.47003314 -0.13651347 -0.4543164 -0.44429585
000310 f8 ec b4 bd cd e7 0c 40 1b fa 0e 3f 49 64 1a 3f
       -0.08834261 2.201648 0.5585038 0.60309273
000320 d9 76 2c bd f8 9e 05 40 26 aa 38 bf cf d3 9a bf
       -0.04210553 2.0878277 -0.72134626 -1.2095889
000330 95 b6 c1 3e 26 03 3d 3f fd 69 c2 be 19 d1 3e 3e
       0.37834612 0.7383293 -0.37971488 0.18634452
000340 c5 f8 9a be f9 3b 9d 3f cd 46 3b be d8 f2 6e 3c
       -0.3026792 1.2283927 -0.18288727 0.014584266
000350 61 aa 9a 3f ea a9 ad 3e 35 31 01 3e e7 b8 43 3f
       1.2083246 0.33918697 0.12616427 0.76454014
000360 4e cf 3f be 01 24 8b bf 16 5b df be 9f ff 64 40
       -0.18731424 -1.0870363 -0.4362418 3.5781019
000370 87 26 bb 3f 20 18 50 bf 6b 8e cc 3f 80 95 57 bf
       1.4621133 -0.8128681 1.5980963 -0.84212494
000380 e2 e7 0e 3e 71 87 20 3f a5 ee 48 3f 6a b3 ed be
       0.13955644 0.6270667 0.7848914 -0.46425945
000390 d5 c6 81 bf 62 12 2f bf 8e 5b 75 be aa dd 1a bf
       -1.0138804 -0.68387425 -0.23960707 -0.6049448
0003a0 f8 1c 91 3f e9 00 b3 bf 4f c2 ab be a6 48 09 3f
       1.1336966 -1.3984653 -0.33546683 0.5362648
0003b0 c2 4e c2 3d 6b f0 7d 40 94 3f 44 3e e0 b9 4d 40
       0.09487678 3.967799 0.19164878 3.21447
0003c0 5c 9a 5b 3f 12 a0 6e 3f 23 73 88 3f f0 01 87 3f
       0.8578241 0.93213 1.0660137 1.0547466
0003d0 97 12 ac 3e da f5 59 c0 5e b9 1b c0 5f b0 ab 3e
       0.33607933 -3.4056306 -2.433189 0.33532998
0003e0 f7 64 62 bf ad b9 09 3f b1 7b d1 be 44 3a 0a c0
       -0.8843531 0.53798944 -0.40914682 -2.1598063
0003f0 88 b7 7b 3f d2 27 44 3f f1 14 4a bf 48 5a c8 be
       0.9832692 0.7662326 -0.78938204 -0.3913138

conv.2.bias f4 [64]
000000 da 52 48 40 b6 b3 01 c0 03 3b 03 3e 89 25 21 be
       3.1300569 -2.0265937 0.1281548 -0.15736975
000010 ca 8a 60 40 48 3d 88 bf 52 1a 2b be 0f 04 25 be
       3.508471 -1.0643702 -0.16709259 -0.1611483
000020 0a 65 85 be 34 05 11 c0 fe c5 fd bd f5 df 24 bd
       -0.2605365 -2.2659426 -0.1239128 -0.040252645
000030 c5 11 d8 bf e0 06 f6 3f cd 99 2a c0 0b ea 88 40
       -1.6880423 1.9220848 -2.6656373 4.2785697
000040 54 47 2d be da 58 4b c0 e6 cf 58 bf b8 ab c8 bd
       -0.16921741 -3.177298 -0.8469223 -0.09798378
000050 b1 d0 6c bf 06 fd 0e c0 60 35 82 3f a6 8d 1d c0
       -0.9250594 -2.2341933 1.0172539 -2.4617705
000060 d1 e4 83 3f 77 a1 ba be cd 3d 86 be c7 e7 8e be
       1.0304204 -0.36451313 -0.26219025 -0.27911207
000070 dc cf db 3f 8d c3 63 bd b6 1e 62 be d9 5c 26 c0
       1.7172809 -0.055606414 -0.22082028 -2.599417
000080 57 6a eb be 7f 05 6b be 8b 06 b7 bf 12 ad 50 c0
       -0.45979568 -0.22951315 -1.4298872 -3.2605634
000090 76 85 00 c0 68 ba 23 bf 25 6d b5 bf 2a a3 11 bf
       -2.0081458 -0.6395631 -1.4173933 -0.56889594
0000a0 63 86 ad 3f c2 90 1e c0 ec 40 c3 3f ec 75 62 be
       1.3556637 -2.4775853 1.5254188 -0.22115296
0000b0 30 78 b1 3f 10 e8 0e 3f 3f d1 03 c0 a2 98 3d bf
       1.3864803 0.5582285 -2.0596464 -0.74061024
0000c0 e1 1b a2 bf 56 36 af 3e 0c e4 69 3f 57 79 41 bf
       -1.2664758 0.34221143 0.91363597 -0.75575775
0000d0 ae c6 ad bf fb 1c b1 bf 49 02 61 be a4 50 5d c0
       -1.3576257 -1.3836969 -0.21973528 -3.458047
0000e0 b0 58 ec 3f d3 37 88 c0 ef 33 e9 bf d1 5d f5 3f
       1.8464565 -4.2568145 -1.8218974 1.9169255
0000f0 b2 d2 77 bf 95 d5 b2 3c 1e b1 a2 bf 05 aa 93 bf
       -0.9680587 0.02183036 -1.2710302 -1.1536261

linear.weight f4 [256, 576]
000000 87 e5 4b bf a2 4a 81 bd 93 dc 08 bf 1d 9e 39 bf
       -0.79647106 -0.06313063 -0.5346157 -0.72506887
000010 7f fe e8 be d9 83 e6 3e e5 53 34 bf 41 5a 9b 3e
       -0.45506665 0.45022467 -0.7044051 0.30342296
000020 b8 9e 20 3f a2 57 8c bf e4 5a 83 be a8 df c6 3f
       0.62742186 -1.0964243 -0.25655282 1.5537004
000030 dc 15 8d bf 73 ec 91 3f 53 ed 1e 3f 39 37 ae 3f
       -1.1022296 1.1400284 0.6208088 1.3610603
000040 ba f1 c1 3e 34 5e 3c 3f bb ee 95 bf 0e 07 d4 3e
       0.37879735 0.7358124 -1.171348 0.41411632
000050 da 14 2e 3f ca 61 ab 3f 8e 58 3e 3d e8 f0 a9 3e
       0.68000567 1.3389218 0.04647117 0.3319161
000060 a9 87 79 40 fd c2 1d c0 dc d1 0f 40 ca 48 4d 3d
       3.898905 -2.4650261 2.2471838 0.050118245
000070 82 7d 0f be 64 86 95 3d c9 e7 fa 3c 67 bf 79 3d
       -0.14012721 0.073010236 0.030628102 0.06097355
000080 95 51 2c 3e 6c 87 90 3c 5a e6 a9 3b 46 c9 2a 3d
       0.16827996 0.0176427 0.0051849307 0.041695856
000090 60 3b ae bd 68 f3 6e be eb a6 a3 3f 80 4b a2 3f
       -0.08507419 -0.2333504 1.2785314 1.2679291
0000a0 8d 69 c4 bf b0 e7 79 bc e4 35 5c bf f5 78 ca bf
       -1.5344712 -0.0152529925 -0.8601973 -1.5818163
0000b0 0f 4d 5c bf ac d4 ca 3f 8f b3 c7 3f 3c de fc 3e
       -0.8605508 1.5846152 1.5601672 0.493883
0000c0 3b 4a 9f 3f 25 a6 1b 3f 68 3d 98 be 8a e0 a3 bf
       1.2444528 0.6080039 -0.2973435 -1.2802899
0000d0 dd ef d8 be a6 99 b4 bd f6 35 1d 3d db e0 9d 3d
       -0.423705 -0.088183686 0.03838154 0.077089034
0000e0 22 da 05 3d 4d 8a bc 3d 8a fd 27 bb 89 14 a5 bd
       0.03267873 0.09206066 -0.0025633299 -0.080605574
0000f0 43 7a c4 bc d2 04 69 bc 77 c0 8f 3b 49 da 4b 3e
       -0.02398408 -0.014222341 0.0043869573 0.19907488
000100 cd c8 34 3e 89 67 b6 be 20 df 19 bd 5a 48 15 3e
       0.17654724 -0.35625866 -0.037566304 0.14578381
000110 a7 07 6a 3d 6a 0b 62 3d e5 79 07 be 7b 59 3b be
       0.057136204 0.055186667 -0.13230093 -0.18295853
000120 9d 2f 77 bd 43 54 31 bd 67 41 6b 3d a9 91 82 3e
       -0.060348142 -0.04329325 0.05743542 0.25501755
000130 ef ed b2 3e e8 f1 33 3c 16 ac b1 bd 28 f1 12 3d
       0.34947154 0.010982968 -0.08675401 0.035874516
000140 b0 ad 6a bd dd ac 84 bf 92 0c ad 3f 39 2a 14 40
       -0.057294548 -1.0365254 1.3519461 2.315077
000150 42 34 28 bf 33 03 14 40 1f 92 7a bf d4 95 fb 3f
       -0.6570474 2.3126953 -0.97879213 1.9655099
000160 8c cc d2 3f a9 d6 dd 3f c3 96 92 3c dd ef e2 3b
       1.6468673 1.7331134 0.017894154 0.0069255666
000170 63 b4 22 3d f8 82 51 bd 56 f0 c5 bc 0a 1a 21 bc
       0.03972281 -0.051150292 -0.024162453 -0.009832868
000180 12 7f b5 bd ec a8 a0 3c fc ec 24 3e d1 23 9e 3f
       -0.08862127 0.019611798 0.16106027 1.235468
000190 c5 0b b8 3e 86 7c d3 3e d7 0b 33 3f 93 1e a6 bf
       0.3594648 0.4130594 0.6993994 -1.297808
0001a0 1c 2d 5e bf 7e 86 fb 3d ec 1c 24 bf c0 56 03 40
       -0.8678758 0.12281512 -0.6410663 2.0521698
0001b0 b9 d0 89 3f a7 c8 2a 3f 9d 73 47 40 e5 1e e7 be
       1.0766822 0.6671242 3.1164315 -0.45140758
0001c0 7d 1b bb 3f cf c5 57 3e c4 84 10 40 38 e6 1f 3f
       1.4617764 0.21071552 2.2581034 0.6246066
0001d0 3f 0f 38 40 53 87 21 bf e9 c4 29 c0 6f 10 19 c0
       2.8759305 -0.63097113 -2.6526434 -2.391628
0001e0 6f 22 39 bf c9 c5 2f bf 4c 63 a2 bf 7f 58 5d bf
       -0.72318166 -0.6866117 -1.2686553 -0.8646316
0001f0 de fb f2 be 99 bc f6 be 32 61 ac bf d6 40 03 3f
       -0.47457784 -0.48190764 -1.3467162 0.51270807
000200 dc ee ab 3f 91 22 1f 3d 86 55 3e bf c9 29 ad be
       1.3432269 0.038851324 -0.7434925 -0.33820942
000210 25 d3 53 bf 77 4e 1d 3e 3a cb f9 bf f4 6f 85 bf
       -0.82744056 0.15361963 -1.9515145 -1.042479
000220 4d 11 e0 3f 5c de f4 3b 53 2f 81 3f 04 8a 04 c0
       1.750528 0.0074727964 1.0092567 -2.0709238
000230 bb cb 26 c0 68 46 2c 40 e9 a4 d2 3d 6b a9 c7 3e
       -2.6061847 2.6917973 0.1028536 0.38996443
000240 2a 59 0a 3b 6a ac 6c bc 04 13 83 3c 59 0a 8b bc
       0.0021110275 -0.014445404 0.016000278 -0.016972708
000250 fc eb 79 bc 1e 27 f0 3c 2e 5c 2a 3c a2 28 38 3d
       -0.015254017 0.029315528 0.010397954 0.044960625
000260 de 0b eb bc 33 47 cd 3f 0f 30 08 40 94 74 9b 3f
       -0.028692182 1.6037353 2.1279333 1.2144952
000270 47 13 04 bf a6 6d aa 3f 8e f4 e8 bd 7b 94 d9 3e
       -0.51591915 1.3314712 -0.1137477 0.42496094
000280 12 64 51 bd 9d eb ad 3e d3 5b 74 be bf c9 de bf
       -0.051120825 0.3396882 -0.23863153 -1.7405318
000290 da 71 d1 3f 8a e4 4a bf 3f 0f 84 be 4a 73 cf 3f
       1.636287 -0.7925497 -0.25792882 1.6207058
0002a0 44 25 ab be 79 91 b6 bf fa 92 23 bf ee 68 37 3d
       -0.3342687 -1.4263145 -0.63896143 0.044777803
0002b0 f1 66 55 3d 0c e6 5e bc 30 8e 61 3b 4f 17 06 bd
       0.052100126 -0.013604652 0.0034417026 -0.032737073
0002c0 b3 bf 04 bd c1 09 c6 3c 3e b6 bc bb 4c ce 41 3d
       -0.03240938 0.024174573 -0.0057590296 0.04731588
0002d0 4d 69 b6 be 75 2b 27 be c3 f8 af 3e 1d fe 33 c0
       -0.35627213 -0.16325171 0.34369478 -2.8123848
0002e0 28 d9 8d 3f 73 53 2b 3f 4d b5 78 c0 1c 1f 2d c0
       1.1081896 0.6692421 -3.8860657 -2.7050238
0002f0 c9 08 38 be 26 5e 9b 3f 2f 4e a9 3e af ca f2 be
       -0.17972101 1.2138107 0.33067462 -0.4742026
000300 28 c3 9d 3f 3d 14 3c 40 38 72 db bf 80 00 3b c0
       1.2325182 2.9387352 -1.7144232 -2.9219055
000310 8e 1e f4 bf 4a 7c 44 bf 8a ee ff 3e 20 e2 ab 3f
       -1.9071825 -0.7675215 0.49986678 1.3428383
000320 89 49 e1 3e b4 de fb 3e c2 c5 93 3f d2 e4 0e 40
       0.44001415 0.49193347 1.1544726 2.232716
000330 e3 39 cd 3f f6 1b 2e 3f d0 55 d3 bf 5a d1 6e bf
       1.6033291 0.68011415 -1.6510563 -0.93288195
000340 88 6c ee 3f 47 5b 87 3b dd fe 21 bf 51 69 c5 3f
       1.8626871 0.004130754 -0.63279516 1.5422765
000350 d2 3b 00 40 d5 fb c8 bf 34 00 43 3e e6 87 f8 3f
       2.0036511 -1.5701853 0.19043046 1.9416473
000360 5d 1d af bf 20 5a d8 3f 51 16 f7 be b5 98 8d c0
       -1.3680836 1.6902504 -0.48259214 -4.424891
000370 c7 cd a1 be 3c 5f 60 3f 5d 74 a3 c0 00 32 8a bf
       -0.31602308 0.87645316 -5.1079545 -1.0796509
000380 94 41 21 be 0c e4 0f bf fe 0c b3 3d 5e f1 8a bf
       -0.15747672 -0.56207347 0.087427124 -1.085491
000390 3d 6a 2d be 38 ec 5f bf bb 6e b7 3e b4 c5 3d bf
       -0.16935058 -0.87469816 0.35826668 -0.74129796
0003a0 94 dd 7c bf 24 b3 e0 be a4 4a 8f 3d cd 81 05 3e
       -0.987756 -0.43886673 0.069966584 0.13037796
0003b0 0e 1b ad 3c f6 16 ba bd ba e4 fc bd 86 53 0b be
       0.021131065 -0.09086411 -0.12348314 -0.1360608
0003c0 9d 9d f6 bd 0f e1 a9 bd 96 b9 a5 bd 2c 36 eb bb
       -0.12041781 -0.0829488 -0.08092038 -0.0071780887
0003d0 5b c6 68 bd 82 72 fe 3d 7a fa 51 3d 4a 5b 57 3d
       -0.05682979 0.124241844 0.051264264 0.052577294
0003e0 76 e4 37 bd ce b2 1b 3d 36 69 37 3a 08 2d b9 bd
       -0.04489561 0.03801232 0.00069965736 -0.09041792
0003f0 1f 4b 0c be d3 41 39 3f ad 2f 30 bf 6e 98 2d bf
       -0.13700531 0.72366065 -0.6882275 -0.67810714

linear.bias f4 [256]
000000 72 6f 63 bf 33 22 8e bd 34 30 84 bd 23 8e 4c bd
       -0.8884193 -0.06940117 -0.064545065 -0.04994024
000010 95 75 a6 be 0e 7a eb bc 48 9a ee 3c 46 3e 94 bd
       -0.32511583 -0.028744724 0.029126301 -0.0723844
000020 f7 36 b7 bc db 9b 4f bd d6 0b 05 be 50 51 8d 3e
       -0.022365076 -0.050685745 -0.12992796 0.276011
000030 6f a6 b5 bd a0 0c d5 bd 59 1f 47 bd 2b 67 12 bd
       -0.08869635 -0.10402799 -0.04861388 -0.03574292
000040 3e 79 f7 bb a9 70 14 3c 0c af 63 3c 07 f6 07 be
       -0.007552295 0.009060063 0.013896715 -0.13277446
000050 53 7a 5c 3c af 69 f4 bc ae 05 8c bd e9 3c 19 be
       0.013456899 -0.02983555 -0.06837021 -0.14964642
000060 0d 51 5f bd 2b 9c a6 3d d1 d5 bd bd 4a 65 51 bc
       -0.054520655 0.081352554 -0.09269298 -0.012780497
000070 0f 2a 07 c0 47 d4 cb bc d6 7f 46 3c 31 40 b6 bc
       -2.111942 -0.024881495 0.012115439 -0.022247406
000080 dc f2 66 bc 4b cb 9e bd 8c bc 36 be ad 80 3d bd
       -0.014095988 -0.07753619 -0.17845362 -0.046265293
000090 93 7b 3c be a0 48 aa bd 45 62 29 bd d4 d6 1f 3e
       -0.18406515 -0.08314633 -0.041353483 0.15609294
0000a0 19 dc f1 41 a9 f3 55 39 9f 3c 13 bd c1 2a a0 bd
       30.23247 0.00020404033 -0.035946485 -0.07820655
0000b0 5b 1b ae 3d 45 96 fa bc 01 6a 37 bd f2 9a 08 be
       0.085013114 -0.030589232 -0.044778828 -0.13340357
0000c0 b6 1f 23 be d0 41 2d be e2 25 9d 3c ce 92 30 bd
       -0.15930066 -0.16919637 0.019183103 -0.043108754
0000d0 a1 5f cc bd 55 96 73 bd 8d c4 ae 3e 25 bc 49 be
       -0.09979177 -0.05946954 0.3413433 -0.19700678
0000e0 8a 84 2e bc 86 96 01 3c 87 01 b6 3e 4c 52 02 bd
       -0.010651717 0.007909423 0.3554804 -0.031816766
0000f0 ce 03 db bd b7 7b 7c bc c9 ef 3a bd 40 c7 cc bc
       -0.10694085 -0.015410355 -0.045638833 -0.024997354
000100 bf a5 5d 3c 34 ce 5e bc 9a 35 d2 bc 77 d1 89 be
       0.0135282865 -0.013598967 -0.025660325 -0.26917621
000110 2b 49 ce bd 35 90 4b bc 7e 68 64 3e 0b 84 5a bd
       -0.100725494 -0.012424518 0.22305486 -0.053348582
000120 88 ae 5b bd 1d 73 50 bd d6 31 a7 bd bc 2b b8 bd
       -0.053633243 -0.05089103 -0.08163802 -0.08992717
000130 e4 1e 34 3d d9 7d fc bc ad be b2 bd d5 ee ac 3e
       0.043974772 -0.030821728 -0.08727775 0.33775964
000140 0a c9 20 40 1c 4b 81 3d 27 41 a2 bd d7 e7 8e 3e
       2.5122705 0.06313154 -0.07922583 0.27911255
000150 3d 39 0d be 2b be a3 3c 83 d4 12 be 7b 91 3b 3c
       -0.13791366 0.01998814 -0.1433888 0.011448259
000160 96 6b a9 bd 8a a5 d4 bd 60 c9 25 bd 35 20 00 bd
       -0.082724735 -0.103831366 -0.04047525 -0.031280715
000170 5a 7c 24 bd 1d 85 54 bd ba 66 9f bc f9 a1 35 bd
       -0.040157653 -0.05188476 -0.019458164 -0.044343922
000180 83 41 01 bc de 41 a5 bc 75 8f aa 3c 73 7f 7b 3d
       -0.007889154 -0.02017301 0.020820359 0.061400842
000190 d1 b9 ee bc 1c 9a 96 bd b8 a9 a3 3c 66 d0 ff bc
       -0.029141339 -0.07353613 0.01997839 -0.031227302
0001a0 88 01 5a bd 86 f5 24 3d 8f f7 dc bd f1 f5 1e be
       -0.053224117 0.040273212 -0.107894056 -0.15523507
0001b0 f6 86 19 bd 15 48 04 bd f5 ce 2c be 45 a5 47 3d
       -0.037482224 -0.032295305 -0.16875823 0.048741598
0001c0 8b 69 cc bd cb 0c 4e bd df b6 7d be 98 85 3f 3c
       -0.09981068 -0.05030517 -0.24776791 0.011689566
0001d0 b9 3a 47 3e 9a f8 4c bd a0 0e a3 3c e9 4c cb 3d
       0.19455995 -0.050041772 0.019904435 0.09926779
0001e0 fa 34 3e bd 0f 23 25 bd a0 87 a6 be 8f 88 b4 bc
       -0.04643724 -0.040316638 -0.3252535 -0.022037772
0001f0 6c de 8f bd 2e b0 ed bc 2d 95 c1 be e9 1f b1 bd
       -0.070248455 -0.029014673 -0.37809125 -0.086486645
000200 29 36 98 bc 3e db e3 3d 50 b3 e5 3c 1f 16 f8 bd
       -0.018580513 0.111258015 0.028039604 -0.12113594
000210 82 5d ae bd 0e 9a d0 bd 3c a2 04 3b ab 91 03 be
       -0.08513929 -0.101856336 0.00202383 -0.12848537
000220 c1 14 44 be e6 0d 70 bd d6 c5 90 bc c0 1c e0 ba
       -0.19148542 -0.058607005 -0.01767246 -0.0017098412
000230 b7 5f c8 bc b3 c1 39 3e af fd 5a bb e5 79 ec bb
       -0.024459703 0.18140297 -0.0033415367 -0.0072166794
000240 c3 aa 7b be b3 2a 4a bd a1 88 cb be 8b c5 e5 bd
       -0.24576859 -0.049357127 -0.39752677 -0.11219319
000250 f3 d6 0d bc 31 3f cb bb fd 8e 3b bd 9d 30 32 3a
       -0.008657205 -0.0062026014 -0.04579066 0.0006797405
000260 10 2f 1d bd a3 6b 83 bc bf bf a0 bd 4b 03 2a bd
       -0.03837496 -0.016042536 -0.07849073 -0.041507047
000270 99 56 21 bc 61 37 c0 b9 13 66 17 bd cc b5 75 3b
       -0.009847307 -0.00036662354 -0.03696258 0.0037492393
000280 28 fd 98 bd d3 10 26 bd a7 28 98 bc ab 9a 2d bd
       -0.07470161 -0.04054339 -0.018574072 -0.04238383
000290 9f ea 04 bd 74 b0 88 3e ba 26 2c be 55 3f 27 be
       -0.032450315 0.26697123 -0.16811648 -0.16332753
0002a0 7a d2 bf bb ab 01 00 3e 80 59 12 bf 29 12 ac bc
       -0.005853948 0.12500636 -0.57167816 -0.021004753
0002b0 00 eb e3 38 39 49 eb bc 48 5e 9d be 94 e0 78 bd
       0.00010867976 -0.028721439 -0.30735993 -0.06076105
0002c0 65 4d 36 be 57 1d ec 3a 36 bd fe bc f1 00 80 bc
       -0.17802961 0.0018014115 -0.031096082 -0.015625449
0002d0 4e 98 d0 bc ca 6e 4a bc fd 37 e4 bd 13 25 13 bd
       -0.02546325 -0.012355516 -0.111434914 -0.03592403
0002e0 36 bf 6d be f0 bc b5 bb 3f fb ba 3c d9 a8 19 bd
       -0.23217472 -0.0055462047 0.022824882 -0.03751454
0002f0 b1 4b 3e be 09 23 1d bd ef 76 2c bd 7b 41 cc bc
       -0.18583561 -0.03836349 -0.04210561 -0.024933567
000300 63 d8 54 be 24 8c 34 bd 99 7a 8f bd 93 f3 99 bc
       -0.2078567 -0.04407896 -0.070058055 -0.018792903
000310 1a 85 99 3e 2d 73 06 be 6e 8c 77 bc c4 0c 7f be
       0.2998436 -0.13129874 -0.015109165 -0.24907213
000320 16 44 f1 bc 90 44 42 bd a1 ad b8 bd 46 4b 24 bd
       -0.029451411 -0.047428668 -0.09017492 -0.04011085
000330 cc 85 41 bd 0d 81 2c be 9a 3e 56 bd 6f ca 56 be
       -0.04724674 -0.16846104 -0.052305795 -0.2097566
000340 8f 89 10 be 94 71 b3 bd 0d 80 1a 3d d9 ef 5c bd
       -0.14114974 -0.08761898 0.037719775 -0.053939674
000350 80 ab 95 3d bd 32 4f bd 92 21 71 be 7c 91 18 bd
       0.07308102 -0.050585497 -0.23547962 -0.03724812
000360 9b 84 c5 bd 43 ae 03 3d b6 91 22 bc e5 74 23 3e
       -0.09644433 0.03214861 -0.0099224355 0.1596256
000370 a2 4c 9c bd eb 0c e9 bb a0 06 81 bc f3 23 59 bc
       -0.07631804 -0.0071121356 -0.01575023 -0.0132532
000380 ce a2 47 3a 0b c8 60 be 60 23 93 3d 35 04 75 be
       0.00076155073 -0.2195131 0.071844816 -0.23927386
000390 0b 47 5d bd ee 38 0b be f9 31 be 3b 8d f4 b8 be
       -0.05402283 -0.13595936 0.005804297 -0.36124077
0003a0 38 cf f6 bc 04 15 41 bd 5a 3f 4e be 95 7e 0f bd
       -0.030128106 -0.047139183 -0.20141354 -0.035032827
0003b0 d8 20 37 bd d1 0d e9 bd a4 11 0c be 45 7e 18 3a
       -0.044709057 -0.113795884 -0.13678604 0.00058171555
0003c0 35 0d 26 be 0a 21 25 be ab 50 1a bd 19 94 38 bd
       -0.16215976 -0.16125885 -0.037674587 -0.045063112
0003d0 97 3a 24 be 16 32 5f bd 35 e9 e7 bd 69 6f cf 3b
       -0.16037975 -0.054491125 -0.113237776 0.00633042
0003e0 23 0e a9 bc 88 76 c4 bc d1 25 4a bd e8 ad 09 be
       -0.020636624 -0.023982301 -0.04935247 -0.13445246
0003f0 70 8e fd ba 8d 64 e4 bd b9 3a 5a bd e4 7a 8e ba
       -0.0019344818 -0.11151991 -0.05327866 -0.0010870364
