previous_models/Vec2.pth (torch, 631812 bytes, 10 tensors)

conv.0.weight f4 [32, 7, 2, 2]
000000 13 b0 9e bf d0 b1 a2 bd b1 bd 8d be 1a 9b 82 3f
       -1.2397484 -0.07944071 -0.27683786 1.0203583
000010 2d d4 40 bf 8f e8 94 3f ae dc c7 bf ba 15 5c 3e
       -0.75323755 1.1633471 -1.5614221 0.21492663
000020 c8 f2 fc 3e b6 ee 94 be 71 9a a7 bf 70 8b 44 c0
       0.49403977 -0.29088372 -1.3094007 -3.0710106
000030 11 e9 06 3f 30 23 35 be 2a 61 d5 bf 82 57 16 3f
       0.5269938 -0.17689204 -1.6670277 0.58727276
000040 17 3f 3e bf c5 ca c2 3e 2a 7e 27 c0 66 16 52 be
       -0.7431502 0.38045326 -2.6170754 -0.20516357
000050 4f 98 12 3e e8 51 c2 be ce b1 93 bf c6 90 79 bf
       0.14315914 -0.37953115 -1.1538637 -0.9748653
000060 37 0d 9c be d2 22 fa bd 04 03 4d bd 7e bd ba bd
       -0.30478832 -0.12213673 -0.050051704 -0.09118174
000070 1f 8c 2c be 56 6d 67 40 a5 22 37 bf 2b d3 d9 bc
       -0.16850327 3.6160483 -0.7153724 -0.02658995
000080 06 f9 99 3f 67 c9 be bd fb a7 6e c0 26 f4 a7 3f
       1.2029121 -0.09315758 -3.7290027 1.3121383
000090 db d4 73 3e 2f 57 f1 be eb 9e 4f c0 47 58 b9 bd
       0.23811667 -0.47136828 -3.2440746 -0.09050041
0000a0 7d 16 06 3e c2 7d 11 40 8d 37 65 c0 1a c2 01 3f
       0.13094516 2.2733006 -3.5815156 0.506868
0000b0 e7 39 db be 14 26 d0 3f 08 58 6b c0 21 d4 1c 3f
       -0.42817613 1.626162 -3.677248 0.61261183
0000c0 da 90 34 3f f9 36 cd 3f 33 8d 57 bd 73 2f bc 3f
       0.70533526 1.6032401 -0.052624892 1.470198
0000d0 9e c9 b3 3d e0 5a 55 3e 51 d0 b2 3e ba 94 c6 3e
       0.0877869 0.20835447 0.34924558 0.38785344
0000e0 c8 35 68 bd 75 29 0e 3e 34 88 94 bd 8f a9 29 3e
       -0.056691915 0.13883002 -0.07252541 0.16568588
0000f0 5b 3b 17 bd 25 91 01 3e c8 a6 b3 3d 20 9d 00 3f
       -0.03692184 0.12653024 0.087720454 0.50239754
000100 8e 17 d2 3d ae 7a 1c bf 99 4b f0 3d 47 fa f2 3d
       0.10258399 -0.61124694 0.11733169 0.11864143
000110 a3 0d 08 3d 9d f6 4e bf 4a f8 68 3e 85 c1 37 3d
       0.03321613 -0.8084505 0.22750965 0.04486229
000120 6e cf 50 3e f7 10 01 bf b3 6d 06 bd a3 05 61 3e
       0.20391628 -0.5041651 -0.03281946 0.21974806
000130 ec aa d2 3d 88 47 12 3e 0b 6c 0d 3f d0 ba 1b 3f
       0.10286507 0.142851 0.55242985 0.6083193
000140 a8 cc 70 3d ce af b9 3d 89 0f 91 bb 9e 5b 1b 3d
       0.058788925 0.09066735 -0.0044269008 0.03792917
000150 c0 90 10 c0 6d 07 44 3f e3 0e 3f be 29 7f dd bf
       -2.2588348 0.7657383 -0.18658023 -1.7304431
000160 5b 50 6e bf bc f1 43 3f a5 32 e1 be b7 31 94 3f
       -0.9309136 0.7654073 -0.4398395 1.1577672
000170 72 4b 29 c0 ff 75 de 3e 4b 3c 1b bf 39 00 97 3f
       -2.6452298 0.434494 -0.60638875 1.1796943
000180 7f ac 21 3e 63 b0 0b 3e 91 68 35 bf bf 48 c6 3f
       0.15788458 0.13641505 -0.7086268 1.549095
000190 fe 87 a9 be 88 e4 9b 3e be 33 d2 bd 5c 8c ad 3f
       -0.33111566 0.30447793 -0.10263775 1.3558459
0001a0 21 d1 92 bf b6 ef 56 bf 5a 11 b2 bf e9 42 8b 3e
       -1.1470071 -0.8395952 -1.3911545 0.27199486
0001b0 b7 8f fe 3e 7b f6 0f 3f 6e a3 8e 3e 39 44 fa 3e
       0.4971902 0.56235474 0.27859062 0.48880175
0001c0 91 34 ce be 44 89 c8 3e dc 84 8e 3f d0 76 81 bd
       -0.4027448 0.39167225 1.1134295 -0.0632149
0001d0 1b d9 ab be 65 a6 96 bd d0 34 0e bf ca 30 09 3f
       -0.33564076 -0.07355956 -0.55549335 0.5359007
0001e0 b1 ff 7c 3e 9b a1 1a 40 ff 6a 8c 40 17 44 54 3c
       0.24706914 2.4161136 4.388061 0.012955687
0001f0 ce f9 45 3f cf 71 10 40 93 b3 dd 3f 48 63 34 3e
       0.77334297 2.2569463 1.7320427 0.17615998
000200 52 8d 13 3f 1b d5 21 3f 1f b9 cc 3e 1b 98 09 3f
       0.5763751 0.632158 0.39984986 0.5374772
000210 6c 50 8b 3f bb dc 72 3f f5 ca 36 40 41 33 ee 3e
       1.0883918 0.9486806 2.8561375 0.4652348
000220 6a 3c d2 bd 48 37 03 3c f9 45 2e 3e af dd 10 be
       -0.10265429 0.008008786 0.1701888 -0.14147066
000230 24 af 78 40 95 03 e8 be aa 7b 3a 3e 5f 48 29 bf
       3.8856897 -0.45315233 0.18211237 -0.66126055
000240 5b f2 70 be 99 5f c6 bd 6d c1 2b be a8 28 5b c0
       -0.23529951 -0.096862026 -0.16773005 -3.4243565
000250 2d 2d 36 be 2e c8 01 3f 25 c9 a8 3e 8f db 5f c0
       -0.1779067 0.50696075 0.3296596 -3.4977758
000260 29 ff 0e 3f 93 a1 c5 bd 10 d9 ed bc b7 35 3c c0
       0.55858094 -0.096499585 -0.029034168 -2.9407785
000270 2b cf c7 bd f7 0f 8d be d4 28 a5 3f ec db 4b c0
       -0.09756311 -0.27551243 1.2903085 -3.185298
000280 f3 ef f0 3f bf d9 09 3f 7c 5c a9 3f ec f1 2c 3e
       1.8823227 0.5384788 1.3231349 0.16889161
000290 7c 17 80 3d f1 05 08 3e e6 16 83 3e 79 07 2c 3e
       0.06254479 0.13283516 0.25603408 0.16799726
0002a0 e5 bc 20 c0 6d f1 1a bf 84 aa 22 3d 08 97 13 bf
       -2.5115292 -0.60524637 0.039713398 -0.5765233
0002b0 bf b9 88 3f e5 3a b3 bf 8c d3 27 c0 56 68 eb 3e
       1.0681685 -1.4002348 -2.6222868 0.4597804
0002c0 81 48 65 bf 0e f9 a9 bf a0 9c 03 40 06 3c 98 bf
       -0.8956376 -1.327913 2.0564346 -1.1893318
0002d0 87 3b fe bf 00 cf 1e be ea 18 12 3f ea 7c d1 bf
       -1.9861916 -0.15508652 0.57069266 -1.6366246
0002e0 34 5a bd 3e ac 87 b0 3e ea 69 06 c0 4d 62 c3 bf
       0.36982882 0.3447851 -2.1002145 -1.5264374
0002f0 e2 84 2c c0 9d 29 30 bf e9 19 07 bf dc 4b 84 bd
       -2.6956105 -0.68813497 -0.5277391 -0.064597815
000300 53 f4 89 3e 3d 4b 2a bd 91 0e 8e 3c 04 6e a2 3e
       0.26944217 -0.04157566 0.01734093 0.3172456
000310 7d 19 08 c0 25 df 3d c0 64 95 df be e7 2b 74 3e
       -2.1265557 -2.9667447 -0.43668664 0.23844872
000320 55 58 02 3f 86 68 9b be 56 9a 84 3f bf b3 cb bf
       0.50916034 -0.30353183 1.03596 -1.5914229
000330 e2 55 1c 3f 9f 07 b4 be 35 13 c4 3f 12 3c 92 3f
       0.61068547 -0.35162064 1.5318362 1.1424582
000340 03 a4 ae bf f5 ac fd 3d 55 5f b7 3f 55 65 e7 3f
       -1.3643802 0.123865046 1.4325968 1.8077799
000350 1f d7 4f 3f 01 40 3c bf 99 46 1c 40 04 55 93 3f
       0.81187624 -0.7353516 2.441809 1.151032
000360 bf 33 ff bf 9f ff c8 3e d0 c3 7d c0 c0 a3 5b bf
       -1.9937667 0.39257523 -3.9650764 -0.8579674
000370 b8 f3 02 3f 7a c9 d3 3e b6 a8 9b 3e 9a d7 37 3e
       0.51153135 0.41364652 0.30402154 0.17953339
000380 c4 75 b3 bd 05 46 02 3f 23 97 d4 3f d4 9c 97 3e
       -0.087626964 0.5088809 1.6608623 0.29611838
000390 55 68 a0 3e cc cd 83 3f 2f 50 06 3f 3c 03 7d 3e
       0.313296 1.0297179 0.524661 0.24708265
0003a0 0a 90 d9 3e 70 14 b1 3f 36 e9 e7 3f 1f 8d af 3f
       0.42492706 1.3834362 1.8118045 1.3714942
0003b0 53 6a a3 3e cb 72 be 3f 7d a5 96 3f af 2e 6a 3e
       0.31917056 1.4878782 1.1769253 0.22869371
0003c0 28 1e 9b 3f 6e f4 a1 3f 2a 57 41 3e 9c 53 70 3f
       1.2118578 1.2652719 0.18880907 0.9387758
0003d0 44 86 21 3f 84 b9 63 3f 67 6a a5 3f 6a f0 d4 3f
       0.630955 0.8895495 1.2923096 1.6635869
0003e0 ce df ec be e8 f4 10 bf e6 5b 30 bf 47 11 1d bf
       -0.462645 -0.566237 -0.68890226 -0.6135449
0003f0 a2 80 3c 3e 86 50 47 3d a8 8d 84 be 89 18 2c be
       0.18408445 0.048660778 -0.25889325 -0.16806234

conv.0.bias f4 [32]
000000 e0 44 f9 bf fd 13 9e c0 15 cb c0 bf a8 4d 48 c0
       -1.9474144 -4.93994 -1.5061976 -3.1297398
000010 f7 0d 87 bf d2 b3 95 c0 d3 33 6e c0 13 a1 b2 c0
       -1.0551137 -4.6782007 -3.721913 -5.5821624
000020 fc 6d f1 bf ee ce db 3f 11 d5 a2 c0 26 d6 51 c0
       -1.886169 1.7172525 -5.088509 -3.2786956
000030 a5 b9 68 c0 05 94 7e 3f 2b 50 3a c0 d8 b2 6e bf
       -3.6363308 0.9944461 -2.911143 -0.93241644
000040 62 86 3c 3f fc 21 9b c0 ee c6 66 c0 bc 26 d1 be
       0.7364255 -4.8478985 -3.6058917 -0.40849864
000050 a7 20 02 c0 73 57 77 c0 4c 2e 58 c0 9e 2d 05 c0
       -2.033243 -3.8647125 -3.3778257 -2.0809093
000060 d5 24 49 bf 20 c8 4a c0 d9 2b 2c c0 3b 24 f6 bf
       -0.78571826 -3.1684647 -2.6901762 -1.9229807
000070 c5 ee 2f c0 8b c4 93 c0 10 16 0c c0 ed 35 86 3f
       -2.7489483 -4.617742 -2.1888466 1.0485207

conv.2.weight f4 [64, 32, 2, 2]
000000 8c 02 17 be d7 bb f2 3f a9 89 d6 3d b6 b1 ac be
       -0.14747065 1.8963574 0.10475475 -0.33729333
000010 2d ba a7 be c2 c8 06 c1 9e 11 19 bf 02 c6 0c c0
       -0.32759228 -8.424013 -0.59792507 -2.1995854
000020 b1 d8 b9 3f 53 7c b8 3f f5 ec 95 bf b3 9e b3 3f
       1.4519254 1.4412941 -1.1712939 1.4032806
000030 d9 97 69 3f 16 ff 9d 3f f5 c5 f6 be a3 25 31 3f
       0.91247326 1.2343471 -0.48197904 0.69198054
000040 47 80 0c c0 37 df 35 be 65 f8 36 3f 03 b5 d9 3f
       -2.1953294 -0.17760931 0.7147277 1.7008365
000050 f9 9e c8 c0 d7 a9 50 3f 01 a3 07 c0 a8 1b ab c0
       -6.269406 0.81509155 -2.119324 -5.347126
000060 63 53 08 bf 14 61 1c 40 9c bb b0 bf 20 0f d2 bf
       -0.5325224 2.4434252 -1.3807254 -1.6410866
000070 5a 3b 14 bf a0 90 b1 bf 7b 54 be bf 58 dc 17 40
       -0.57903063 -1.3872261 -1.4869531 2.3728237
000080 ff 0a 4b c0 1f 3d c2 bf 09 2a c5 bf e8 b4 f4 3f
       -3.1725461 -1.5174903 -1.5403453 1.9117708
000090 99 7d 1a c0 7b 7a 2d c0 46 e6 1e c0 b7 0f e2 bf
       -2.4139159 -2.7106006 -2.4828048 -1.7661046
0000a0 06 1f 6d c0 fb 29 69 3f 56 b1 15 be 73 37 ec bf
       -3.7050185 0.9107968 -0.1461843 -1.8454422
0000b0 95 ec df c0 3e 93 c1 bf 6a 7a 53 3f 66 61 19 3f
       -6.9976296 -1.512306 0.82608664 0.59914243
0000c0 d0 36 c2 be 64 f7 e9 3e ae 6b 68 c0 a3 fd 47 bf
       -0.37932444 0.45696557 -3.6315722 -0.78121394
0000d0 cb 6f f6 bf 54 1f 1f c0 26 e6 36 c0 43 26 12 c0
       -1.9252867 -2.486287 -2.8577971 -2.2835853
0000e0 fc 78 63 3f c9 38 ac bf a0 ad 8c 3d 84 33 bb 3f
       0.8885648 -1.345483 0.06869054 1.4625096
0000f0 d1 13 0f 3f ce cb 12 3f 1c 7f b7 be 4c fe 9b bb
       0.5588961 0.5734223 -0.35839164 -0.004760539
000100 08 ec 02 bd 58 46 ea 3c 9c b4 4a 3f 71 3b 6d 3e
       -0.03196338 0.028597996 0.7918184 0.23167206
000110 6b 1f 68 c0 33 1f a1 3e dc f5 4a 40 b2 c3 5c 3f
       -3.6269176 0.31469116 3.171256 0.8623611
000120 14 79 6d 3e d5 3d 87 3f 45 be 2a 40 4f 71 da 3f
       0.23190719 1.0565745 2.6678631 1.7065829
000130 74 a2 33 3f 47 3f 9b 3d fd e6 84 be ec fe a3 3e
       0.7016976 0.075804286 -0.2595748 0.32030427
000140 b8 ac 0a 40 d3 c0 44 bf b7 3d 97 be f7 45 d4 3f
       2.166792 -0.76856726 -0.29539272 1.6583852
000150 ce ab 45 3f 29 fc b0 bf 98 81 75 bf 7c c7 43 3f
       0.7721528 -1.3826953 -0.9590087 0.76476264
000160 9d ab 8a 3f b8 76 9a 3e 92 56 2f c0 30 29 64 c0
       1.0833622 0.301687 -2.7396588 -3.565014
000170 e9 19 77 bd 9b 79 9f bf b8 3c 0c be 06 3b 0e c0
       -0.060327444 -1.2458986 -0.13695037 -2.2223525
000180 33 d2 74 3f ac ec 1b 3f bb 2c dc 3e 4b 73 ae 3e
       0.9563324 0.6090801 0.43002877 0.34072337
000190 b0 29 6b 3f 97 fd 6e 3f f7 b5 82 3f c9 66 2c be
       0.91860485 0.933557 1.0211781 -0.16836084
0001a0 0b 49 96 3f 08 6a 06 c1 b9 aa 2d be 2f ef 11 3f
       1.1741041 -8.400887 -0.16959657 0.5700559
0001b0 0f 7f 3f be 80 4d 1a bf 21 1a 07 3e ec 6d 69 3d
       -0.18700813 -0.60274506 0.13193561 0.056989595
0001c0 b2 81 28 3e 0f 82 ec be 58 ce 32 bf 3f 63 b2 3f
       0.16455725 -0.46192977 -0.69846106 1.3936538
0001d0 f9 c3 9d 3c 63 97 ff 3f 09 eb 0a 40 98 93 3f 3f
       0.019258486 1.9968075 2.1705954 0.74834585
0001e0 8b 05 2a 3f 5b eb c6 bf bc 07 94 3e 9b 1d 90 40
       0.6641471 -1.5540575 0.2891215 4.503614
0001f0 85 48 47 be 87 b2 01 c0 e0 1f ad 3f 9a db 4d 3f
       -0.19461258 -2.0265214 1.3525352 0.8041321
000200 22 eb 8a 3f d9 a4 d4 3f cb 12 84 bf b6 2c d3 3e
       1.0853007 1.6612808 -1.0318235 0.4124505
000210 a2 c1 c9 c0 8d 10 76 c1 25 64 3f 3f 0b 6f 5c c0
       -6.304887 -15.379041 0.74762183 -3.4442775
000220 37 4f 71 3d 4d ab 00 40 ca ea c8 bf 41 2e 46 3f
       0.058913436 2.0104554 -1.5696652 0.7741433
000230 1c 45 8d 3f 74 d7 9d 3f 92 6d 02 bf 06 31 a7 3f
       1.1036716 1.2331376 -0.5094844 1.3061836
000240 44 60 0b be 4f 18 9e 3e 5f 33 e5 3e e5 ae 7b bf
       -0.13610941 0.3087792 0.44765756 -0.9831374
000250 14 18 06 c1 ca 38 c2 c0 2b 2c dc 3f d6 f2 e8 3f
       -8.380878 -6.0694323 1.7200979 1.8199108
000260 c0 9a 14 bf 5d 0a 8e 3f 3a d9 a6 bf 7b a6 b7 bf
       -0.5804863 1.1096913 -1.3035042 -1.4347681
000270 ed bd cf 3e 56 f8 4b c0 ff bd b6 bf 0b d6 f7 3f
       0.4057459 -3.1870322 -1.4276732 1.9362196
000280 6e cf e3 bf 57 17 d6 3e 41 ae 74 c0 1f 91 44 c0
       -1.7797678 0.41814682 -3.8231356 -3.0713575
000290 58 4e 57 c0 8c ef 4f c0 ed ea 1e c0 f6 5d 1c c0
       -3.3641567 -3.2489958 -2.4830887 -2.443235
0002a0 87 4c 70 c0 ed 8d 78 c0 59 2e 7e 3f 87 93 0e 40
       -3.7546709 -3.8836625 0.9928947 2.2277544
0002b0 a2 0e f8 c0 8d fa 3c bf a2 72 a6 be f2 01 36 be
       -7.751786 -0.7381981 -0.32509333 -0.1777418
0002c0 19 17 14 3f fd 3b 14 40 be 1c 96 c0 80 89 cc be
       0.57847744 2.3161614 -4.6910086 -0.39948654
0002d0 40 83 31 c0 69 3c 6c c0 68 34 1e c0 36 74 0b c0
       -2.7736359 -3.6911871 -2.4719486 -2.178968
0002e0 b9 b5 b2 3f f1 53 53 be 78 38 23 3e 7f 35 e4 3e
       1.3961707 -0.2063749 0.1593951 0.44572064
0002f0 49 59 bd 3e 25 f4 18 3f 5d ec 27 bf 1a cb 9b be
       0.36982182 0.59747535 -0.65595037 -0.30428392
000300 bc 22 5d bf f7 6e af 3c ef dd 93 3f 03 0c fc bd
       -0.86381125 0.021415217 1.1552104 -0.123069786
000310 9e 0e 97 bf 74 fc 7f bf 95 51 79 40 83 49 cf 3e
       -1.1801336 -0.9999459 3.8956044 0.40485772
000320 c7 1a 45 bf 52 a8 21 3f 92 18 0c 40 5e ea 22 40
       -0.76993984 0.6314746 2.1889997 2.5455546
000330 ad 49 11 3f 3b 75 97 bf d9 28 82 be 78 ef b3 3e
       0.56753045 -1.1832651 -0.2542179 0.35143638
000340 cf 64 87 3f 17 f7 83 be 54 89 79 3e 00 ab e7 bd
       1.0577639 -0.25774452 0.24368793 -0.113119125
000350 6f 5e 02 bf 4f b7 fc be 4f 67 82 bf b6 44 1c bf
       -0.50925344 -0.49358603 -1.0187777 -0.61042345
000360 07 1d 95 3e 20 31 2f bf ec 18 99 c0 93 16 3a c0
       0.2912371 -0.68434334 -4.784292 -2.9076278
000370 cd 8d 98 bf b4 87 85 bf d1 2d 1c 3f 5f c6 3c 3f
       -1.1918274 -1.0432038 0.6100741 0.7374019
000380 86 0b 4f 3f 72 9d d9 3e bb 12 4f 3f a6 de 96 3e
       0.8087696 0.42502934 0.80887955 0.29466742
000390 12 19 e2 3f 37 fb dd 3f 43 4b e5 3f 4a 7b b7 3f
       1.7663901 1.734229 1.7913593 1.43345
0003a0 3e 5e cd 3f 37 1a 0d c0 a4 8b a6 3f 81 6b 1a bd
       1.6044385 -2.204725 1.3011365 -0.03770018
0003b0 23 c6 97 3e f1 d5 6e bf 0f 18 14 be 29 9a ec be
       0.29643354 -0.932952 -0.14462303 -0.46211365
0003c0 45 1f 80 bf e4 d3 9a c0 03 90 80 bf 39 97 10 3f
       -1.0009543 -4.8383656 -1.0043949 0.5648075
0003d0 10 c7 88 be cd 32 25 40 e9 4d e1 be 27 ac 93 3f
       -0.26714373 2.5812256 -0.44004753 1.1536912
0003e0 4d f9 8d 3f ef 44 03 c0 d0 36 bb 3e f1 14 26 40
       1.1091706 -2.0510824 0.36565256 2.5950282
0003f0 4f 82 39 3e f2 11 e9 3f 39 41 c5 3f ae f1 93 3e
       0.18116115 1.8208601 1.5410529 0.28895324

conv.2.bias f4 [64]
000000 1a 8f 15 be 2b 31 01 bf e3 3b a6 3e 07 73 31 be
       -0.1460537 -0.5046565 0.32467565 -0.17329036
000010 37 94 40 be fb f1 98 be 70 62 62 3f 48 69 8a be
       -0.1880654 -0.29872116 0.88431454 -0.27033448
000020 82 a1 89 bf d6 7c 54 3f a2 4d 8b bf b3 de af bd
       -1.0752413 0.83002985 -1.0883067 -0.085873984
000030 9d e6 fc 3e b3 d0 63 be 5b 5a 72 be 22 33 08 be
       0.49394694 -0.22247581 -0.2366728 -0.13300756
000040 e1 09 1a bf a1 58 0f 3f 9f 59 c7 bf 74 da a9 3d
       -0.60171324 0.5599461 -1.5574225 0.0829362
000050 07 5a 94 be 54 cf 81 3d f8 3d 74 be d9 1e 2d bc
       -0.28974935 0.06338373 -0.23851764 -0.010566437
000060 79 f4 ae be bc 39 c6 be 3b d1 08 3d 2b 2d 56 3e
       -0.34170893 -0.38715923 0.033402663 0.20915668
000070 69 59 25 3f 2a c0 33 bf b6 d6 19 3f d5 2e 4e 3f
       0.64589554 -0.70215094 0.6009325 0.8054021
000080 fd 84 e2 be ac cf 67 3f 18 32 e1 be 62 50 81 3e
       -0.44242087 0.9055126 -0.4398353 0.2525664
000090 1c ba a5 be df 40 88 be 8c 6f 06 3f 4b 68 c2 be
       -0.32368553 -0.26611993 0.5251396 -0.37970194
0000a0 c3 61 55 3e 82 92 db 3c ac 4a 1d be 62 5f d1 3e
       0.20838074 0.026803259 -0.15360516 0.40893084
0000b0 74 a8 28 3e 92 a8 33 3f cc df 7d bd 39 0a 8b 3f
       0.1647051 0.7017909 -0.061981007 1.0862495
0000c0 bd 65 a1 bc 0e 24 ed be d6 67 10 be fa 63 e9 3c
       -0.019701833 -0.4631657 -0.1410211 0.028490055
0000d0 5b 05 5d 3e 3d 79 83 3e eb 14 f4 3d d2 74 a9 3f
       0.21584074 0.25678435 0.11918052 1.3238776
0000e0 cc 09 1c 3f 84 4b c4 be 0b b1 84 bc 11 95 15 bd
       0.6095245 -0.38338864 -0.016197702 -0.036519114
0000f0 3b a5 b9 3d 00 88 05 bf 35 0f 19 3f 16 da 75 3f
       0.09064718 -0.52160645 0.5978883 0.960359

conv.3.weight f4 [64]
000000 e0 e0 f0 3d 4b 2e c9 3f 9f 9b 85 3f ad d2 3a 3e
       0.117616415 1.5717252 1.0438117 0.18244429
000010 5f 09 0e 3f 5c 19 91 3f 0a 8f 50 3f f3 1c 61 3f
       0.5548305 1.1335864 0.8146826 0.879348
000020 21 6b 01 3f 4a a5 4a 3f aa 46 c6 3f 68 ad c2 3f
       0.5055409 0.7915846 1.5490315 1.5209169
000030 56 1d 55 3f fd a6 ca 3f 38 d6 13 3f fe be b9 bc
       0.8324789 1.5832211 0.57748747 -0.02267408
000040 c0 27 3c 3f ad 17 ba 3f 0d be 28 40 94 c7 21 3f
       0.73498154 1.4538475 2.6365998 0.6319516
000050 da 8f b4 3e ca 7c 50 3f f2 44 cf 3f 24 8e 28 3f
       0.35266 0.81440413 1.6192915 0.6584189
000060 22 5f 44 3d 24 8f e1 3d 84 2b b1 3e 4e 1c 8d 3e
       0.04794229 0.1101363 0.34603512 0.27560657
000070 77 ba 9d 3f 48 3b 38 40 d3 2b 24 3e a1 01 a7 3f
       1.232253 2.8786182 0.16032343 1.3047372
000080 53 33 e5 3e 00 58 86 3f 7e 36 d0 3f 67 09 b2 3d
       0.4476572 1.0495605 1.626663 0.086931996
000090 87 13 97 3d 92 ec 91 3f 51 ef 82 3f ad 3f 9e 3f
       0.073767714 1.140032 1.0229284 1.2363182
0000a0 80 4b 44 3f ca e3 fe 3e 09 89 78 3c 09 1e 71 3f
       0.76677704 0.49783164 0.0151693905 0.94186455
0000b0 d6 07 eb 3f f9 31 d2 3f f3 48 fe 3f bf a4 a3 3f
       1.8361766 1.64215 1.9866012 1.2784652
0000c0 1d 55 17 3e 23 45 83 3e f7 73 8a 3f 35 17 2c 3e
       0.14778562 0.25638685 1.081664 0.16805728
0000d0 40 95 c1 3f 23 36 4d 3e 79 17 13 3f a1 9d 6c 3f
       1.5123672 0.20040183 0.5745769 0.9242802
0000e0 4a dc e0 3e 27 b1 8e 3f 1d d8 14 3d 87 25 2f 3f
       0.43918067 1.1147813 0.036338914 0.6841664
0000f0 e9 7c 85 3d 5c fa 2a 3f 2c 61 22 40 31 35 44 40
       0.06517965 0.6678827 2.537181 3.0657465

conv.3.bias f4 [64]
000000 1b 45 20 bf e9 5a 4b be 7a aa 79 be 75 4e 8b 3f
       -0.62605447 -0.19858898 -0.24381438 1.0883318
000010 6e 1c 98 3e 18 a5 c4 3e 93 9a 8a bf b7 86 b8 3e
       0.2970919 0.38407207 -1.0828422 0.3604028
000020 c4 61 0e be 9d 32 01 3f 4b 5f ab 3f 84 d4 79 bf
       -0.13904482 0.50467855 1.3388456 -0.975899
000030 6e a1 e1 bf a3 7c b2 bf 34 2f c4 be 39 1e 6d be
       -1.762739 -1.3944286 -0.38317263 -0.2315606
000040 7e 6a 00 40 d1 1a 8d 3f 7f cb b2 bf 20 4f 5f 3f
       2.0064998 1.1023809 -1.3968352 0.8723011
000050 82 d5 dc bf b5 05 86 3c 7f f3 cc bd c1 52 4c 3d
       -1.7252657 0.016360143 -0.10007381 0.049883608
000060 b3 72 2a bf 93 d4 4d bf d8 f1 61 bf fa b2 a0 bf
       -0.6658127 -0.8040249 -0.8825965 -1.2554619
000070 58 96 75 bf 84 a6 b0 bf 5d 80 91 bf e1 bb 46 be
       -0.9593253 -1.3800817 -1.1367298 -0.19407608
000080 d3 cb 95 3f 99 04 bb bf 66 ee aa bd a6 0f b1 3e
       1.1702827 -1.4610778 -0.08346252 0.3458225
000090 63 94 02 bf d2 52 0b be 75 44 e4 3d 7f 44 27 3d
       -0.5100767 -0.13605812 0.1114587 0.040836807
0000a0 85 bd 5a 3f 24 73 18 3f 4c 15 f4 be b3 2a 85 3f
       0.85445434 0.5955069 -0.47672498 1.0403656
0000b0 f2 c4 ad be fe 18 be be ec f7 8e bf 86 68 0e 40
       -0.3393932 -0.37128443 -1.116941 2.2251296
0000c0 61 4e 4e bf 60 8c 70 bf 96 dd 21 40 d9 6f 22 be
       -0.80588347 -0.93964195 2.5291495 -0.15862979
0000d0 3f dd 4b bf 28 25 46 bf 44 10 c0 bd ea 00 ef 3f
       -0.7963447 -0.77400446 -0.093781024 1.8672154
0000e0 e2 7d 95 3e f2 23 3c bf 17 51 c7 be b0 52 91 3f
       0.29197603 -0.7349235 -0.38929054 1.1353359
0000f0 9f 6b 08 bf 33 9c 0d 3f 8a 63 22 bd a7 0d f8 be
       -0.53289217 0.55316466 -0.03964571 -0.48447916

conv.3.running_mean f4 [64]
000000 34 cb 7a c2 2a cd 74 c2 5d 48 a8 c2 6c 14 3d c2
       -62.69844 -61.200356 -84.141335 -47.269943
000010 f6 69 4e c2 8f 0f 0f c2 76 0f b7 c2 6c db 37 c2
       -51.603477 -35.765194 -91.5302 -45.96428
000020 a5 ed 30 41 8c 57 01 c1 0f c1 0a c2 ab fb 67 c2
       11.058019 -8.083874 -34.688534 -57.99577
000030 b4 0d da c1 7a 8f a4 c2 d7 5a 34 c2 64 1b fc c1
       -27.256691 -82.28023 -45.08871 -31.513374
000040 5d 44 44 41 6a c3 c0 3f 74 e7 30 c1 05 4d 82 c2
       12.26669 1.5059636 -11.056507 -65.15043
000050 f1 3b fa c1 9b e9 c9 c2 42 b9 97 c2 c0 e0 89 c2
       -31.279268 -100.95626 -75.86183 -68.938965
000060 90 b7 31 c0 24 b6 63 41 ad e6 a7 c2 24 48 c3 c1
       -2.7768288 14.231968 -83.95054 -24.410225
000070 7c b2 b0 c2 a0 94 2b c2 52 09 cb c1 32 12 bd c2
       -88.3486 -42.89514 -25.37955 -94.53554
000080 be 2f 28 c2 3e b9 d6 40 60 48 92 c2 c0 9f a9 c2
       -42.046623 6.7101126 -73.14136 -84.81201
000090 f0 a0 56 c1 75 bb 54 c2 a0 b2 5f c2 c4 80 98 c2
       -13.414291 -53.183064 -55.92444 -76.251495
0000a0 ef 5f 83 41 cd 72 de c1 f4 06 90 c1 ab 90 23 c1
       16.421843 -27.806055 -18.003395 -10.222819
0000b0 65 b4 38 c2 e4 9a 8d c2 1f 42 97 c2 20 3f 0f 41
       -46.176167 -70.80252 -75.62914 8.952911
0000c0 8b 0c 9b c1 bc 18 1f 3f 68 eb 11 41 29 11 81 c1
       -19.381124 0.62147117 9.119972 -16.133379
0000d0 50 7d 46 c2 79 97 33 c2 f4 18 37 c2 30 30 2a c1
       -49.622375 -44.897923 -45.77437 -10.636765
0000e0 ab be a3 c2 77 1a 06 41 58 ed 0e c2 94 d5 a2 c1
       -81.8724 8.381461 -35.73178 -20.354286
0000f0 be 2f d2 c1 92 ac 4c c1 b5 f2 06 c3 cb 30 0a c2
       -26.273312 -12.792131 -134.94807 -34.54765

conv.3.running_var f4 [64]
000000 15 92 86 45 32 8b 09 46 1c 58 93 45 be 80 a2 45
       4306.2603 8802.799 4715.0137 5200.093
000010 bc 7b c0 45 27 45 ea 45 1f fe 0f 46 31 31 d5 45
       6159.467 7496.644 9215.53 6822.149
000020 00 ab 79 42 5e 8c 1a 44 60 f1 50 45 bd 6b 84 45
       62.416992 618.19324 3343.086 4237.4673
000030 4c 14 b5 43 c7 72 54 45 6a 3d e2 44 59 53 d1 45
       362.15857 3399.1736 1809.9192 6698.4185
000040 b8 d7 ad 43 2b 1b 42 44 42 a2 8e 44 13 2b a5 45
       347.6853 776.4245 1141.0706 5285.3843
000050 80 c1 4b 45 6b b3 3c 46 72 1a 7a 46 2e bf 2e 46
       3260.0938 12076.8545 16006.611 11183.795
000060 42 d9 49 43 eb 9e 98 42 15 b0 d6 45 b2 4f 05 45
       201.84866 76.31039 6870.0103 2132.981
000070 b8 cc 87 45 95 d9 2c 45 07 83 98 44 9b 95 df 45
       4345.59 2765.5989 1220.0946 7154.7007
000080 60 37 d7 45 ba 37 4c 43 70 e4 a0 45 19 27 36 46
       6886.922 204.21768 5148.5547 11657.774
000090 d5 fe cd 44 86 a5 a9 45 6c 08 8f 45 37 16 29 46
       1647.9635 5428.6904 4577.0527 10821.554
0000a0 80 81 4b 43 4c 58 cf 44 0b de 13 44 4b 85 f1 45
       203.50586 1658.7593 591.4694 7728.6616
0000b0 ea 5a 8b 45 65 e8 e3 45 a0 a0 4c 45 f9 a1 ef 43
       4459.3643 7293.0493 3274.039 479.2654
0000c0 7f 9f 3b 45 52 ec 6b 43 e6 9a 04 44 9b 2d 88 44
       3001.9685 235.92313 530.4203 1089.4252
0000d0 0a f9 02 45 99 42 2c 45 a9 42 5f 45 7a 96 39 44
       2095.565 2756.1624 3572.1663 742.3512
0000e0 12 e5 a1 45 7a d7 ce 43 7f 09 82 45 11 86 8f 45
       5180.634 413.6834 4161.187 4592.7583
0000f0 2f d3 b0 44 c9 6f e2 45 99 45 79 46 43 75 52 45
       1414.5995 7245.973 15953.399 3367.3289

linear.weight f4 [256, 576]
000000 d0 e4 06 3d 54 f5 15 3d 7a 6c 79 bd 3c 36 12 3c
       0.032933056 0.036610916 -0.060894467 0.008924063
000010 b1 c7 8a bd 4c ec fd bc 9d 7d 3a 3d b3 f6 52 bc
       -0.06776369 -0.030996464 0.04552995 -0.0128762005
000020 8a 05 bc bd 80 1e d6 bc 46 3c 6e bc 2a 1f a1 ba
       -0.09180744 -0.02613759 -0.0145407375 -0.0012292613
000030 27 65 6c bc d1 e3 0b bc e7 db fd 3c 50 ca 97 bc
       -0.0144284135 -0.008538202 0.030988647 -0.018529087
000040 81 3f d8 3c cb af 1f bd cc 10 93 3c 74 d4 18 bd
       0.026397469 -0.03898601 0.017952345 -0.037311986
000050 50 19 c2 3c b7 44 93 3d 43 1b 5b 3c d9 a3 f4 bd
       0.02369371 0.07190841 0.013373199 -0.11945314
000060 fc 38 4d 3d 4c 87 76 3c 2c c4 30 3b c9 8c 96 bc
       0.050103173 0.015046906 0.0026972396 -0.018377678
000070 a1 36 90 3b bc e2 ca bd 77 76 6d 3d d9 68 cd bc
       0.0044010435 -0.099065274 0.057974305 -0.02507441
000080 3c 70 77 bc 27 e1 77 bd 83 18 23 3c 7b 56 5e bd
       -0.015102442 -0.060517456 0.0099545745 -0.054281693
000090 ba 0b 8e 3b 1f 10 1c bb 14 5a f2 bc 7b 08 60 bd
       0.004334894 -0.002381332 -0.029583968 -0.054695588
0000a0 22 3b a7 3d 12 2f b2 bd a8 25 a0 3d 9e bf f3 39
       0.081655756 -0.08700384 0.07819682 0.00046491338
0000b0 c3 7d 82 bd 14 44 17 bd 36 2f 99 bc ee e2 f5 3c
       -0.063716434 -0.03693016 -0.01869927 0.030015435
0000c0 98 0a 26 3d cc 24 86 bd 6e 61 09 bd cd c6 3f 3d
       0.040537447 -0.06549987 -0.03354018 0.04682045
0000d0 d0 3a 31 3c 59 08 10 bc 0b 77 e0 bc 7f 1c 74 bb
       0.010817245 -0.008791053 -0.027400514 -0.003724843
0000e0 4f c7 43 bc 78 fc 85 3d 8e 71 85 3d 00 49 f9 3c
       -0.011949374 0.06542295 0.065157995 0.030430317
0000f0 ec a9 f8 3c 55 b1 9a bc d9 74 b4 3d 5f ff cd 3b
       0.030354463 -0.018883387 0.088113494 0.006286546
000100 30 ab fe ba 3d ee 7b bc 0a 2d 0a bc 86 dc de 3c
       -0.001942968 -0.015376625 -0.00843359 0.027204763
000110 bd b8 33 3c be 05 0a bd 64 d3 8d bc d5 52 c9 bc
       0.010969338 -0.033696882 -0.017312713 -0.02457563
000120 2a 1b 6d bc 17 3b 72 bd df 65 d4 bd d1 18 2d ba
       -0.014471808 -0.059138384 -0.10370993 -0.0006603124
000130 51 b4 98 3d 87 54 89 bd 0a 06 13 bd 55 d1 25 bc
       0.074562676 -0.067055754 -0.03589443 -0.010120709
000140 16 51 20 bd 42 28 a6 bd d7 61 cd 3c b2 df 6d 3c
       -0.03913983 -0.08113147 0.025071068 0.014518665
000150 6b 8d 71 3c c5 a1 89 3d 67 e8 09 3b eb f2 38 bc
       0.014743189 0.06720308 0.0021043064 -0.011288385
000160 ff 0f 6c bd cc 4a 06 be 9d 9c 89 bd c8 0a 15 bd
       -0.057632443 -0.1311447 -0.06719325 -0.036387235
000170 e7 21 81 bd f2 48 8b 3d e2 1f 89 3c c9 f1 9a 3d
       -0.063052945 0.068010226 0.016738836 0.07565648
000180 39 65 3e bd 12 74 38 bc 42 20 05 3d c0 99 db bc
       -0.046483252 -0.011258142 0.032501467 -0.026806712
000190 a5 ac b5 bd d2 58 d2 bc a5 8a ca bc c5 47 75 bd
       -0.0887082 -0.025677118 -0.024724314 -0.059882898
0001a0 13 df 9c bd cb ff 09 3d d5 cc b1 bd a7 0f db 3c
       -0.076597355 0.03369121 -0.08681647 0.026740862
0001b0 8a 7d 2e 3a ca 2d b8 bc c7 33 6d 3c d1 92 36 3d
       0.000665628 -0.022482771 0.014477677 0.04457361
0001c0 d8 24 ff ba ea 49 08 3d a2 ea 54 bb f7 91 35 bd
       -0.0019465936 0.033273615 -0.0032488485 -0.044328656
0001d0 56 a7 c1 3c a2 f1 b8 bc 27 e2 66 bc ee 89 3b 3d
       0.023639362 -0.022576157 -0.014092005 0.045785837
0001e0 46 f1 44 3d 65 db 1b 3d d8 9d ad 3d c9 a1 c4 3c
       0.04808166 0.038051028 0.08477372 0.024002926
0001f0 10 2a 04 3d de 3c 25 3c 1c e1 9a 3d 02 e9 8a 3d
       0.032266676 0.010085313 0.075624675 0.06782724
000200 83 60 e6 3b d5 f6 2a 3d b1 9b 8c bd 6d e9 a6 3c
       0.007030548 0.041739304 -0.06865633 0.020374978
000210 23 ba 4f 3d 35 e2 63 3c b5 2d 62 3c 58 23 33 bd
       0.050714623 0.013908912 0.013804843 -0.04373488
000220 f0 c3 ab bc f7 1b 1d bd 68 2f 27 3d 5d 5a a6 bd
       -0.020967454 -0.038356747 0.040816694 -0.08122704
000230 7d 53 d0 bd da d8 25 be c7 42 8c bd a5 19 83 bd
       -0.10172174 -0.16196004 -0.06848674 -0.06401376
000240 eb 5c 4c bd 73 d6 ac bd 1a 0e c5 bd c9 0b 01 bd
       -0.0498933 -0.084393404 -0.0962183 -0.03150538
000250 90 0a 60 bd d2 41 5a bd 2f a5 85 bd 6d 33 5a bd
       -0.054697573 -0.053285427 -0.06525647 -0.0532717
000260 25 78 3b 3d 0a 72 0c be 8c 43 90 bc 8f 78 07 be
       0.045768876 -0.13715377 -0.017610334 -0.13229583
000270 86 ac 96 3c 6b 0a df bc 85 b2 4c bd a9 90 fc bc
       0.018392812 -0.027226647 -0.049974937 -0.030830698
000280 85 06 d8 3d 83 52 98 bd 87 58 8d bb 31 03 b1 bd
       0.105481185 -0.07437613 -0.004313532 -0.08643187
000290 74 53 91 3c bd 35 01 bd 46 b9 bc bb 2b 99 4f 3c
       0.017739989 -0.03154539 -0.005759391 0.012670795
0002a0 80 e5 49 bd 24 b9 0e bc ab 0a 8d 3c 34 85 6e bc
       -0.049291134 -0.008711133 0.017217001 -0.014558125
0002b0 6c d7 d9 bc 86 cc f5 bc 77 6d 98 3d 4a 2a 9d bd
       -0.026591979 -0.030004751 0.07442754 -0.076740816
0002c0 bf ba 03 3d f2 8d 77 3d 8e 09 06 be d7 e7 09 be
       0.032160517 0.060438104 -0.13089582 -0.13467346
0002d0 9a 92 5c bd c5 71 35 3d e8 7c ed bd d3 d2 4e bb
       -0.053850748 0.044297952 -0.115960896 -0.0031558766
0002e0 a5 66 22 3d 1c b3 2a bd 1b 91 0d 3c 19 9c f2 bd
       0.03964867 -0.04167472 0.008640553 -0.118461795
0002f0 ff 8d 82 3d b5 82 57 bd e5 3b 6d 3c 2e 45 86 bd
       0.0637474 -0.052614886 0.014479612 -0.06556164
000300 c1 92 08 3c 5c 5d 90 3d 16 8d 3a bd 2b 94 a8 3c
       0.00833577 0.07049057 -0.045544706 0.020578464
000310 eb 71 90 3d 36 87 7a bc 9b 21 40 bd 2a 4d b8 bc
       0.07052978 -0.015291026 -0.04690705 -0.022497732
000320 38 29 c0 bb da e2 a5 3c 0f c4 17 3d 49 cf db 3b
       -0.0058642887 0.020249773 0.03705221 0.00670806
000330 a0 36 7c 3d 2b 11 01 bb 43 29 1e 3c 3e 3f 28 bc
       0.061575532 -0.001969407 0.009653392 -0.010268984
000340 79 bb d5 bc 4d cf 8f 3c a3 6b 38 bc ed 8c 0c bc
       -0.02609037 0.017554903 -0.011256131 -0.008578521
000350 7d 27 2b 3d 54 2e 1e 3d d5 0f 58 bd c1 54 bd bc
       0.041785706 0.0386184 -0.052749474 -0.023111703
000360 db a6 35 3d 1b 3c 1f 3d 58 07 a4 3d 9a f9 71 3d
       0.04434858 0.03887568 0.08009213 0.05907593
000370 9b e7 59 3c 20 99 28 3d 3e f6 56 3c cd 79 95 bd
       0.013299848 0.041161656 0.013120232 -0.07298622
000380 99 92 90 bd bf f7 2a 3d ca e9 ac 3d 6f 64 3a bc
       -0.07059211 0.041740175 0.08443029 -0.011376484
000390 dd 24 2f 3d d5 c9 84 bd c9 21 79 3c 44 f1 81 bd
       0.042759765 -0.06483809 0.015205809 -0.06344846
0003a0 6d 77 7c bd 2e ae 16 be 84 73 85 bc f0 0c 26 3d
       -0.06163733 -0.14714882 -0.016290434 0.040539682
0003b0 3e 25 25 3d bc d6 c9 3c c0 84 da ba 17 20 32 bd
       0.04031872 0.024638526 -0.0016671643 -0.043487635
0003c0 9c e2 a5 39 4b 54 13 bd ff 23 4c bd 4b 06 a1 3c
       0.0003164009 -0.03596906 -0.049839016 0.019656321
0003d0 a0 47 ed 3c 2c ee d3 3c 76 61 a7 bb 2e e5 82 bd
       0.028964818 0.025870405 -0.005108054 -0.06391369
0003e0 76 12 dd bc 16 97 51 3d 43 62 d1 3c 93 9d 0e bd
       -0.026986342 0.051169477 0.02555955 -0.034818243
0003f0 d6 d3 65 bd 42 9a 66 ba f4 90 eb bc 3d 00 0b 3d
       -0.056110226 -0.000879679 -0.028755642 0.033935774

linear.bias f4 [256]
000000 d8 36 13 bd 1c 56 00 3f cf ea ec 3d ae 32 c1 bb
       -0.035940975 0.5013139 0.11568224 -0.005895934
000010 4f cb 98 bd cc 43 98 3c a8 14 a4 3e 22 50 d3 3b
       -0.07460653 0.018587016 0.3204701 0.0064487616
000020 03 15 16 be 67 58 48 bd 6f 49 19 bc fe eb 5c 3e
       -0.14656453 -0.048912432 -0.009355887 0.21574399
000030 38 6f e2 40 ee 35 7f 3c 2f 01 ef 40 5f 7d 46 bd
       7.0760765 0.015576823 7.4688945 -0.048459407
000040 bd 1d 13 3f 29 3b 2e bd 6f 7e 87 be 10 25 d0 40
       0.5746725 -0.04253689 -0.2646365 6.504524
000050 73 6e ed bc 01 02 2a bc f3 18 4f 3d 95 20 5c bd
       -0.02898333 -0.010376454 0.050560903 -0.05374201
000060 1e 2a b1 bc e5 56 4d 3f d4 be 18 3c 49 a2 3d 3f
       -0.021626528 0.80210716 0.009322841 0.7407575
000070 88 d5 6c 3b 4a fe 7c bd 00 9d 1b bd 9e 1f 1c 40
       0.0036138017 -0.061765946 -0.037991524 2.4394298
000080 01 e1 31 bd fc 1f e6 bc 5b c9 82 3c 17 07 75 3c
       -0.04342747 -0.028091423 0.015965154 0.014955304
000090 31 29 86 bc 10 f0 23 be c2 d5 50 bb 83 47 a9 3d
       -0.016377063 -0.16009545 -0.003186569 0.08265593
0000a0 a8 2c c5 3c f2 41 6f bd d3 23 a7 bc 24 83 18 3b
       0.024069145 -0.0584125 -0.020402825 0.0023271525
0000b0 2f 78 18 bd f1 d8 c0 be dc b2 a8 be f0 c3 75 bd
       -0.03722399 -0.37665513 -0.3294896 -0.060001314
0000c0 fe cf 9a 40 b1 1c 1a bc a3 c1 23 bd f3 59 0f bd
       4.8378897 -0.009406255 -0.03997959 -0.03499789
0000d0 5c 28 93 bd b2 76 b0 bc 0b d2 41 bd ae da 77 bc
       -0.07185432 -0.021540973 -0.047319453 -0.015127821
0000e0 7e 62 b9 bc 75 ea 64 bc 63 00 68 bd bf 3f 12 bd
       -0.022629973 -0.013971915 -0.056640994 -0.035705324
0000f0 10 38 fd bc 31 e3 d9 3e a3 ab 31 bb 19 5f 8f 3b
       -0.030910522 0.42556146 -0.002711036 0.00437535
000100 8e 83 93 3c cf 24 39 be b0 c3 c9 3e e4 18 c2 3c
       0.018007066 -0.18080448 0.3940711 0.02369351
000110 5b 17 60 bd fd 64 59 3e f5 6c bf 3f 83 c4 fe 3b
       -0.054709774 0.2122993 1.4955126 0.007774891
000120 4d d4 30 bc 02 53 0c 3f c4 97 35 be d3 69 08 41
       -0.010792804 0.5481416 -0.17733675 8.525836
000130 d0 cb e2 3d 8d e7 61 bd 6e 44 d8 bc 14 57 59 bd
       0.110740304 -0.055152465 -0.026399817 -0.05306156
000140 8a 29 f1 bd 38 0c 44 bc 0a e3 25 be 3c 84 82 bd
       -0.11775501 -0.011965804 -0.1619989 -0.06372878
000150 a1 62 e4 bc e4 61 3a bd 69 42 31 3c 7c 62 26 3e
       -0.027879061 -0.045503512 0.010819056 0.16248506
000160 94 19 85 40 77 a1 ee bc 90 32 77 3d 5b a3 2f bd
       4.1593723 -0.029129727 0.060350955 -0.042880397
000170 11 d3 01 3e 93 25 a9 3b 07 55 80 40 6e 97 45 bc
       0.12678172 0.00516195 4.0103793 -0.012060029
000180 9a c0 c4 bd 7e e5 21 bd 0e d9 a8 be 79 d0 06 3c
       -0.09607048 -0.0395255 -0.329781 0.008228415
000190 86 86 5c be 17 7a de 3d c9 1d 0b bf 1c 9c 39 bd
       -0.21535692 0.108631305 -0.54342324 -0.045314893
0001a0 ea c5 11 bd cb ec 73 3e 08 45 99 3d 64 4b 98 be
       -0.035589136 0.23820798 0.0748387 -0.29745018
0001b0 da ca 73 bd 7e 7d aa 3b f2 b9 0f bd eb 4a e7 be
       -0.059519626 0.005202948 -0.03508944 -0.45174345
0001c0 cc 95 64 bd 81 92 b8 3c b6 cc 38 3f 6c 2d f9 3a
       -0.05580692 0.022530796 0.72187364 0.0019010729
0001d0 d9 b1 bf 3b c1 77 91 3e ee ff 49 bd 49 b6 da 3e
       0.0058500585 0.28411677 -0.04931634 0.42717198
0001e0 6e 1c 82 3d 6d 37 a2 3e 41 90 cd bd a0 69 19 be
       0.06353079 0.31682912 -0.1003728 -0.14981699
0001f0 67 7c 62 bd e2 c3 9c 3c 0f 47 e7 3a 7c cf a0 bc
       -0.05529442 0.019136373 0.0017645078 -0.019630186
000200 e4 0a 66 be fe d0 c0 39 8d fc 73 3e d1 11 b0 be
       -0.22465092 0.00036776805 0.23826809 -0.34388593
000210 86 41 1a 3e 2a 4c 12 bc 59 38 ab bc 78 92 c2 bd
       0.15064058 -0.008929292 -0.020900892 -0.09500593
000220 51 65 28 3e bf d5 08 3d ee a7 6b be 6f 8b 2f 3f
       0.16444899 0.03340697 -0.23013279 0.68572134
000230 f7 56 00 3e d5 f5 69 3c e7 90 08 bd 1f 51 25 3c
       0.12533174 0.014279802 -0.033341315 0.010090142
000240 55 b8 93 3b 2f 7b 82 bc 2f 5a d2 bc d3 19 af bc
       0.004508058 -0.01592788 -0.025677769 -0.021374619
000250 a3 79 48 3c 4a a4 82 3c 38 d0 11 40 f7 0b 90 bc
       0.012236032 0.01594748 2.2783337 -0.01758383
000260 c0 b9 a1 3c 21 d9 6b 3c ee 15 7c 3e 0a f2 07 be
       0.019741893 0.014395029 0.2461774 -0.13275924
000270 0e 0b 2a 3f 28 27 ac 3f 8e d6 4a bd 93 20 33 3f
       0.6642312 1.344945 -0.04952102 0.6997158
000280 e6 a2 4e bd 08 e0 6f 3f 7d 3d 03 41 ff 50 e6 3b
       -0.05044832 0.9370122 8.202512 0.0070286985
000290 3b 12 a2 3f 38 d6 b4 bc 60 bb f8 3b 7e ee 1a bd
       1.2661813 -0.022074804 0.007590696 -0.0378251
0002a0 4d a6 7a bd 34 fa 4f 40 50 26 96 3f 01 50 5a bd
       -0.061193753 3.2496462 1.1730442 -0.053298954
0002b0 a1 1b ca 3d 61 a6 4b be db ef 2e b9 64 a6 9b 3e
       0.09868551 -0.19887687 -0.00016683286 0.30400383
0002c0 f5 66 e9 b7 d9 1c d9 3f f9 4c ff 3d 0d c9 a2 3c
       -2.7823708e-05 1.6961929 0.12465853 0.01987126
0002d0 d0 c8 c7 be c5 66 98 3e 0b 16 9d ba 9b b7 06 bc
       -0.39020395 0.29765907 -0.0011984719 -0.008222486
0002e0 29 ee 09 be a7 37 68 bc 34 66 2d be 13 7c 6f 3e
       -0.13469757 -0.014173425 -0.16933519 0.23387174
0002f0 92 01 35 bd 20 77 ec 3b f6 46 6a bc 65 50 45 be
       -0.04419095 0.0072163492 -0.014299145 -0.1926895
000300 d2 7a 11 3f 7d 42 23 bb 15 e0 c3 bc 6d fc 55 bd
       0.56828034 -0.0024911456 -0.023910562 -0.052242685
000310 1a 6e 87 3f 88 81 78 bc c0 e9 70 bd 17 6d 0c 3e
       1.0580475 -0.015167601 -0.05881667 0.1371349
000320 74 0c 18 3c 67 4d 89 3b 57 d5 ff 3d e1 35 bb bc
       0.009280313 0.0041901353 0.12491863 -0.02285284
000330 fe 16 0f 3c cf 5b 33 3c 8c 7d 05 bd f2 04 80 bd
       0.008733509 0.010947182 -0.032590434 -0.06250943
000340 e2 27 09 3c d7 29 55 bb 88 13 89 bd e8 77 3a bd
       0.008371325 -0.003252616 -0.066931784 -0.045524508
000350 48 a0 9f 3e 9d ec 65 3e eb 95 20 bd c6 17 df bd
       0.31176972 0.22453542 -0.039205473 -0.10893206
000360 75 82 80 be 85 cb ac 40 8b a9 83 bb fc 66 c4 bd
       -0.2509953 5.3998437 -0.004018014 -0.09589955
000370 28 bf 69 bd fd 04 4b 3c 63 84 48 be 59 b1 91 bc
       -0.057067066 0.012391326 -0.19581752 -0.017784761
000380 8a c5 32 bc d2 c7 03 bd 2f 05 64 be 42 13 30 bd
       -0.010911355 -0.032172985 -0.22267602 -0.042987116
000390 08 5b 8e 3c 67 d4 c6 3e a2 a0 83 3f 3a d2 db 40
       0.017377391 0.38833925 1.0283396 6.8694124
0003a0 f4 90 f3 bd 15 0b 94 3c e7 6d 30 bc 47 65 73 3e
       -0.11892882 0.01807169 -0.01076839 0.23769103
0003b0 7b e2 16 bd 2a 6d 0e be 73 a4 5d be b1 06 8c bc
       -0.036837082 -0.1390883 -0.21644764 -0.017093034
0003c0 49 c5 fe bd 72 74 86 3e 64 6b 82 3c b3 81 61 bd
       -0.12439973 0.26260716 0.015920348 -0.05505533
0003d0 e9 a8 27 bd cd 47 96 3f eb 90 d2 bc 79 de 24 3f
       -0.04093257 1.1740662 -0.025703868 0.64401966
0003e0 69 d4 90 bc a7 82 58 bd ef b5 1d bd d3 d9 81 bb
       -0.01767941 -0.052858975 -0.038503584 -0.0039627342
0003f0 4c 26 3b 3c 75 cc ba 3f d8 ef 04 3b 15 78 0c be
       0.011422705 1.4593645 0.002028456 -0.13717683
