previous_models/Vec4.pth (torch, 631812 bytes, 10 tensors)

conv.0.weight f4 [32, 7, 2, 2]
-1.1642038 -0.80032796 -0.0607295 0.7734227 -1.3794327 0.6778162 -2.1625495 0.08513082
-0.06803752 -0.23477608 -1.2450161 -1.7830101 0.049582314 -1.4530272 -2.4443088 0.54457897
-0.008718149 -0.533648 -4.482432 -2.892162 1.0242251 0.84955406 -0.8533737 -2.9591396
-0.17279524 0.009852861 0.08193335 0.04080476 -0.21971872 4.618581 -0.9682543 0.25144345
1.3875077 -0.59020936 -4.222428 0.8327148 0.85806954 -0.30779526 -3.4299788 -0.14325635
0.6533864 2.2847505 -3.6004362 0.77887607 -0.35861135 0.9158318 -4.576493 0.21417373
0.47752765 0.45595148 -1.4297714 0.5538023 0.2851568 0.40571803 0.546616 0.58522403
-0.508014 0.8891758 -0.17291518 1.1675501 -0.2693983 1.6642123 0.22952369 -1.0800989
-0.02953195 0.73261553 -0.35967782 -1.1884798 1.0055759 -0.22853282 -0.020203901 1.1398497
1.6500823 0.09146908 0.7296456 0.09204815 0.35428104 0.4870285 0.017759122 1.0055897
0.077839464 0.10971915 0.014623464 0.056981295 -2.5560412 1.8381679 -0.19152294 -2.405422
-1.073414 0.67293656 -0.7528546 1.4239469 -2.8367133 0.08910707 -0.03415812 -0.8298637
-1.7886746 0.52256465 -0.49708143 0.70950294 -0.57741 1.7113752 -0.1339809 0.32814094
-2.7710161 -1.6751124 -2.4939868 0.050833367 0.39169466 0.45686114 0.17309512 0.3833077
-0.41478708 1.7522154 1.0250413 0.7021067 -1.3478281 0.7365199 0.4586687 0.2811978
0.69405794 0.71638286 4.538913 -0.61418855 0.7851196 2.633376 2.6207874 -0.5224696
0.8117304 2.069466 0.5026189 0.009881994 2.492457 2.4120347 4.0247235 -0.20116015
-0.17898287 -0.068318345 0.09385935 -0.21779782 5.5062084 -0.09554231 0.14285368 -1.9806575
0.1080492 1.2505422 0.594727 -4.166712 -0.30460766 -0.011047767 -0.11686488 -3.4827888
0.6785031 0.7758099 0.66027015 -3.7802122 -0.33573133 0.35607335 0.33569953 -4.5261126
1.9243554 -0.5608395 0.041182954 -3.1323996 0.3986359 0.4689284 0.5921289 0.50409096
-3.4694836 -1.1465272 0.117810816 -0.32213667 0.79604393 -0.34086993 -3.5591362 -0.4020233
-0.66296387 -0.23759185 2.1250067 -0.6256534 -2.9749444 -0.7329022 1.0169156 -2.346241
-1.8257062 0.5525611 -3.219511 -3.1869862 -4.4996843 -1.265883 -1.6425136 0.5649841
0.10536652 -0.20565194 -0.14673351 0.15317333 -2.7118323 -4.4901204 0.6960203 1.0832688
1.3751531 -1.5449158 1.5141819 -3.0173867 1.2111212 0.39269936 1.8969437 1.3073571
-1.0699741 1.450468 1.599986 1.9347265 0.8910474 -1.1426061 2.7655237 1.7243066
-3.831641 -0.04005872 -6.425351 -0.32190058 0.059713863 -0.038170163 -0.14779603 -0.27228266
0.0730845 0.62537634 1.6224349 0.7328928 0.7540499 1.2602923 0.040722236 0.0817961
0.43035477 1.6216558 1.4062142 0.74406046 0.29386854 1.8915524 1.988794 0.4972547
0.81507236 1.9365013 1.2594919 1.258579 0.59593046 0.5443132 2.6173096 1.4199759
-0.5690268 -0.6726166 -0.7952803 -0.7199161 -0.29242027 -0.14814162 -0.34070396 -0.3721191
00000000: a104 95bf 4be2 4cbf 7fbf 78bd 08ff 453f
00000010: 4091 b0bf 5d85 2d3f 3667 0ac0 1159 ae3d
00000020: 4157 8bbd 2469 70be b05c 9fbf ad39 e4bf
00000030: d316 4b3d ccfc b9bf 8e6f 1cc0 8769 0b3f
00000040: 91d6 0ebc 289d 08bf 1570 8fc0 2f19 39c0
00000050: cf19 833f 607c 593f b376 5abf 8b62 3dc0
00000060: 3cf1 30be e56d 213c accc a73d e422 273d
00000070: f2fd 60be 6acb 9340 84df 77bf 32bd 803e
00000080: da99 b13f f617 17bf 211e 87c0 cc2c 553f
00000090: 72aa 5b3f 5797 9dbe c684 5bc0 cbb1 12be
000000a0: 5544 273f 5a39 1240 8c6d 66c0 6c64 473f
000000b0: e89b b7be f473 6a3f a172 92c0 5c50 5b3e
000000c0: 817e f43e 7972 e93e c002 b7bf fdc5 0d3f
000000d0: 1200 923e 46ba cf3e 07ef 0b3f 3ed1 153f
000000e0: 350d 02bf 06a1 633f ad10 31be 4872 953f
000000f0: 93ee 89be e904 d53f 4208 6b3e ae40 8abf
00000100: fdec f1bc b18c 3b3f b127 b8be 1b20 98bf
00000110: b6b6 803f 8204 6abe a782 a5bc 98e6 913f
00000120: e635 d33f 2454 bb3d 0eca 3a3f be83 bc3d
00000130: 5364 b53e cd5b f93e 947b 913c 2ab7 803f
00000140: 4c6a 9f3d 6fb4 e03d 4197 6f3c 3865 693d
00000150: 2e96 23c0 1649 eb3f 971e 44be 6ff2 19c0
00000160: a165 89bf 9245 2c3f 14bb 40bf e443 b63f
00000170: b68c 35c0 c47d b63d 63e9 0bbd f371 54bf
00000180: 4af3 e4bf ccc6 053f 7581 febe fca1 353f
00000190: 24d1 13bf 580e db3f 4a32 09be 1702 a83e
000001a0: 5458 31c0 156a d6bf 7b9d 1fc0 a636 503d
000001b0: 348c c83e b4e9 e93e d93f 313e e840 c43e
000001c0: f95e d4be 9848 e03f 8e34 833f 44bd 333f
000001d0: a285 acbf 918c 3c3f a0d6 ea3e 28f9 8f3e
000001e0: c8ad 313f de64 373f c63e 9140 763b 1dbf
000001f0: 99fd 483f 3b89 2840 fbba 2740 91c0 05bf
00000200: 90cd 4f3f 2272 0440 a2ab 003f 16e8 213c
00000210: 6a84 1f40 c75e 1a40 89ca 8040 edfc 4dbe
00000220: 4947 37be 7dea 8bbd 5539 c03d 6406 5fbe
00000230: dc32 b040 b0ab c3bd 3c48 123e 2f86 fdbf
00000240: e648 dd3d c411 a03f 0740 183f b455 85c0
00000250: 89f5 9bbe b101 35bc db56 efbd 03e6 5ec0
00000260: 61b2 2d3f 7a9b 463f 7707 293f ffee 71c0
00000270: fae4 abbe 3f4f b63e cfe0 ab3e ead5 90c0
00000280: 4751 f63f 2d93 0fbf 75af 283d 3c79 48c0
00000290: 011a cc3e 6217 f03e c295 173f 1b0c 013f
000002a0: 050c 5ec0 67c1 92bf cc46 f13d 19ef a4be
000002b0: 89c9 4b3f 8186 aebe e3c8 63c0 ffd5 cdbe
000002c0: 00b8 29bf 474b 73be 1c00 0840 d22a 20bf
000002d0: 7d65 3ec0 7b9f 3bbf 4a2a 823f d028 16c0
000002e0: beb0 e9bf a574 0d3f 780c 4ec0 95f7 4bc0
000002f0: 6afd 8fc0 7408 a2bf e33d d2bf cca2 103f
00000300: 67ca d73d 6c96 52be 4f41 16be 78d9 1c3e
00000310: a98e 2dc0 11af 8fc0 632e 323f 8da8 8a3f
00000320: 0405 b03f cdbf c5bf b6d0 c13f dd1c 41c0
00000330: 0506 9b3f e40f c93e 0dcf f23f 7a57 a73f
00000340: e9f4 88bf efa8 b93f 57cc cc3f 1ea5 f73f
00000350: af1b 643f eb40 92bf 57fe 3040 14b6 dc3f
00000360: 9b39 75c0 9d14 24bd 7a9c cdc0 27d0 a4be
00000370: 8696 743d 5158 1cbd d857 17be a268 8bbe
00000380: 54ad 953d aa18 203f f2ab cf3f dd9e 3b3f
00000390: 6a09 413f 4251 a13f 5ccc 263d b784 a73d
000003a0: 7657 dc3e 6b92 cf3f d4fe b33f bf7a 3e3f
000003b0: f075 963e 641e f23f cd90 fe3f 2b98 fe3e
000003c0: 95a8 503f 46df f73f 0837 a13f 1e19 a13f
000003d0: e68e 183f 1c58 0b3f 0082 2740 c5c1 b53f
000003e0: beab 11bf 9a30 2cbf 7d97 4bbf 6c4c 38bf
000003f0: 1cb8 95be 70b2 17be c070 aebe 6586 bebe

conv.0.bias f4 [32]
-3.371155 -6.816766 -2.5200295 -4.752267 -1.7601246 -6.2270174 -4.790236 -5.9311886
-2.6817663 2.0259657 -6.7569523 -5.624677 -4.999628 0.33374587 -5.6080575 -1.6109191
0.6764485 -5.8452725 -5.606543 -2.937045 -2.114511 -5.549071 -4.6301084 -3.6365345
-2.073648 -3.979699 -4.583979 -3.0712547 -4.145391 -6.9435816 -4.712718 1.7368166
00000000: 01c1 57c0 f222 dac0 2a48 21c0 9212 98c0
00000010: c34b e1bf ba43 c7c0 9d49 99c0 4ccc bdc0
00000020: 0fa2 2bc0 6ca9 0140 f438 d8c0 5bfd b3c0
00000030: f4fc 9fc0 bde0 aa3e 3575 b3c0 9932 cebf
00000040: bb2b 2d3f 790c bbc0 cd68 b3c0 8cf8 3bc0
00000050: 2654 07c0 fd91 b1c0 d929 94c0 fbbc 68c0
00000060: a6b6 04c0 63b3 7ec0 f5af 92c0 708f 44c0
00000070: 0ba7 84c0 d231 dec0 96ce 96c0 0250 de3f

conv.2.weight f4 [64, 32, 2, 2]
-0.12054987 1.9111955 0.371099 -0.36481747 -0.23225991 -8.70842 -0.7046902 -2.2941203
1.4500794 1.4395504 -1.0810176 1.402544 0.77319866 1.1122487 -0.22048885 0.5542019
-2.0891812 -0.051185794 0.99489707 1.6151111 -6.1925955 0.8925166 -2.0175061 -5.2565823
-0.4797601 2.452673 -0.93292844 -1.3705153 -0.60328615 -1.2643346 -1.7589629 2.6041157
-2.882155 -1.2302518 -1.4367021 1.8269206 -2.7902515 -2.9372401 -2.421505 -1.6802218
-3.7498379 1.0188462 -0.08178082 -1.8893343 -6.7340813 -1.2981482 0.9448897 0.86587346
-0.6887975 0.5246694 -3.6592078 -0.78506494 -2.391685 -2.581648 -3.3239124 -2.222263
1.2103105 -1.2682165 0.03510965 1.3487793 0.6569819 0.28611943 -0.43216494 0.43684536
-0.22064705 -0.15959986 0.9471997 0.54645914 -3.6800888 0.42174736 3.268947 0.5796154
0.10352419 1.5000176 3.135802 1.5912544 0.7819859 0.16960135 -0.089483954 0.3768674
2.166792 -0.76856726 -0.29539272 1.6583852 0.6959741 -1.4541738 -1.0543779 0.85693103
1.2372664 0.48487058 -2.663645 -3.527398 -0.34433284 -1.337157 -0.040386483 -2.315819
0.8742712 0.7001247 0.15498495 0.25706685 1.093363 0.731232 0.6929872 0.28773418
1.2360917 -8.218864 -0.05174759 0.84525335 -0.4727949 -0.8855173 0.037434433 0.1374382
0.26118687 -0.5569015 -0.79342467 1.2985657 -0.19752756 1.9275761 2.4421997 0.8076597
0.7221149 -1.5080657 0.16019191 4.189814 -0.0992784 -1.9311731 1.4480668 1.0891541
0.70670205 0.91231096 -0.41700107 1.3106271 -11.267673 -22.457415 1.0128151 -2.4672794
-0.29397532 -0.5326482 -1.9494112 -0.07121839 2.626157 -0.28427637 -0.6206895 1.3085145
0.22082333 -0.080755815 -0.06798467 -0.68154645 -21.157625 -13.030674 2.2286713 1.4245856
-1.8166218 0.96198773 -3.9105508 -4.3151617 0.30201152 -3.0256586 -3.7310488 4.024996
-1.62778 -2.8886712 -6.2438717 -5.256678 -4.1452565 -4.0863824 -3.3357646 -3.1078541
-5.231522 -8.526525 0.4688911 1.7989975 -3.7623744 -0.33918473 0.63644266 -0.26483428
1.2587383 3.2761497 -7.9312763 -1.842057 -3.4173605 -3.9166145 -3.6346803 -2.3863044
0.64821076 -0.10385873 -0.7490261 -0.17444411 0.51468265 1.2106067 0.027401166 -0.23437463
-0.49255493 -0.71100616 0.4468791 -0.0409788 -1.2338177 -1.492719 4.779166 -0.18371247
-0.2122332 5.1023536 6.1912937 3.8457577 0.056580313 -1.043777 -0.021396443 -0.5409345
1.0575765 -0.25799793 0.24344203 -0.11327521 0.3976845 -2.8770084 -1.5672021 -1.4611104
1.7657565 -0.6841933 -11.378114 -1.7948439 -2.5504577 -1.4804729 0.029748991 0.47899216
2.2268803 0.6654693 1.5232227 2.4049633 3.0181487 1.763454 0.7604497 5.379395
0.6253241 -0.9268009 0.36600277 -0.21369208 0.12555759 -0.63113225 -0.6739603 -1.0053041
-1.9604424 -10.502001 -0.28575066 0.08323347 -3.5264547 1.5593244 1.1311759 4.436276
1.6381503 0.48395506 2.5030186 3.1170368 1.1426619 0.94718844 0.7975072 -0.011098216
00000000: dae2 f6bd 0ea2 f43f b000 be3e 5bc9 babe
00000010: 8bd5 6dbe b055 0bc1 9466 34bf ded2 12c0
00000020: 349c b93f 3043 b83f c95e 8abf 9086 b33f
00000030: 59f0 453f 2a5e 8e3f d4c7 61be 2de0 0d3f
00000040: 25b5 05c0 32a8 51bd 93b1 7e3f f6bb ce3f
00000050: be29 c6c0 f87b 643f d21e 01c0 ec35 a8c0
00000060: 1ea3 f5be 98f8 1c40 66d4 6ebf 0c6d afbf
00000070: f670 1abf b7d5 a1bf b225 e1bf d5a9 2640
00000080: 3a75 38c0 e478 9dbf dbe5 b7bf 89d8 e93f
00000090: 7b93 32c0 befb 3bc0 f0f9 1ac0 8211 d7bf
000000a0: 58fd 6fc0 8d69 823f b47c a7bd b5d5 f1bf
000000b0: 987d d7c0 b829 a6bf 4be4 713f e2a9 5d3f
000000c0: 0855 30bf bc50 063f 7630 6ac0 04fa 48bf
000000d0: 5e11 19c0 b939 25c0 fbba 54c0 8f39 0ec0
000000e0: 74eb 9a3f eb54 a2bf 23cf 0f3d cda4 ac3f
000000f0: f72f 283f 3f7e 923e b944 ddbe 32aa df3e
00000100: 4df1 61be 256e 23be ae7b 723f bfe4 0b3f
00000110: 9386 6bc0 45ef d73e 6d36 5140 ad61 143f
00000120: 7e04 d43d 9400 c03f fbb0 4840 39ae cb3f
00000130: 3a30 483f faab 2d3e 5d43 b7bd c4f4 c03e
00000140: b8ac 0a40 d3c0 44bf b73d 97be f745 d43f
00000150: 5c2b 323f 5e22 babf dbf5 86bf d55f 5b3f
00000160: bf5e 9e3f f540 f83e 2979 2ac0 e4c0 61c0
00000170: 654c b0be f627 abbf 4c6c 25bd 6136 14c0
00000180: 3dd0 5f3f 5f3b 333f 60b4 1e3e 449e 833e
00000190: 52f3 8b3f 0532 3b3f 9c67 313f e551 933e
000001a0: 4138 9e3f 7880 03c1 48f5 53bd 8662 583f
000001b0: 2c12 f2be 43b1 62bf d954 193d 99bc 0c3e
000001c0: 49ba 853e 1991 0ebf e11d 4bbf 6737 a63f
000001d0: aa44 4abe d0ba f63f 004d 1c40 c9c2 4e3f
000001e0: 86dc 383f 4c08 c1bf 5909 243e f512 8640
000001f0: 7952 cbbd ae30 f7bf 415a b93f 6769 8b3f
00000200: 6dea 343f 368d 693f 2a81 d5be a1c2 a73f
00000210: 6348 34c1 c9a8 b3c1 eda3 813f e8e7 1dc0
00000220: ef83 96be a25b 08bf 4e86 f9bf f2da 91bd
00000230: f512 2840 ac8c 91be 82e5 1ebf 677d a73f
00000240: 831f 623e 4e63 a5bd 8c3b 8bbd d479 2ebf
00000250: d142 a9c1 a47d 50c1 8da2 0e40 d258 b63f
00000260: 1087 e8bf d444 763f 7746 7ac0 ce15 8ac0
00000270: 41a1 9a3e 64a4 41c0 81c9 6ec0 c4cc 8040
00000280: 185b d0bf fddf 38c0 cccd c7c0 b536 a8c0
00000290: f1a5 84c0 a5c3 82c0 2b7d 55c0 15e7 46c0
000002a0: a168 a7c0 a56c 08c1 7f12 f03e 8d45 e63f
000002b0: beca 70c0 9fa9 adbe e8ed 223f 5c98 87be
000002c0: 561e a13f 70ac 5140 04cd fdc0 86c8 ebbf
000002d0: 09b6 5ac0 d0a9 7ac0 9a9e 68c0 36b9 18c0
000002e0: 24f1 253f e3b3 d4bd 2dc0 3fbf 7aa1 32be
000002f0: 3ec2 033f 29f5 9a3f 6978 e03c e7ff 6fbe
00000300: 2930 fcbe 8004 36bf 56cd e43e 63d9 27bd
00000310: bded 9dbf 6b11 bfbf eeee 9840 1f1f 3cbe
00000320: a953 59be 7b46 a340 141f c640 e520 7640
00000330: c2c0 673d 7c9a 85bf 9847 afbc af7a 0abf
00000340: ab5e 873f 4e18 84be de48 793e d5fc e7bd
00000350: 4e9d cb3e e820 38c0 149a c8bf aa05 bbbf
00000360: 4f04 e23f 4b27 2fbf c10c 36c1 72bd e5bf
00000370: b33a 23c0 2380 bdbf 28b4 f33c 763e f53e
00000380: 3585 0e40 325c 2a3f f6f8 c23f ebea 1940
00000390: 5929 4140 dcb8 e13f d5ac 423f 0124 ac40
000003a0: 3d15 203f d342 6dbf b764 bb3e 19d2 5abe
000003b0: 2b92 003e e291 21bf aa88 2cbf cead 80bf
000003c0: c7ef fabf 3208 28c1 e94d 92be 4f76 aa3d
000003d0: 6fb1 61c0 f197 c73f 5fca 903f f9f5 8d40
000003e0: e9ae d13f f5c8 f73e 7531 2040 887d 4740
000003f0: bf42 923f f17a 723f 6f29 4c3f 4bd5 35bc

conv.2.bias f4 [64]
-0.14679058 -0.85288787 0.7755747 0.19859222 -0.12558573 -0.29489985 0.9040159 -0.2679346
-1.4738368 0.117752746 -1.0413209 -0.25782222 0.49203053 -0.1633333 -0.08804145 -0.13300756
-0.24962856 0.5570193 -2.2247043 0.068343885 -0.28974935 0.030182207 -0.031055694 0.0057966206
-0.34170893 -0.38715923 0.03288385 0.20915668 0.4688747 -0.6979945 0.6009325 0.833453
-0.48784825 0.7859256 -0.22070868 0.27451247 -0.32368553 -0.2156517 0.3977123 -0.35700998
0.67920935 -0.14317103 -0.15360516 0.22803774 -0.11194647 0.7654518 -0.3801196 1.0502495
-0.019701833 -0.4631657 -0.21722291 0.028036797 0.08939687 0.25679517 0.12891395 1.0740846
0.6110692 -0.33318332 -0.016197702 -0.01894035 0.09064718 -0.5035772 0.9336505 0.61816925
00000000: 4550 16be dc56 5abf 108c 463f c25b 4b3e
00000010: 8c99 00be 1dfd 96be 966d 673f b92e 89be
00000020: afa6 bcbf 5a28 f13d 014a 85bf 4601 84be
00000030: 6deb fb3e d840 27be 134f b4bd 2233 08be
00000040: a19e 7fbe d198 0e3f 8e61 0ec0 e1f7 8b3d
00000050: 075a 94be ad40 f73c 8368 febc 94f1 bd3b
00000060: 79f4 aebe bc39 c6be 37b1 063d 2b2d 563e
00000070: 5810 f03e c4af 32bf b6d6 193f 2d5d 553f
00000080: 3fc7 f9be 6c32 493f 7501 62be e68c 8c3e
00000090: 1cba a5be cdd3 5cbe f2a0 cb3e 03ca b6be
000000a0: aae0 2d3f 6d9b 12be ac4a 1dbe ba82 693e
000000b0: 3144 e5bd a6f4 433f 099f c2be 936e 863f
000000c0: bd65 a1bc 0e24 edbe af6f 5ebe 6dad e53c
000000d0: b515 b73d a87a 833e 0502 043e 9b7b 893f
000000e0: 086f 1c3f 0197 aabe 0bb1 84bc cb28 9bbc
000000f0: 3ba5 b93d 6fea 00bf b803 6f3f 5740 1e3f

conv.3.weight f4 [64]
0.021364074 2.2779424 1.2552744 0.93007755 0.09048412 1.3189923 0.4539474 0.97111225
0.43724734 0.4421476 1.5501179 1.1535325 0.7371821 1.3219129 0.17749414 -0.02267408
0.43956113 1.0591844 2.167057 0.4065471 0.35266 0.11857208 1.7265747 0.11603868
0.04794229 0.1101363 0.15546186 0.27560657 0.34392065 2.3716087 0.16032343 0.87480915
-0.14448847 1.0493336 0.20776935 -0.22955486 0.073767714 1.2370558 0.63414764 1.6867894
0.5906184 0.20813693 0.0151693905 0.96293944 0.94590497 0.9330931 0.97356975 1.8405131
0.14778562 0.25638685 1.3690472 -0.022294628 1.1588249 0.10511933 0.033560608 1.5525836
-0.01048978 0.76802397 0.036338914 1.2247514 0.06517965 0.5068124 2.1521616 2.7263162
00000000: b603 af3c cfc9 1140 d5ac a03f 9019 6e3f
00000010: bd4f b93d bdd4 a83f cb6b e83e d09a 783f
00000020: e2de df3e 2c61 e23e 436a c63f f4a6 933f
00000030: f7b7 3c3f 7134 a93f 06c1 353e febe b9bc
00000040: 280e e13e 5b93 873f 10b1 0a40 f126 d03e
00000050: da8f b43e ebd5 f23d 6600 dd3f b0a5 ed3d
00000060: 225f 443d 248f e13d 6531 1f3e 4e1c 8d3e
00000070: 5e16 b03e 70c8 1740 d32b 243e 7ef3 5f3f
00000080: c9f4 13be 9050 863f 7dc1 543e 6e10 6bbe
00000090: 8713 973d d857 9e3f 8057 223f b7e8 d73f
000000a0: c432 173f d921 553e 0989 783c 3383 763f
000000b0: d426 723f 30df 6e3f de3b 793f ef95 eb3f
000000c0: 1d55 173e 2345 833e f03c af3f 39a3 b6bc
000000d0: 6054 943f ce48 d73d d976 093d 0fbb c63f
000000e0: 54dd 2bbc 389d 443f 1dd8 143d a7c4 9c3f
000000f0: e97c 853d 75be 013f 04bd 0940 f77b 2e40

conv.3.bias f4 [64]
-0.53182036 -1.1348794 0.30311117 1.5293695 -0.73861325 0.30385238 -1.1802824 0.025497617
1.5787436 0.4191624 2.3466575 -0.011971853 -1.8580363 -0.94284254 -0.5910138 -0.2315606
2.5660846 0.54159164 -1.2272779 0.45067546 -1.7252657 -0.95405513 -0.046723917 -0.7146936
-0.6658127 -0.8040249 -1.0731645 -1.2554619 -1.0987995 -1.4096605 -1.1367298 -0.070263706
0.74871075 -1.9510936 -0.66053814 -0.005896954 -0.5100767 0.031412914 0.9979532 0.27184638
0.6911914 0.5043086 -0.47672498 1.9297507 -0.35425335 -0.014689213 -1.427226 2.7190387
-0.80588347 -0.93964195 2.5309696 -0.34819597 -0.8637878 -0.8692856 -0.5023407 3.1788924
-0.1581061 -1.0249978 -0.38929054 1.7609028 -0.53289217 0.6124472 0.37379822 -0.91771126
00000000: 6125 08bf ba43 91bf 6331 9b3e 61c2 c33f
00000010: c215 3dbf 8a92 9b3e 7e13 97bf 61e0 d03c
00000020: 4514 ca3f 749c d63e a32f 1640 9725 44bc
00000030: 22d4 edbf 215e 71bf ae4c 17bf 391e 6dbe
00000040: bb3a 2440 c0a5 0a3f 7117 9dbf efbe e63e
00000050: 82d5 dcbf f53c 74bf 9461 3fbd 29f6 36bf
00000060: b372 2abf 93d4 4dbf 745d 89bf fab2 a0bf
00000070: 76a5 8cbf c16f b4bf 5d80 91bf 6be6 8fbd
00000080: 82ab 3f3f 6fbd f9bf 0719 29bf 3c3b c1bb
00000090: 6394 02bf d4aa 003d dc79 7f3f 732f 8b3e
000000a0: ebf1 303f 5e1a 013f 4c15 f4be 1202 f73f
000000b0: b260 b5be 06ab 70bc 57af b6bf bb04 2e40
000000c0: 614e 4ebf 608c 70bf 68fb 2140 be46 b2be
000000d0: 3221 5dbf 8089 5ebf 6699 00bf f972 4b40
000000e0: 91e6 21be 2133 83bf 1751 c7be 4365 e13f
000000f0: 9f6b 08bf 57c9 1c3f 7b62 bf3e 20ef 6abf

conv.3.running_mean f4 [64]
-55.149353 -71.50524 -211.97136 -141.36525 -65.53555 -4.5434194 -161.11334 -38.576523
16.645388 -6.0327125 -34.964714 -39.83799 -32.37885 -101.037224 -34.4749 -12.695907
16.234009 -13.805502 -19.45778 -56.500664 -21.048254 -107.83696 -239.6154 -81.227425
3.9380238 23.691828 -98.12905 -36.50948 -57.301685 -31.513561 -18.353313 -108.17617
-54.6009 -4.1307454 -142.2389 -83.83742 -1.7689602 -63.428093 -25.740873 -109.32633
22.492565 -88.497185 -14.388243 54.708927 -142.14604 -78.709625 -155.60616 25.072113
-5.7757173 -0.1420045 21.572546 -27.327723 -72.19951 -34.801586 -42.175537 22.432756
-109.117065 4.900141 -22.286417 10.613307 -32.669285 22.789993 -301.3953 -26.270002
00000000: f098 5cc2 af02 8fc2 abf8 53c3 815d 0dc3
00000010: 3412 83c2 b163 91c0 041d 21c3 5c4e 1ac2
00000020: c129 8541 fb0b c1c0 dedb 0bc2 1a5a 1fc2
00000030: f183 01c2 0f13 cac2 4ce6 09c2 6f22 4bc1
00000040: 40df 8141 56e3 5cc1 89a9 9bc1 ae00 62c2
00000050: d362 a8c1 86ac d7c2 8b9d 6fc3 7174 a2c2
00000060: 9508 7c40 dd88 bd41 1342 c4c2 b509 12c2
00000070: ed34 65c2 c61b fcc1 96d3 92c1 335a d8c2
00000080: 5267 5ac2 112f 84c0 293d 0ec3 c2ac a7c2
00000090: 4a6d e2bf 5eb6 7dc2 4fed cdc1 15a7 dac2
000000a0: c6f0 b341 8ffe b0c2 3e36 66c1 f1d5 5a42
000000b0: 6325 0ec3 546b 9dc2 2d9b 1bc3 b093 c841
000000c0: add2 b8c0 a169 11be 9394 ac41 2d9f dac1
000000d0: 2666 90c2 d334 0bc2 c0b3 28c2 4976 b341
000000e0: f03b dac2 f4cd 9c40 954a b2c1 1bd0 2941
000000f0: 59ad 02c2 e851 b641 99b2 96c3 f728 d2c1

conv.3.running_var f4 [64]
4021.9592 9194.645 26320.48 17379.86 9598.1045 18965.57 23374.744 13259.064
196.97781 314.2265 2981.5127 1533.9436 513.0696 3626.7183 2240.4382 6724.216
1294.189 1928.0367 4082.791 12252.773 2708.7534 13314.747 46330.33 17353.055
250.86256 171.89929 7420.1963 2389.57 2866.485 3589.169 1151.9006 6538.294
34096.69 581.8231 19707.404 17071.883 1520.5358 12057.772 574.09607 15620.101
514.6404 13307.691 459.076 14223.072 19905.332 14088.481 16765.113 1692.6525
3358.0496 228.44041 1737.4216 1316.0096 2865.4788 2055.0596 3139.5513 3371.3052
20167.95 1125.63 3801.2517 3121.4187 1809.473 11625.504 61888.7 10012.489
00000000: 595f 7b45 94aa 0f46 f6a0 cd46 b8c7 8746
00000010: 6bf8 1546 242b 9446 7d9d b646 422c 4f46
00000020: 52fa 4443 fe1c 9d43 3458 3a45 32be bf44
00000030: 7444 0044 7eab 6245 0307 0c45 ba21 d245
00000040: 0cc6 a144 2d01 f144 a82c 7f45 1873 3f46
00000050: 0e4c 2945 fd0a 5046 54fa 3447 1c92 8746
00000060: d1dc 7a43 38e6 2b43 92e1 e745 1f59 1545
00000070: c327 3345 b452 6045 d2fc 8f44 5a52 cc45
00000080: b130 0547 ae74 1144 cff6 9946 c45f 8546
00000090: 2511 be44 1767 3c46 2686 0f44 6710 7446
000000a0: fca8 0044 c4ee 4f46 ba89 e543 4a3c 5e46
000000b0: aa82 9b46 ed21 5c46 3afa 8246 e194 d344
000000c0: cbe0 5145 bf70 6443 7e2d d944 4f80 a444
000000d0: a917 3345 f470 0045 d238 4445 e2b4 5245
000000e0: e68f 9d46 29b4 8c44 0794 6d45 b316 4345
000000f0: 232f e244 04a6 3546 b3c0 7147 f571 1c46

linear.weight f4 [256, 576]
0.032933056 0.036610916 -0.060894467 0.008924063 -0.06776369 -0.030996464 0.04552995 -0.0128762005
-0.09180744 -0.02613759 -0.0145407375 -0.0012292613 -0.0144284135 -0.008538202 0.030988647 -0.018529087
0.026397469 -0.03898601 0.017952345 -0.037311986 0.02369371 0.07190841 0.013373199 -0.11945314
0.050103173 0.015046906 0.0026972396 -0.018377678 0.0044010435 -0.099065274 0.057974305 -0.02507441
-0.015102442 -0.060517456 0.0099545745 -0.054281693 0.004334894 -0.002381332 -0.029583968 -0.054695588
0.081655756 -0.08700384 0.07819682 0.00046491338 -0.063716434 -0.03693016 -0.01869927 0.030015435
0.040537447 -0.06549987 -0.03354018 0.04682045 0.010817245 -0.008791053 -0.027400514 -0.003724843
-0.011949374 0.06542295 0.065157995 0.030430317 0.030354463 -0.018883387 0.088113494 0.006286546
-0.001942968 -0.015376625 -0.00843359 0.027204763 0.010969338 -0.033696882 -0.017312713 -0.02457563
-0.014471808 -0.059138384 -0.10370993 -0.0006603124 0.074562676 -0.067055754 -0.03589443 -0.010120709
-0.03913983 -0.08113147 0.025071068 0.014518665 0.014743189 0.06720308 0.0021043064 -0.011288385
-0.057632443 -0.1311447 -0.06719325 -0.036387235 -0.063052945 0.068010226 0.016738836 0.07565648
-0.046483252 -0.011258142 0.032501467 -0.026806712 -0.0887082 -0.025677118 -0.024724314 -0.059882898
-0.076597355 0.03369121 -0.08681647 0.026740862 0.000665628 -0.022482771 0.014477677 0.04457361
-0.0019465936 0.033273615 -0.0032488485 -0.044328656 0.023639362 -0.022576157 -0.014092005 0.045785837
0.04808166 0.038051028 0.08477372 0.024002926 0.032266676 0.010085313 0.075624675 0.06782724
0.007030548 0.041739304 -0.06865633 0.020374978 0.050714623 0.013908912 0.013804843 -0.04373488
-0.020967454 -0.038356747 0.040816694 -0.08122704 -0.10172174 -0.16196004 -0.06848674 -0.06401376
-0.0498933 -0.084393404 -0.0962183 -0.03150538 -0.054697573 -0.053285427 -0.06525647 -0.0532717
0.045768876 -0.13715377 -0.017610334 -0.13229583 0.018392812 -0.027226647 -0.049974937 -0.030830698
0.105481185 -0.07437613 -0.004313532 -0.08643187 0.017739989 -0.03154539 -0.005759391 0.012670795
-0.049291134 -0.008711133 0.017217001 -0.014558125 -0.026591979 -0.030004751 0.07442754 -0.076740816
0.032160517 0.060438104 -0.13089582 -0.13467346 -0.053850748 0.044297952 -0.115960896 -0.0031558766
0.03964867 -0.04167472 0.008640553 -0.118461795 0.0637474 -0.052614886 0.014479612 -0.06556164
0.00833577 0.07049057 -0.045544706 0.020578464 0.07052978 -0.015291026 -0.04690705 -0.022497732
-0.0058642887 0.020249773 0.03705221 0.00670806 0.061575532 -0.001969407 0.009653392 -0.010268984
-0.02609037 0.017554903 -0.011256131 -0.008578521 0.041785706 0.0386184 -0.052749474 -0.023111703
0.04434858 0.03887568 0.08009213 0.05907593 0.013299848 0.041161656 0.013120232 -0.07298622
-0.07059211 0.041740175 0.08443029 -0.011376484 0.042759765 -0.06483809 0.015205809 -0.06344846
-0.06163733 -0.14714882 -0.016290434 0.040539682 0.04031872 0.024638526 -0.0016671643 -0.043487635
0.0003164009 -0.03596906 -0.049839016 0.019656321 0.028964818 0.025870405 -0.005108054 -0.06391369
-0.026986342 0.051169477 0.02555955 -0.034818243 -0.056110226 -0.000879679 -0.028755642 0.033935774
00000000: d0e4 063d 54f5 153d 7a6c 79bd 3c36 123c
00000010: b1c7 8abd 4cec fdbc 9d7d 3a3d b3f6 52bc
00000020: 8a05 bcbd 801e d6bc 463c 6ebc 2a1f a1ba
00000030: 2765 6cbc d1e3 0bbc e7db fd3c 50ca 97bc
00000040: 813f d83c cbaf 1fbd cc10 933c 74d4 18bd
00000050: 5019 c23c b744 933d 431b 5b3c d9a3 f4bd
00000060: fc38 4d3d 4c87 763c 2cc4 303b c98c 96bc
00000070: a136 903b bce2 cabd 7776 6d3d d968 cdbc
00000080: 3c70 77bc 27e1 77bd 8318 233c 7b56 5ebd
00000090: ba0b 8e3b 1f10 1cbb 145a f2bc 7b08 60bd
000000a0: 223b a73d 122f b2bd a825 a03d 9ebf f339
000000b0: c37d 82bd 1444 17bd 362f 99bc eee2 f53c
000000c0: 980a 263d cc24 86bd 6e61 09bd cdc6 3f3d
000000d0: d03a 313c 5908 10bc 0b77 e0bc 7f1c 74bb
000000e0: 4fc7 43bc 78fc 853d 8e71 853d 0049 f93c
000000f0: eca9 f83c 55b1 9abc d974 b43d 5fff cd3b
00000100: 30ab feba 3dee 7bbc 0a2d 0abc 86dc de3c
00000110: bdb8 333c be05 0abd 64d3 8dbc d552 c9bc
00000120: 2a1b 6dbc 173b 72bd df65 d4bd d118 2dba
00000130: 51b4 983d 8754 89bd 0a06 13bd 55d1 25bc
00000140: 1651 20bd 4228 a6bd d761 cd3c b2df 6d3c
00000150: 6b8d 713c c5a1 893d 67e8 093b ebf2 38bc
00000160: ff0f 6cbd cc4a 06be 9d9c 89bd c80a 15bd
00000170: e721 81bd f248 8b3d e21f 893c c9f1 9a3d
00000180: 3965 3ebd 1274 38bc 4220 053d c099 dbbc
00000190: a5ac b5bd d258 d2bc a58a cabc c547 75bd
000001a0: 13df 9cbd cbff 093d d5cc b1bd a70f db3c
000001b0: 8a7d 2e3a ca2d b8bc c733 6d3c d192 363d
000001c0: d824 ffba ea49 083d a2ea 54bb f791 35bd
000001d0: 56a7 c13c a2f1 b8bc 27e2 66bc ee89 3b3d
000001e0: 46f1 443d 65db 1b3d d89d ad3d c9a1 c43c
000001f0: 102a 043d de3c 253c 1ce1 9a3d 02e9 8a3d
00000200: 8360 e63b d5f6 2a3d b19b 8cbd 6de9 a63c
00000210: 23ba 4f3d 35e2 633c b52d 623c 5823 33bd
00000220: f0c3 abbc f71b 1dbd 682f 273d 5d5a a6bd
00000230: 7d53 d0bd dad8 25be c742 8cbd a519 83bd
00000240: eb5c 4cbd 73d6 acbd 1a0e c5bd c90b 01bd
00000250: 900a 60bd d241 5abd 2fa5 85bd 6d33 5abd
00000260: 2578 3b3d 0a72 0cbe 8c43 90bc 8f78 07be
00000270: 86ac 963c 6b0a dfbc 85b2 4cbd a990 fcbc
00000280: 8506 d83d 8352 98bd 8758 8dbb 3103 b1bd
00000290: 7453 913c bd35 01bd 46b9 bcbb 2b99 4f3c
000002a0: 80e5 49bd 24b9 0ebc ab0a 8d3c 3485 6ebc
000002b0: 6cd7 d9bc 86cc f5bc 776d 983d 4a2a 9dbd
000002c0: bfba 033d f28d 773d 8e09 06be d7e7 09be
000002d0: 9a92 5cbd c571 353d e87c edbd d3d2 4ebb
000002e0: a566 223d 1cb3 2abd 1b91 0d3c 199c f2bd
000002f0: ff8d 823d b582 57bd e53b 6d3c 2e45 86bd
00000300: c192 083c 5c5d 903d 168d 3abd 2b94 a83c
00000310: eb71 903d 3687 7abc 9b21 40bd 2a4d b8bc
00000320: 3829 c0bb dae2 a53c 0fc4 173d 49cf db3b
00000330: a036 7c3d 2b11 01bb 4329 1e3c 3e3f 28bc
00000340: 79bb d5bc 4dcf 8f3c a36b 38bc ed8c 0cbc
00000350: 7d27 2b3d 542e 1e3d d50f 58bd c154 bdbc
00000360: dba6 353d 1b3c 1f3d 5807 a43d 9af9 713d
00000370: 9be7 593c 2099 283d 3ef6 563c cd79 95bd
00000380: 9992 90bd bff7 2a3d cae9 ac3d 6f64 3abc
00000390: dd24 2f3d d5c9 84bd c921 793c 44f1 81bd
000003a0: 6d77 7cbd 2eae 16be 8473 85bc f00c 263d
000003b0: 3e25 253d bcd6 c93c c084 daba 1720 32bd
000003c0: 9ce2 a539 4b54 13bd ff23 4cbd 4b06 a13c
000003d0: a047 ed3c 2cee d33c 7661 a7bb 2ee5 82bd
000003e0: 7612 ddbc 1697 513d 4362 d13c 939d 0ebd
000003f0: d6d3 65bd 429a 66ba f490 ebbc 3d00 0b3d

linear.bias f4 [256]
-0.035940975 0.4214197 0.11568224 -0.005895934 -0.2956725 0.018587016 0.4602301 0.0064487616
-0.14656453 -0.048912432 -0.009355887 0.21574399 11.709826 0.015576823 9.40091 -0.048459407
0.8157145 -0.04253689 -0.2646365 4.447537 -0.02898333 -0.010376454 -0.26139095 -0.05374201
-0.021626528 0.80210716 0.009322841 0.729515 0.0036138017 -0.039398912 -0.037991524 6.309849
-0.04342747 -0.028091423 0.015965154 0.014955304 -0.016377063 -0.16009545 -0.003186569 -0.04979684
0.024069145 -0.0584125 -0.020402825 0.0023271525 -0.03722399 -0.47018874 -0.3294896 -0.060001314
4.3474927 -0.009406255 -0.03997959 -0.03499789 -0.07185432 -0.10429052 -0.047319453 -0.015127821
-0.022629973 -0.013971915 -0.056640994 -0.035705324 -0.030910522 0.42556146 -0.002711036 0.00437535
0.018007066 -0.18080448 0.3940711 0.02369351 -0.054709774 0.2122993 1.7868636 0.007774891
-0.010792804 0.487019 -0.055010017 15.995853 0.017969584 -0.055152465 -0.026399817 -0.05306156
-0.11775501 -0.011965804 -0.1619989 -0.06372878 -0.10733055 -0.045503512 0.010819056 0.037628442
3.9277031 -0.029129727 -0.50570786 -0.042880397 0.046958458 0.00516195 6.7398133 -0.012060029
-0.104828455 -0.0395255 -0.4233778 0.008228415 -0.48171738 0.108631305 -0.5886469 -0.045314893
-0.035589136 0.7809375 0.0748387 -0.08526499 -0.059519626 0.07812645 -0.03508944 -0.45174345
-0.05580692 -0.06547519 0.72187364 0.0019010729 0.0058500585 0.28411677 -0.04931634 0.42717198
-0.00037085838 0.23006074 0.033177566 -0.14981699 -0.05529442 0.019136373 0.0017645078 -0.019630186
-0.22465092 0.00036776805 0.23826809 -0.5145697 0.15064058 -0.008929292 -0.020900892 -0.09500593
0.16444899 0.03340697 -0.23013279 0.24080254 -0.29511976 0.014279802 -0.033341315 0.010090142
0.004508058 -0.01592788 -0.025677769 -0.021374619 0.012236032 0.01594748 3.7353196 -0.01758383
0.019741893 0.014395029 0.2461774 -0.13275924 0.6642312 1.5849247 -0.04952102 0.7952372
-0.05044832 0.7209564 13.679314 0.0070286985 2.9557502 -0.022074804 0.007590696 -0.0378251
-0.061193753 2.7905197 0.6049731 -0.053298954 0.09868551 -0.34383664 -0.00016683286 0.5922739
-2.7823708e-05 1.1777515 0.12465853 0.01987126 -0.4837205 0.29765907 -0.0011984719 -0.008222486
-0.49757627 -0.014173425 -0.16933519 0.23387174 -0.04419095 0.0072163492 -0.014299145 -0.1926895
0.336357 -0.0024911456 -0.023910562 -0.052242685 3.1931767 -0.015167601 -0.05881667 0.1371349
0.009280313 0.0041901353 0.12491863 -0.02285284 0.008733509 0.010947182 -0.032590434 -0.06250943
0.008371325 -0.003252616 -0.066931784 -0.045524508 0.31176972 0.0017442094 -0.039205473 -0.10893206
-0.2509953 7.193757 -0.004018014 -0.14855039 -0.057067066 0.012391326 -0.19581752 -0.017784761
-0.010911355 -0.032172985 -0.22267602 -0.042987116 0.017377391 0.35968974 1.0283396 4.506619
-0.19052485 0.01807169 -0.01076839 0.23769103 -0.036837082 -0.1390883 -0.21644764 -0.017093034
-0.26613036 0.26260716 0.015920348 -0.05505533 -0.36593905 1.2854729 -0.025703868 0.64401966
-0.01767941 -0.052858975 -0.038503584 -0.0039627342 0.011422705 0.9511978 0.002028456 -0.13717683
00000000: d836 13bd 53c4 d73e cfea ec3d ae32 c1bb
00000010: 6362 97be cc43 983c 48a3 eb3e 2250 d33b
00000020: 0315 16be 6758 48bd 6f49 19bc feeb 5c3e
00000030: 735b 3b41 ee35 7f3c 216a 1641 5f7d 46bd
00000040: aad2 503f 293b 2ebd 6f7e 87be 3952 8e40
00000050: 736e edbc 0102 2abc 09d5 85be 9520 5cbd
00000060: 1e2a b1bc e556 4d3f d4be 183c 7fc1 3a3f
00000070: 88d5 6c3b c160 21bd 009d 1bbd 48ea c940
00000080: 01e1 31bd fc1f e6bc 5bc9 823c 1707 753c
00000090: 3129 86bc 10f0 23be c2d5 50bb c5f7 4bbd
000000a0: a82c c53c f241 6fbd d323 a7bc 2483 183b
000000b0: 2f78 18bd 94bc f0be dcb2 a8be f0c3 75bd
000000c0: a91e 8b40 b11c 1abc a3c1 23bd f359 0fbd
000000d0: 5c28 93bd 4596 d5bd 0bd2 41bd aeda 77bc
000000e0: 7e62 b9bc 75ea 64bc 6300 68bd bf3f 12bd
000000f0: 1038 fdbc 31e3 d93e a3ab 31bb 195f 8f3b
00000100: 8e83 933c cf24 39be b0c3 c93e e418 c23c
00000110: 5b17 60bd fd64 593e f2b7 e43f 83c4 fe3b
00000120: 4dd4 30bc 8e5a f93e 2f52 61bd 04ef 7f41
00000130: f334 933c 8de7 61bd 6e44 d8bc 1457 59bd
00000140: 8a29 f1bd 380c 44bc 0ae3 25be 3c84 82bd
00000150: 1fd0 dbbd e461 3abd 6942 313c 4820 1a3d
00000160: 7d5f 7b40 77a1 eebc 1276 01bf 5ba3 2fbd
00000170: 8357 403d 9325 a93b 8dac d740 6e97 45bc
00000180: 4db0 d6bd 7ee5 21bd fac4 d8be 79d0 063c
00000190: a9a3 f6be 177a de3d 90b1 16bf 1c9c 39bd
000001a0: eac5 11bd 85eb 473f 0845 993d 699f aebd
000001b0: daca 73bd c300 a03d f2b9 0fbd eb4a e7be
000001c0: cc95 64bd db17 86bd b6cc 383f 6c2d f93a
000001d0: d9b1 bf3b c177 913e eeff 49bd 49b6 da3e
000001e0: c56f c2b9 0b95 6b3e 33e5 073d a069 19be
000001f0: 677c 62bd e2c3 9c3c 0f47 e73a 7ccf a0bc
00000200: e40a 66be fed0 c039 8dfc 733e d7ba 03bf
00000210: 8641 1a3e 2a4c 12bc 5938 abbc 7892 c2bd
00000220: 5165 283e bfd5 083d eea7 6bbe f194 763e
00000230: f019 97be d5f5 693c e790 08bd 1f51 253c
00000240: 55b8 933b 2f7b 82bc 2f5a d2bc d319 afbc
00000250: a379 483c 4aa4 823c 7a0f 6f40 f70b 90bc
00000260: c0b9 a13c 21d9 6b3c ee15 7c3e 0af2 07be
00000270: 0e0b 2a3f d0de ca3f 8ed6 4abd aa94 4b3f
00000280: e6a2 4ebd 9990 383f 78de 5a41 ff50 e63b
00000290: 032b 3d40 38d6 b4bc 60bb f83b 7eee 1abd
000002a0: 4da6 7abd e097 3240 84df 1a3f 0150 5abd
000002b0: a11b ca3d 5b0b b0be dbef 2eb9 439f 173f
000002c0: f566 e9b7 90c0 963f f94c ff3d 0dc9 a23c
000002d0: 37aa f7be c566 983e 0b16 9dba 9bb7 06bc
000002e0: 51c2 febe a737 68bc 3466 2dbe 137c 6f3e
000002f0: 9201 35bd 2077 ec3b f646 6abc 6550 45be
00000300: fc36 ac3e 7d42 23bb 15e0 c3bc 6dfc 55bd
00000310: 025d 4c40 8881 78bc c0e9 70bd 176d 0c3e
00000320: 740c 183c 674d 893b 57d5 ff3d e135 bbbc
00000330: fe16 0f3c cf5b 333c 8c7d 05bd f204 80bd
00000340: e227 093c d729 55bb 8813 89bd e877 3abd
00000350: 48a0 9f3e f59d e43a eb95 20bd c617 dfbd
00000360: 7582 80be 4233 e640 8ba9 83bb 981d 18be
00000370: 28bf 69bd fd04 4b3c 6384 48be 59b1 91bc
00000380: 8ac5 32bc d2c7 03bd 2f05 64be 4213 30bd
00000390: 085b 8e3c 4129 b83e a2a0 833f 3936 9040
000003a0: f218 43be 150b 943c e76d 30bc 4765 733e
000003b0: 7be2 16bd 2a6d 0ebe 73a4 5dbe b106 8cbc
000003c0: 3d42 88be 7274 863e 646b 823c b381 61bd
000003d0: 5d5c bbbe 608a a43f eb90 d2bc 79de 243f
000003e0: 69d4 90bc a782 58bd efb5 1dbd d3d9 81bb
000003f0: 4c26 3b3c b381 733f d8ef 043b 1578 0cbe
