previous_models/Vec5.pth (torch, 631812 bytes, 10 tensors)

conv.0.weight f4 [32, 7, 2, 2]
00000000: f2ce cfbf 572b 12bf b7dd 72be 7fb6 023f
00000010: 12bb 32bf 1855 383f 8c56 ffbf 1e54 ffbd
00000020: 3c39 59bf 2cd8 cf3d fc00 7ebe b5c4 c3bf
00000030: 83ec 773e 16fa bebf ccf9 6cc0 e886 afbd
00000040: 0b6d cabe 09de b0be 98f2 96c0 c362 73c0
00000050: eec2 e43f 27f9 d73f 3851 053f 07cf 48c0
00000060: 19f4 3ebd ce4b 0b3e 801b 553e ddfd 2a3e
00000070: c8f2 07be 2b62 a340 2958 4ebf c7c8 cd3c
00000080: d689 a43f 15ed fcbe a986 9bc0 c341 013f
00000090: c0db 803f cbca 7abe 00a4 5ec0 3609 2bbd
000000a0: d564 d43e 9f31 1140 bbe6 5dc0 b758 cf3e
000000b0: e982 52be 895a 843f 7ea9 98c0 dbb1 363d
000000c0: d435 13be 527d 203f d4c1 edbf eede 7cbe
000000d0: 7384 df3e d99e 0e3f d2b0 323f ed92 3c3f
000000e0: 986f 06bf 9424 b7bd f45c 523e 5733 e73f
000000f0: 8012 0c3f 9b78 0740 d55b 843e 069d 8dbe
00000100: 9f6c f43e 9411 e33d ef78 49be a25f 993e
00000110: 245f 9d3f 53d4 babe 42b0 27bf dbf4 da3f
00000120: 6e42 de3f f9ef 0c3f 5f5f f63d 1d4e dfbd
00000130: 6963 7f3e e4ba 553f 9fcd 793f 2763 fd3f
00000140: 37ad 9dbd cbc4 38bd ee91 0fbe d763 c8bd
00000150: 6c14 20c0 c640 f83f e7be fb3d c4b4 09c0
00000160: dd13 88bf f794 523f 2e2a 6bbf b7b1 903f
00000170: 2cb0 37c0 5e26 373f 24f3 bd3e a728 90bf
00000180: 8ccd 10c0 e4cc 453e ab11 10bf 5da7 993d
00000190: 36aa b8bf e245 e73f d13b 7e3e f4ab a23e
000001a0: c1e6 67c0 f2c5 2ec0 d2a4 24c0 d332 34be
000001b0: 2c02 0c3f 6db0 1c3f 8618 a83e a8dc 093f
000001c0: 33c4 2fbf 69cc a23f ec5b 4a3f bda5 2b3f
000001d0: b70e 66bf bf75 d33f 54ac 6bbb bf10 ddbd
000001e0: fe3e 7abe ef9b 463f ae94 9e40 afe4 2bbf
000001f0: d2ad 323f 658d fc3f 73b1 3d40 78f8 1abf
00000200: e2c2 693f b1e2 2c40 deed 93be 2e64 3ebf
00000210: 11bb 3a40 ddd9 2040 2287 a140 6849 22bf
00000220: 7ba4 6fbe 7ca6 fcbd 8cfe 1e3d 5ab1 8bbe
00000230: af7c b440 e90c 52be 980a 1fbe 464f bdbf
00000240: f06a bcbe 3e24 573f 90e8 873f 0cc7 a1c0
00000250: bf33 f0be 9685 d83e f741 093f 880a 81c0
00000260: 3ae1 7d3f b1d4 4a3f 7d3a 7b3f 9ff5 7dc0
00000270: 0236 ab3d 8fcd bf3e b174 113f 3c92 94c0
00000280: 12af f83f c358 9e3d 0013 163f fa73 19c0
00000290: e6d5 673e 86e8 973e 61fe d63e cae9 a93e
000002a0: bc87 53c0 6e22 9abf 8a04 b53e 52c7 12bf
000002b0: 7bc3 2a3f bd89 88bf 8e5f 84c0 176c c4be
000002c0: 8934 65bf d42e 8cbe 5eaf 0b40 e45d 113f
000002d0: 8f87 5cc0 5aa7 6abf 49da a53f f9ab 1dc0
000002e0: 9c4e e2bf e31c 953e 867b 52c0 0eb6 45c0
000002f0: ea2a 86c0 f4de d4bf cb7f f0bf 16de af3d
00000300: d694 303d c82b 89be a801 56be 6732 ba3d
00000310: 7f67 30c0 a4f4 a5c0 7d24 a63f 47a2 c13f
00000320: bea4 b83f b452 ecbe cc5e 8e3f 269c 52c0
00000330: 520e 763f 0d3e 6d3e 0a0f 933f 863b a63f
00000340: aa51 8ebf 8624 833f f6d2 f53f 85dd 0340
00000350: 6e05 913f 6861 b8be 13da 1e40 305a 0e40
00000360: ce3f 68c0 60bc aebd 4036 d9c0 cc81 d93c
00000370: 600a 003d 9571 88bd a17b 34be eef9 99be
00000380: b1bc 033e 78f5 9d3f 812c 0440 23fd 5a3e
00000390: 32c6 0b3f 8436 cc3f 7f16 02be 7486 03bf
000003a0: 4d01 5c3e ef63 0040 dd13 a13f 7bca 493f
000003b0: 9d74 b83e 00a2 cd3f 5fb8 a93f 4800 303e
000003c0: 43b9 243f 0232 0c40 1bab 513f bc26 223f
000003d0: 319e 813f 3f4a 973e a885 1840 9149 213f
000003e0: 7cbe 26bf 7343 41bf 67aa 60bf 5b5f 4dbf
000003f0: 7a7f 87be b1d2 a9be 7964 8bbe 5961 3a3d
-1.623503 -0.5709738 -0.2371739 0.51059717 -0.69816697 0.7200484 -1.9948287 -0.12467216
-0.8485296 0.101486534 -0.24805063 -1.5294405 0.24211316 -1.492007 -3.7027464 -0.08570653
-0.39536318 -0.345444 -4.7171135 -3.802903 1.7871988 1.687291 0.52077055 -3.137636
-0.04661951 0.13603136 0.20811272 0.16698404 -0.13276207 5.1057334 -0.8060327 0.025120152
1.2854564 -0.4939963 -4.860188 0.5049097 1.0067062 -0.24491422 -3.4787598 -0.04175683
0.4148318 2.2686536 -3.4672077 0.40497372 -0.20557751 1.0340129 -4.77069 0.04460321
-0.14376003 0.62691224 -1.8574777 -0.24694416 0.43655738 0.5571113 0.69801056 0.7366169
-0.5251403 -0.089425236 0.20543271 1.8062543 0.5471573 2.1167362 0.25851312 -0.27658862
0.4773912 0.11087337 -0.19675039 0.29955775 1.229466 -0.36490116 -0.65503323 1.7105974
1.7364023 0.5505367 0.12029909 -0.10903571 0.24940266 0.834883 0.9757938 1.9795884
-0.07699054 -0.04510955 -0.14020512 -0.09784668 -2.5012465 1.9394767 0.12292271 -2.151658
-1.0631062 0.8225855 -0.91861236 1.1304234 -2.8701277 0.7154292 0.37099564 -1.1262406
-2.2625456 0.19316441 -0.5627696 0.07502625 -1.4426944 1.8068202 0.24827506 0.31771815
-3.623459 -2.7308316 -2.5725598 -0.17597513 0.54690814 0.61206704 0.3283121 0.5385232
-0.6865875 1.2718631 0.7904651 0.6704977 -0.89866203 1.6520308 -0.003596087 -0.1079421
-0.24438092 0.77581686 4.9556494 -0.6714582 0.6979648 1.973065 2.9639556 -0.60535383
0.9131299 2.7013361 -0.28892416 -0.7437161 2.9176676 2.5132973 5.0477457 -0.6339326
-0.23402588 -0.12336442 0.038816974 -0.27283746 5.64022 -0.20512737 -0.15531385 -1.4789817
-0.36800337 0.84039676 1.0617847 -5.0555477 -0.4691448 0.42289418 0.5361628 -4.0325356
0.99171793 0.7923079 0.9813612 -3.9681165 0.083599105 0.37461516 0.5681868 -4.642851
1.9428427 0.07731774 0.5862274 -2.3977036 0.2264019 0.2966959 0.4199095 0.3318618
-3.3051596 -1.2041757 0.35355026 -0.5733539 0.6670453 -1.0667034 -4.1366644 -0.38363716
-0.8953329 -0.27379477 2.1825786 0.5678389 -3.4457738 -0.9166161 1.295724 -2.4636214
-1.768024 0.291236 -3.2887893 -3.0892367 -4.1927385 -1.663054 -1.8788999 0.085872814
0.04311069 -0.26791215 -0.2089907 0.09091645 -2.756317 -5.1861134 1.2979885 1.5127648
1.4425275 -0.46156847 1.112268 -3.2907805 0.961156 0.23168202 1.1488965 1.2986915
-1.1118672 1.0245521 1.9205005 2.0603955 1.1329782 -0.36011815 2.4820602 2.2242546
-3.6288943 -0.085320234 -6.7878723 0.02655115 0.031259894 -0.06662289 -0.17625286 -0.30073494
0.12864949 1.2340536 2.0652163 0.21385626 0.545993 1.5954137 -0.12703894 -0.51377034
0.21484871 2.0060995 1.2584187 0.78824586 0.3602647 1.6065063 1.325939 0.17187607
0.64345187 2.1905522 0.8190171 0.63340354 1.0126401 0.29548833 2.3831577 0.6300288
-0.65134406 -0.75493544 -0.87760013 -0.80223626 -0.26464444 -0.33168557 -0.27225092 0.045502994

conv.0.bias f4 [32]
00000000: cc55 73c0 2d09 e2c0 b3d8 23c0 0626 98c0
00000010: ffbb cebf 663c c7c0 b05b afc0 c6a5 c9c0
00000020: 2300 27c0 6f41 0d40 1eec ebc0 96ac c6c0
00000030: 4060 a9c0 adf4 8f3e e292 b9c0 a2e2 90bf
00000040: be26 583d 1959 c9c0 e5ec bac0 6ddd 41c0
00000050: 2654 07c0 f04e b7c0 be40 aac0 9a91 70c0
00000060: da68 1ec0 d514 8ec0 ff0b 99c0 6669 57c0
00000070: 165e 94c0 986f f2c0 5ecf a9c0 2c59 1540
-3.8021116 -7.06362 -2.5601013 -4.7546415 -1.6151122 -6.226123 -5.4799423 -6.301486
-2.6093833 2.2071187 -7.372573 -6.2085676 -5.2929993 0.2811636 -5.79918 -1.1319163
0.052771322 -6.292126 -5.841418 -3.0291398 -2.114511 -5.728386 -5.320403 -3.7588868
-2.4751496 -4.440043 -4.7827144 -3.365808 -4.636485 -7.5761223 -5.3065634 2.3335676

conv.2.weight f4 [64, 32, 2, 2]
00000000: dae2 f6bd 0ea2 f43f b000 be3e 5bc9 babe
00000010: 8bd5 6dbe b055 0bc1 9466 34bf ded2 12c0
00000020: 349c b93f 3043 b83f c95e 8abf 9086 b33f
00000030: 59f0 453f 2a5e 8e3f d4c7 61be 2de0 0d3f
00000040: 25b5 05c0 32a8 51bd 93b1 7e3f f6bb ce3f
00000050: be29 c6c0 f87b 643f d21e 01c0 ec35 a8c0
00000060: 1ea3 f5be 98f8 1c40 66d4 6ebf 0c6d afbf
00000070: f670 1abf b7d5 a1bf b225 e1bf d5a9 2640
00000080: 3a75 38c0 e478 9dbf dbe5 b7bf 89d8 e93f
00000090: 7b93 32c0 befb 3bc0 f0f9 1ac0 8211 d7bf
000000a0: 58fd 6fc0 8d69 823f b47c a7bd b5d5 f1bf
000000b0: 987d d7c0 b829 a6bf 4be4 713f e2a9 5d3f
000000c0: 0855 30bf bc50 063f 7630 6ac0 04fa 48bf
000000d0: 5e11 19c0 b939 25c0 fbba 54c0 8f39 0ec0
000000e0: 74eb 9a3f eb54 a2bf 23cf 0f3d cda4 ac3f
000000f0: f72f 283f 3f7e 923e b944 ddbe 32aa df3e
00000100: 4df1 61be 256e 23be ae7b 723f bfe4 0b3f
00000110: 9386 6bc0 45ef d73e 6d36 5140 ad61 143f
00000120: 7e04 d43d 9400 c03f fbb0 4840 39ae cb3f
00000130: 3a30 483f faab 2d3e 5d43 b7bd c4f4 c03e
00000140: b8ac 0a40 d3c0 44bf b73d 97be f745 d43f
00000150: 5c2b 323f 5e22 babf dbf5 86bf d55f 5b3f
00000160: bf5e 9e3f f540 f83e 2979 2ac0 e4c0 61c0
00000170: 654c b0be f627 abbf 4c6c 25bd 6136 14c0
00000180: 3dd0 5f3f 5f3b 333f 60b4 1e3e 449e 833e
00000190: 52f3 8b3f 0532 3b3f 9c67 313f e551 933e
000001a0: 4138 9e3f 7880 03c1 48f5 53bd 8662 583f
000001b0: 2c12 f2be 43b1 62bf d954 193d 99bc 0c3e
000001c0: 49ba 853e 1991 0ebf e11d 4bbf 6737 a63f
000001d0: aa44 4abe d0ba f63f 004d 1c40 c9c2 4e3f
000001e0: 86dc 383f 4c08 c1bf 5909 243e f512 8640
000001f0: 7952 cbbd ae30 f7bf 415a b93f 6769 8b3f
00000200: 3feb 523f 710f 8e3f b91e afbf 1818 ba3f
00000210: 3062 45c1 ed52 c2c1 6c90 8d3f c9fe 46c0
00000220: 517a 843e 502a 68bf 8f5b e7bf a3cf 40be
00000230: d659 1840 b621 70be f107 97bf 3a59 943f
00000240: 927d f23d 718f 253d 2e9b 7abe 7ed8 77bf
00000250: cb81 bec1 1a44 50c1 a364 1640 f876 c53f
00000260: eb9d 49bf 646e bd3f 1b38 83c0 40c3 89c0
00000270: 82a2 ab3f e645 2fc0 6477 96c0 6dce 7c40
00000280: 1dad 88bf 9f22 6fc0 706f c8c0 4ab2 9bc0
00000290: babf 75c0 3e3c 70c0 72dd 3dc0 7d14 2bc0
000002a0: 53f7 bcc0 ac93 0fc1 0b95 b43d e53b d43f
000002b0: de9d a5c0 a60a 27c0 0efb 783d 6b1b c7bd
000002c0: f739 db3f 12d3 6e40 79d5 08c1 bfd4 0cc0
000002d0: 402c 44c0 d786 66c0 b61a 50c0 6fe7 f0bf
000002e0: 647b 073f f94b 9abe f509 32bf a72f 18be
000002f0: a993 883f 123d 833f d303 bc3d e80d dc3e
00000300: fbfb f4be 219c 2bbf dcc0 dc3e 7e65 2a3d
00000310: 7ab2 bcbf 9f83 13c0 4887 9740 4c79 81be
00000320: 57fe a2be d05a bd40 4170 eb40 099d 8940
00000330: 6ff9 0bbf 85fc c9bf baee 053f 6b6b efbd
00000340: ab5e 873f 4e18 84be de48 793e d5fc e7bd
00000350: 6621 6a3f 13e4 3fc0 d730 c5bf 3293 05c0
00000360: 7128 993f fc57 24bf fdca 51c1 f3a2 cdbf
00000370: d3f5 22c0 2ff3 04c0 d6eb 19be e1e7 053f
00000380: da6d 1540 8084 803f 20b0 933f f7af 1540
00000390: e88d 8140 74db 0240 3b67 3f3f 82b1 d040
000003a0: 803d 893e 379d 36bf efa3 293e 3f22 57be
000003b0: 9d5c 3a3d 28a3 19bf 44c0 63bf 8cb4 46bf
000003c0: 92fb 44c0 9a01 35c1 b009 3d3e 7f1b 89be
000003d0: edf3 74c0 5388 dd3f a728 863f 3c96 b840
000003e0: 985b 2440 dc2e d03f 07ec 3c40 e0dc 1440
000003f0: be79 ed3e 3a4a 5b3f 7f26 0b3f 5391 393d
-0.12054987 1.9111955 0.371099 -0.36481747 -0.23225991 -8.70842 -0.7046902 -2.2941203
1.4500794 1.4395504 -1.0810176 1.402544 0.77319866 1.1122487 -0.22048885 0.5542019
-2.0891812 -0.051185794 0.99489707 1.6151111 -6.1925955 0.8925166 -2.0175061 -5.2565823
-0.4797601 2.452673 -0.93292844 -1.3705153 -0.60328615 -1.2643346 -1.7589629 2.6041157
-2.882155 -1.2302518 -1.4367021 1.8269206 -2.7902515 -2.9372401 -2.421505 -1.6802218
-3.7498379 1.0188462 -0.08178082 -1.8893343 -6.7340813 -1.2981482 0.9448897 0.86587346
-0.6887975 0.5246694 -3.6592078 -0.78506494 -2.391685 -2.581648 -3.3239124 -2.222263
1.2103105 -1.2682165 0.03510965 1.3487793 0.6569819 0.28611943 -0.43216494 0.43684536
-0.22064705 -0.15959986 0.9471997 0.54645914 -3.6800888 0.42174736 3.268947 0.5796154
0.10352419 1.5000176 3.135802 1.5912544 0.7819859 0.16960135 -0.089483954 0.3768674
2.166792 -0.76856726 -0.29539272 1.6583852 0.6959741 -1.4541738 -1.0543779 0.85693103
1.2372664 0.48487058 -2.663645 -3.527398 -0.34433284 -1.337157 -0.040386483 -2.315819
0.8742712 0.7001247 0.15498495 0.25706685 1.093363 0.731232 0.6929872 0.28773418
1.2360917 -8.218864 -0.05174759 0.84525335 -0.4727949 -0.8855173 0.037434433 0.1374382
0.26118687 -0.5569015 -0.79342467 1.2985657 -0.19752756 1.9275761 2.4421997 0.8076597
0.7221149 -1.5080657 0.16019191 4.189814 -0.0992784 -1.9311731 1.4480668 1.0891541
0.8239021 1.1098462 -1.3681251 1.4538603 -12.336472 -24.290491 1.1059699 -3.1093009
0.2587457 -0.90689564 -1.8074816 -0.18829207 2.3804832 -0.2345036 -1.1799299 1.158973
0.11840357 0.04042 -0.24473259 -0.96814716 -23.813375 -13.016626 2.3498924 1.5426931
-0.7875659 1.4799314 -4.100599 -4.305084 1.3408968 -2.7386413 -4.702074 3.9500992
-1.067783 -3.736488 -6.263603 -4.865514 -3.839827 -3.753677 -2.966641 -2.6731255
-5.905191 -8.973553 0.0881749 1.6580778 -5.175521 -2.610025 0.0607863 -0.097220264
1.7127064 3.7316327 -8.552117 -2.200485 -3.0652008 -3.60198 -3.2516303 -1.8820628
0.52922654 -0.30136088 -0.69546443 -0.14861928 1.0670062 1.0253012 0.09180417 0.4297936
-0.47848496 -0.6703511 0.4311589 0.041600697 -1.4741967 -2.3049085 4.735264 -0.25287855
-0.3183467 5.9173355 7.357453 4.3004193 -0.5467748 -1.5780188 0.5231739 -0.1169041
1.0575765 -0.25799793 0.24344203 -0.11327521 0.9145721 -2.9982955 -1.540553 -2.087109
1.1965467 -0.64196754 -13.112058 -1.6065353 -2.546254 -2.0773427 -0.1503137 0.52306944
2.3348298 1.0040436 1.1538124 2.338865 4.0485725 2.0446444 0.7476689 6.5216684
0.26804733 -0.7133364 0.16566442 -0.21009158 0.04549848 -0.6001458 -0.8896525 -0.7761924
-3.0778546 -11.312891 0.18460727 -0.2677879 -3.827388 1.7307228 1.0481156 5.768339
2.5680904 1.62643 2.951906 2.3259811 0.46381944 0.85660136 0.54355615 0.045304608

conv.2.bias f4 [64]
00000000: 4550 16be f41e 56bf 99e7 3c3f d42f b53d
00000010: 8c99 00be 73f7 3bbe fcbb 673f 9bcc 68be
00000020: a532 b4bf 9db4 a0bd 5946 8dbf c9d4 7ebe
00000030: 6deb fb3e 588d 29be 134f b4bd 2233 08be
00000040: 060d 78be 8496 123f bca4 0bc0 4979 113d
00000050: de60 94be ad40 f73c 845f 653c 94f1 bd3b
00000060: 79f4 aebe bc39 c6be 37b1 063d 0e37 563e
00000070: a3f8 ee3e 5ce1 42bf b6d6 193f 7cbb 573f
00000080: 88f8 efbe 1763 3f3f 9df5 60be 3af9 8b3e
00000090: 1cba a5be 51db 04be 1633 b13e 8c37 7abe
000000a0: ebaa 173f 667e c5bd ac4a 1dbe 369e 403e
000000b0: c00e 37bd ab55 433f ac67 cbbe 2321 953f
000000c0: bd65 a1bc 0e24 edbe 70c5 92be 6dad e53c
000000d0: c335 c03d a87a 833e 0502 043e 29a6 923f
000000e0: 086f 1c3f fcc6 b6be 0bb1 84bc 4431 b4bc
000000f0: 3ba5 b93d 3211 f9be 5d58 5e3f f0fe 1b3f
-0.14679058 -0.8364098 0.7379089 0.08847013 -0.12558573 -0.18356113 0.90521216 -0.22734301
-1.4077955 -0.07846949 -1.1037093 -0.24885859 0.49203053 -0.16557825 -0.08804145 -0.13300756
-0.24223718 0.5726092 -2.1819296 0.035516057 -0.28980154 0.030182207 0.0139998235 0.0057966206
-0.34170893 -0.38715923 0.03288385 0.20919439 0.4667407 -0.7612512 0.6009325 0.84270453
-0.46869302 0.74760574 -0.21968694 0.27338582 -0.32368553 -0.12974288 0.34609288 -0.24435252
0.59245175 -0.09643249 -0.15360516 0.18810353 -0.0446918 0.76302594 -0.39727533 1.1650738
-0.019701833 -0.4631657 -0.28666258 0.028036797 0.09385254 0.25679517 0.12891395 1.1456958
0.6110692 -0.35698688 -0.016197702 -0.021996148 0.09064718 -0.4864593 0.8685358 0.6093588

conv.3.weight f4 [64]
00000000: b603 af3c 4e40 1740 4a07 a53f f82f 923f
00000010: bd4f b93d 2eed 943f 37a1 b73e d5e6 4b3f
00000020: e7c8 f83e af1e c03e c396 e73f 1634 bd3f
00000030: f7b7 3c3f 41bb 713f 6d4e 153e febe b9bc
00000040: e943 f63e 71bb 883f 4a32 0b40 c16f 303f
00000050: 434c a43e ebd5 f23d a747 c93f b0a5 ed3d
00000060: 225f 443d 248f e13d 6531 1f3e 69b1 793e
00000070: d0fd f63e 110e 0d40 d32b 243e 8048 483f
00000080: ccc2 72be 6ff1 a83f eeb3 133e c839 853c
00000090: 8713 973d c6f9 9d3f 3222 e63e 7cec 0240
000000a0: 9eda 233f af01 873e 0989 783c 8385 6e3f
000000b0: f23c 963f d807 833f 37a1 a63f 3e07 1440
000000c0: 1d55 173e 2345 833e 9685 d33f 39a3 b6bc
000000d0: 8ee0 8c3f ce48 d73d d976 093d be40 da3f
000000e0: 54dd 2bbc b582 863f 1dd8 143d 5c86 9d3f
000000f0: e97c 853d 6cd7 373e 150a 1340 ad6b 4640
0.021364074 2.3632998 1.289285 1.1420889 0.09048412 1.1634881 0.35865185 0.79649097
0.48590776 0.3752341 1.8092884 1.478152 0.7371821 0.9442635 0.14580698 -0.02267408
0.48098686 1.0682203 2.1749444 0.6892052 0.32089433 0.11857208 1.5724992 0.11603868
0.04794229 0.1101363 0.15546186 0.24384083 0.4824052 2.2039835 0.16032343 0.78235626
-0.23707122 1.319868 0.14424106 0.016262904 0.073767714 1.234185 0.44947964 2.0456839
0.6400546 0.26368472 0.0151693905 0.9317247 1.1737349 1.0236769 1.3017949 2.312942
0.14778562 0.25638685 1.6525142 -0.022294628 1.1006029 0.10511933 0.033560608 1.7051008
-0.01048978 1.0508639 0.036338914 1.2306628 0.06517965 0.1795327 2.2974904 3.100322

conv.3.bias f4 [64]
00000000: 6125 08bf 9635 a3bf f6c6 d73b bdc7 e63f
00000010: c215 3dbf 49da 5e3e 4724 9bbf 42db ae3e
00000020: 339e 873f 2a73 803e dd48 0740 3903 feba
00000030: 22d4 edbf d311 72bf 795d 1fbf 391e 6dbe
00000040: a9fc 1d40 efb9 373f 5fc7 8ebf 0da2 3e3e
00000050: 61e6 e0bf f53c 74bf 6bd7 f3be 29f6 36bf
00000060: b372 2abf 93d4 4dbf 745d 89bf d6c3 a4bf
00000070: c23f 81bf 2b78 aebf 5d80 91bf a031 313e
00000080: 74a8 653f 5c3f b7bf 1a19 29bf 9ae2 b3bd
00000090: 6394 02bf 16cf f93e 3ed6 ab3f a661 fe3e
000000a0: f5a0 8c3f 9ed5 353f 4c15 f4be 8a6e ea3f
000000b0: cbef 1bbf 4488 2c3e d037 77bf a9c7 2c40
000000c0: 614e 4ebf 608c 70bf 0e9c 0640 be46 b2be
000000d0: 7cd6 30bf 8089 5ebf 6699 00bf e0bc 5d40
000000e0: 91e6 21be 0f02 44bf 1751 c7be 2238 f83f
000000f0: 9f6b 08bf 3a32 2c3e 7206 29bc 3a79 67bf
-0.53182036 -1.2750728 0.0065849973 1.8029705 -0.73861325 0.21762957 -1.2120446 0.34151655
1.0595154 0.25087863 2.1138222 -0.0019379623 -1.8580363 -0.9455845 -0.62252 -0.2315606
2.4685462 0.7176809 -1.1154593 0.18616505 -1.7570306 -0.95405513 -0.47625288 -0.7146936
-0.6658127 -0.8040249 -1.0731645 -1.2872264 -1.0097582 -1.3630422 -1.1367298 0.17304087
0.89710164 -1.4316211 -0.66053927 -0.08783455 -0.5100767 0.48790807 1.3424757 0.49683875
1.098662 0.7102908 -0.47672498 1.8314984 -0.6091277 0.16848856 -0.9656954 2.6996863
-0.80588347 -0.93964195 2.1032748 -0.34819597 -0.6907728 -0.8692856 -0.5023407 3.464653
-0.1581061 -0.7656564 -0.38929054 1.939213 -0.53289217 0.16816035 -0.010316478 -0.9041935

conv.3.running_mean f4 [64]
00000000: c7d5 81c2 97e0 a3c2 d6db 67c3 eb23 1ac3
00000010: 59bc 9fc2 5c99 c2c1 fbcb 23c3 4192 60c2
00000020: c4d0 9541 9724 2ac1 0a57 03c2 4c7f 2dc2
00000030: 56f0 ffc1 178b cdc2 5d0b 21c2 bfc7 8bc1
00000040: 7856 ba41 4599 e6c0 8afd 7fc1 e726 97c2
00000050: 7556 d4c1 2c3a fcc2 1028 77c3 f604 c4c2
00000060: 4743 8a40 d7fb d141 40ab cbc2 9c01 17c2
00000070: 3c3d 8ec2 42dd 05c2 b7e6 bec1 e57e fcc2
00000080: e870 81c2 2922 2540 dd2a 10c3 3e87 b5c2
00000090: cccc 0dc0 2141 a8c2 af37 e5c1 43bf 05c3
000000a0: ef19 aa41 c28d 9cc2 fd12 94c1 35df a142
000000b0: 65e8 13c3 b495 a8c2 7cb2 29c3 cd44 1242
000000c0: ba33 08c1 1050 8c3f 429d a141 499b b5c1
000000d0: 4248 93c2 ff5d 2bc2 bdf2 43c2 7fc8 3642
000000e0: de78 02c3 51e2 5e41 b1fa cdc1 557c 4e41
000000f0: 430e e3c1 af3a a240 cabc 98c3 2411 c7c1
-64.917534 -81.93865 -231.85873 -154.1403 -79.86787 -24.324883 -163.7968 -56.142826
18.726936 -10.633933 -32.835 -43.374313 -31.992352 -102.77166 -40.261097 -17.472532
23.292221 -7.2062097 -15.999399 -75.57598 -26.542215 -126.11362 -247.1565 -98.00969
4.3207126 26.247969 -101.83447 -37.75157 -71.1196 -33.466072 -23.862654 -126.24784
-64.72052 2.58021 -144.16743 -90.764145 -2.2156248 -84.127205 -28.65219 -133.74712
21.262663 -78.27687 -18.509272 80.93595 -147.90779 -84.29239 -169.6972 36.56719
-8.512629 1.0961933 20.201786 -22.700823 -73.64113 -42.841793 -48.98705 45.695797
-130.47214 13.930253 -25.747408 12.9053545 -28.381964 5.0696635 -305.4749 -24.88337

conv.3.running_var f4 [64]
00000000: 4dda 9e45 dbc7 1246 97c1 2947 62f3 bc46
00000010: 6df8 4446 d60d 1147 1859 0447 c316 b246
00000020: b874 7f43 ee47 b543 59f5 8445 8a62 2645
00000030: d574 0444 7e9a 8045 1e8d 1f45 254c 1946
00000040: d580 ea44 7ca9 0145 800b 9d45 8a02 be46
00000050: a3ba 6a45 30a1 8a46 fe36 7747 30ac b646
00000060: 9fd7 a143 b76e 9243 5d34 2546 f80c 5a45
00000070: f934 7c45 d674 8945 89d0 c144 3860 0e46
00000080: 6511 5847 69fc 2a44 f126 e446 1b7c df46
00000090: a1f1 0645 2b15 be46 b9f9 9344 dc42 a846
000000a0: b27c 3844 a4ea 6f46 1ad3 0d44 ec08 de46
000000b0: af40 ab46 d8d0 d146 7a9d d946 f47c 2f45
000000c0: 7766 9945 fb5b 6343 ee63 1445 08ac be44
000000d0: 5057 8b45 7ead 2d45 a306 8345 53e3 0146
000000e0: 1711 d046 822f 9a44 fdb7 ab45 bc8a 8a45
000000f0: e19f 0e45 6831 a946 fba9 b547 38c1 5946
5083.2876 9393.964 43457.59 24185.691 12606.106 37133.836 33881.094 22795.38
255.45593 362.56195 4254.6685 2662.1587 529.8255 4115.3115 2552.8198 9811.036
1876.026 2074.5928 5025.4375 24321.27 3755.6648 17744.594 63286.992 23382.094
323.68454 292.86496 10573.091 3488.8105 4035.3108 4398.6045 1550.5167 9112.055
55313.395 683.9439 29203.47 28606.053 2159.1018 24330.584 1183.8038 21537.43
737.94836 15354.66 567.29846 28420.46 21920.342 26856.422 27854.738 2807.8096
4908.808 227.3593 2374.2456 1525.376 4458.914 2778.8433 4192.8296 8312.831
26632.545 1233.4846 5494.9985 4433.342 2281.9924 21656.703 93011.96 13936.305

linear.weight f4 [256, 576]
00000000: d0e4 063d 54f5 153d 7a6c 79bd 3c36 123c
00000010: b1c7 8abd 4cec fdbc 9d7d 3a3d b3f6 52bc
00000020: 8a05 bcbd 801e d6bc 463c 6ebc 2a1f a1ba
00000030: 2765 6cbc d1e3 0bbc e7db fd3c 50ca 97bc
00000040: 813f d83c cbaf 1fbd cc10 933c 74d4 18bd
00000050: 5019 c23c b744 933d 431b 5b3c d9a3 f4bd
00000060: fc38 4d3d 4c87 763c 2cc4 303b c98c 96bc
00000070: a136 903b bce2 cabd 7776 6d3d d968 cdbc
00000080: 3c70 77bc 27e1 77bd 8318 233c 7b56 5ebd
00000090: ba0b 8e3b 1f10 1cbb 145a f2bc 7b08 60bd
000000a0: 223b a73d 122f b2bd a825 a03d 9ebf f339
000000b0: c37d 82bd 1444 17bd 362f 99bc eee2 f53c
000000c0: 980a 263d cc24 86bd 6e61 09bd cdc6 3f3d
000000d0: d03a 313c 5908 10bc 0b77 e0bc 7f1c 74bb
000000e0: 4fc7 43bc 78fc 853d 8e71 853d 0049 f93c
000000f0: eca9 f83c 55b1 9abc d974 b43d 5fff cd3b
00000100: 30ab feba 3dee 7bbc 0a2d 0abc 86dc de3c
00000110: bdb8 333c be05 0abd 64d3 8dbc d552 c9bc
00000120: 2a1b 6dbc 173b 72bd df65 d4bd d118 2dba
00000130: 51b4 983d 8754 89bd 0a06 13bd 55d1 25bc
00000140: 1651 20bd 4228 a6bd d761 cd3c b2df 6d3c
00000150: 6b8d 713c c5a1 893d 67e8 093b ebf2 38bc
00000160: ff0f 6cbd cc4a 06be 9d9c 89bd c80a 15bd
00000170: e721 81bd f248 8b3d e21f 893c c9f1 9a3d
00000180: 3965 3ebd 1274 38bc 4220 053d c099 dbbc
00000190: a5ac b5bd d258 d2bc a58a cabc c547 75bd
000001a0: 13df 9cbd cbff 093d d5cc b1bd a70f db3c
000001b0: 8a7d 2e3a ca2d b8bc c733 6d3c d192 363d
000001c0: d824 ffba ea49 083d a2ea 54bb f791 35bd
000001d0: 56a7 c13c a2f1 b8bc 27e2 66bc ee89 3b3d
000001e0: 46f1 443d 65db 1b3d d89d ad3d c9a1 c43c
000001f0: 102a 043d de3c 253c 1ce1 9a3d 02e9 8a3d
00000200: 8360 e63b d5f6 2a3d b19b 8cbd 6de9 a63c
00000210: 23ba 4f3d 35e2 633c b52d 623c 5823 33bd
00000220: f0c3 abbc f71b 1dbd 682f 273d 5d5a a6bd
00000230: 7d53 d0bd dad8 25be c742 8cbd a519 83bd
00000240: eb5c 4cbd 73d6 acbd 1a0e c5bd c90b 01bd
00000250: 900a 60bd d241 5abd 2fa5 85bd 6d33 5abd
00000260: 2578 3b3d 0a72 0cbe 8c43 90bc 8f78 07be
00000270: 86ac 963c 6b0a dfbc 85b2 4cbd a990 fcbc
00000280: 8506 d83d 8352 98bd 8758 8dbb 3103 b1bd
00000290: 7453 913c bd35 01bd 46b9 bcbb 2b99 4f3c
000002a0: 80e5 49bd 24b9 0ebc ab0a 8d3c 3485 6ebc
000002b0: 6cd7 d9bc 86cc f5bc 776d 983d 4a2a 9dbd
000002c0: bfba 033d f28d 773d 8e09 06be d7e7 09be
000002d0: 9a92 5cbd c571 353d e87c edbd d3d2 4ebb
000002e0: a566 223d 1cb3 2abd 1b91 0d3c 199c f2bd
000002f0: ff8d 823d b582 57bd e53b 6d3c 2e45 86bd
00000300: c192 083c 5c5d 903d 168d 3abd 2b94 a83c
00000310: eb71 903d 3687 7abc 9b21 40bd 2a4d b8bc
00000320: 3829 c0bb dae2 a53c 0fc4 173d 49cf db3b
00000330: a036 7c3d 2b11 01bb 4329 1e3c 3e3f 28bc
00000340: 79bb d5bc 4dcf 8f3c a36b 38bc ed8c 0cbc
00000350: 7d27 2b3d 542e 1e3d d50f 58bd c154 bdbc
00000360: dba6 353d 1b3c 1f3d 5807 a43d 9af9 713d
00000370: 9be7 593c 2099 283d 3ef6 563c cd79 95bd
00000380: 9992 90bd bff7 2a3d cae9 ac3d 6f64 3abc
00000390: dd24 2f3d d5c9 84bd c921 793c 44f1 81bd
000003a0: 6d77 7cbd 2eae 16be 8473 85bc f00c 263d
000003b0: 3e25 253d bcd6 c93c c084 daba 1720 32bd
000003c0: 9ce2 a539 4b54 13bd ff23 4cbd 4b06 a13c
000003d0: a047 ed3c 2cee d33c 7661 a7bb 2ee5 82bd
000003e0: 7612 ddbc 1697 513d 4362 d13c 939d 0ebd
000003f0: d6d3 65bd 429a 66ba f490 ebbc 3d00 0b3d
0.032933056 0.036610916 -0.060894467 0.008924063 -0.06776369 -0.030996464 0.04552995 -0.0128762005
-0.09180744 -0.02613759 -0.0145407375 -0.0012292613 -0.0144284135 -0.008538202 0.030988647 -0.018529087
0.026397469 -0.03898601 0.017952345 -0.037311986 0.02369371 0.07190841 0.013373199 -0.11945314
0.050103173 0.015046906 0.0026972396 -0.018377678 0.0044010435 -0.099065274 0.057974305 -0.02507441
-0.015102442 -0.060517456 0.0099545745 -0.054281693 0.004334894 -0.002381332 -0.029583968 -0.054695588
0.081655756 -0.08700384 0.07819682 0.00046491338 -0.063716434 -0.03693016 -0.01869927 0.030015435
0.040537447 -0.06549987 -0.03354018 0.04682045 0.010817245 -0.008791053 -0.027400514 -0.003724843
-0.011949374 0.06542295 0.065157995 0.030430317 0.030354463 -0.018883387 0.088113494 0.006286546
-0.001942968 -0.015376625 -0.00843359 0.027204763 0.010969338 -0.033696882 -0.017312713 -0.02457563
-0.014471808 -0.059138384 -0.10370993 -0.0006603124 0.074562676 -0.067055754 -0.03589443 -0.010120709
-0.03913983 -0.08113147 0.025071068 0.014518665 0.014743189 0.06720308 0.0021043064 -0.011288385
-0.057632443 -0.1311447 -0.06719325 -0.036387235 -0.063052945 0.068010226 0.016738836 0.07565648
-0.046483252 -0.011258142 0.032501467 -0.026806712 -0.0887082 -0.025677118 -0.024724314 -0.059882898
-0.076597355 0.03369121 -0.08681647 0.026740862 0.000665628 -0.022482771 0.014477677 0.04457361
-0.0019465936 0.033273615 -0.0032488485 -0.044328656 0.023639362 -0.022576157 -0.014092005 0.045785837
0.04808166 0.038051028 0.08477372 0.024002926 0.032266676 0.010085313 0.075624675 0.06782724
0.007030548 0.041739304 -0.06865633 0.020374978 0.050714623 0.013908912 0.013804843 -0.04373488
-0.020967454 -0.038356747 0.040816694 -0.08122704 -0.10172174 -0.16196004 -0.06848674 -0.06401376
-0.0498933 -0.084393404 -0.0962183 -0.03150538 -0.054697573 -0.053285427 -0.06525647 -0.0532717
0.045768876 -0.13715377 -0.017610334 -0.13229583 0.018392812 -0.027226647 -0.049974937 -0.030830698
0.105481185 -0.07437613 -0.004313532 -0.08643187 0.017739989 -0.03154539 -0.005759391 0.012670795
-0.049291134 -0.008711133 0.017217001 -0.014558125 -0.026591979 -0.030004751 0.07442754 -0.076740816
0.032160517 0.060438104 -0.13089582 -0.13467346 -0.053850748 0.044297952 -0.115960896 -0.0031558766
0.03964867 -0.04167472 0.008640553 -0.118461795 0.0637474 -0.052614886 0.014479612 -0.06556164
0.00833577 0.07049057 -0.045544706 0.020578464 0.07052978 -0.015291026 -0.04690705 -0.022497732
-0.0058642887 0.020249773 0.03705221 0.00670806 0.061575532 -0.001969407 0.009653392 -0.010268984
-0.02609037 0.017554903 -0.011256131 -0.008578521 0.041785706 0.0386184 -0.052749474 -0.023111703
0.04434858 0.03887568 0.08009213 0.05907593 0.013299848 0.041161656 0.013120232 -0.07298622
-0.07059211 0.041740175 0.08443029 -0.011376484 0.042759765 -0.06483809 0.015205809 -0.06344846
-0.06163733 -0.14714882 -0.016290434 0.040539682 0.04031872 0.024638526 -0.0016671643 -0.043487635
0.0003164009 -0.03596906 -0.049839016 0.019656321 0.028964818 0.025870405 -0.005108054 -0.06391369
-0.026986342 0.051169477 0.02555955 -0.034818243 -0.056110226 -0.000879679 -0.028755642 0.033935774

linear.bias f4 [256]
00000000: d836 13bd 53c4 d73e cfea ec3d ae32 c1bb
00000010: 6677 d4be cc43 983c 0a87 da3e 2250 d33b
00000020: 0315 16be 6758 48bd 6f49 19bc feeb 5c3e
00000030: e037 3b41 ee35 7f3c 41fb 1a41 5f7d 46bd
00000040: 8357 933f 293b 2ebd 6f7e 87be 711b 8e40
00000050: 736e edbc 0102 2abc 0032 583e 9520 5cbd
00000060: 1e2a b1bc bd20 483f d4be 183c 7fc1 3a3f
00000070: 88d5 6c3b c160 21bd 009d 1bbd 22df ee40
00000080: 01e1 31bd fc1f e6bc 5bc9 823c 1707 753c
00000090: 3129 86bc 10f0 23be c2d5 50bb af8c 23bd
000000a0: a82c c53c f241 6fbd d323 a7bc 2483 183b
000000b0: 2f78 18bd 94bc f0be dcb2 a8be f0c3 75bd
000000c0: cedb 8d40 b11c 1abc a3c1 23bd f359 0fbd
000000d0: 5c28 93bd 4596 d5bd 0bd2 41bd aeda 77bc
000000e0: 7e62 b9bc 75ea 64bc 6300 68bd bf3f 12bd
000000f0: 1038 fdbc 31e3 d93e a3ab 31bb 195f 8f3b
00000100: 8e83 933c cf24 39be b0c3 c93e e418 c23c
00000110: 5b17 60bd 027f 5b3e 7119 de3f 83c4 fe3b
00000120: 4dd4 30bc 8e5a f93e d34b c8bd 58cf 8541
00000130: f334 933c 8de7 61bd 6e44 d8bc 1457 59bd
00000140: 8a29 f1bd 380c 44bc 0ae3 25be 3c84 82bd
00000150: 1fd0 dbbd e461 3abd 6942 313c 4820 1a3d
00000160: 7d5f 7b40 77a1 eebc 76d1 54be 5ba3 2fbd
00000170: 8357 403d 9325 a93b 3610 e140 6e97 45bc
00000180: 4db0 d6bd 7ee5 21bd fac4 d8be 79d0 063c
00000190: 5b14 f5be 177a de3d 90b1 16bf 1c9c 39bd
000001a0: eac5 11bd d98b 543f 0845 993d 43e5 b9bd
000001b0: daca 73bd c300 a03d f2b9 0fbd eb4a e7be
000001c0: cc95 64bd db17 86bd b6cc 383f 6c2d f93a
000001d0: d9b1 bf3b c177 913e eeff 49bd 49b6 da3e
000001e0: 46c1 a73d 0b95 6b3e dda0 dcbd a069 19be
000001f0: 677c 62bd e2c3 9c3c 0f47 e73a 7ccf a0bc
00000200: e40a 66be fed0 c039 8dfc 733e e110 0bbf
00000210: 8641 1a3e 2a4c 12bc 5938 abbc 7892 c2bd
00000220: 5165 283e bfd5 083d eea7 6bbe 9200 823e
00000230: 12c4 303e d5f5 693c e790 08bd 1f51 253c
00000240: 55b8 933b 2f7b 82bc 2f5a d2bc d319 afbc
00000250: a379 483c 4aa4 823c 6c83 7b40 f70b 90bc
00000260: c0b9 a13c 21d9 6b3c ee15 7c3e 0af2 07be
00000270: 0e0b 2a3f e911 d33f 8ed6 4abd 6385 6d3f
00000280: e6a2 4ebd 9990 383f 1e8e 6c41 ff50 e63b
00000290: 57d1 6f40 38d6 b4bc 60bb f83b 7eee 1abd
000002a0: 4da6 7abd e097 3240 84df 1a3f 0150 5abd
000002b0: a11b ca3d f936 a0be dbef 2eb9 ed1c 303e
000002c0: f566 e9b7 90c0 963f f94c ff3d 0dc9 a23c
000002d0: 37aa f7be c566 983e 0b16 9dba 9bb7 06bc
000002e0: c8de e0be a737 68bc 3466 2dbe 137c 6f3e
000002f0: 9201 35bd 2077 ec3b f646 6abc 6550 45be
00000300: 9782 b83e 7d42 23bb 15e0 c3bc 6dfc 55bd
00000310: 172e 7e40 8881 78bc c0e9 70bd 176d 0c3e
00000320: 740c 183c 674d 893b 57d5 ff3d e135 bbbc
00000330: fe16 0f3c cf5b 333c 8c7d 05bd f204 80bd
00000340: e227 093c d729 55bb 8813 89bd e877 3abd
00000350: 48a0 9f3e b705 93be eb95 20bd c617 dfbd
00000360: 7582 80be 9580 d040 8ba9 83bb 981d 18be
00000370: 28bf 69bd fd04 4b3c 6384 48be 59b1 91bc
00000380: e3a1 dcbd d2c7 03bd 2f05 64be 4213 30bd
00000390: 085b 8e3c 1d56 9a3d a2a0 833f a154 a040
000003a0: f218 43be 150b 943c e76d 30bc 4765 733e
000003b0: 7be2 16bd 2a6d 0ebe 73a4 5dbe b106 8cbc
000003c0: 3d42 88be 7274 863e 646b 823c b381 61bd
000003d0: 229c d6be b54e aa3f eb90 d2bc 79de 243f
000003e0: 69d4 90bc a782 58bd efb5 1dbd d3d9 81bb
000003f0: 4c26 3b3c 7274 7f3f d8ef 043b 1578 0cbe
-0.035940975 0.4214197 0.11568224 -0.005895934 -0.41497344 0.018587016 0.42681152 0.0064487616
-0.14656453 -0.048912432 -0.009355887 0.21574399 11.701141 0.015576823 9.686341 -0.048459407
1.1511081 -0.04253689 -0.2646365 4.44085 -0.02898333 -0.010376454 0.21112823 -0.05374201
-0.021626528 0.78174955 0.009322841 0.729515 0.0036138017 -0.039398912 -0.037991524 7.464738
-0.04342747 -0.028091423 0.015965154 0.014955304 -0.016377063 -0.16009545 -0.003186569 -0.03992909
0.024069145 -0.0584125 -0.020402825 0.0023271525 -0.03722399 -0.47018874 -0.3294896 -0.060001314
4.4330816 -0.009406255 -0.03997959 -0.03499789 -0.07185432 -0.10429052 -0.047319453 -0.015127821
-0.022629973 -0.013971915 -0.056640994 -0.035705324 -0.030910522 0.42556146 -0.002711036 0.00437535
0.018007066 -0.18080448 0.3940711 0.02369351 -0.054709774 0.21435168 1.7351514 0.007774891
-0.010792804 0.487019 -0.09780087 16.726242 0.017969584 -0.055152465 -0.026399817 -0.05306156
-0.11775501 -0.011965804 -0.1619989 -0.06372878 -0.10733055 -0.045503512 0.010819056 0.037628442
3.9277031 -0.029129727 -0.20783028 -0.042880397 0.046958458 0.00516195 7.033229 -0.012060029
-0.104828455 -0.0395255 -0.4233778 0.008228415 -0.47867092 0.108631305 -0.5886469 -0.045314893
-0.035589136 0.8302589 0.0748387 -0.09076931 -0.059519626 0.07812645 -0.03508944 -0.45174345
-0.05580692 -0.06547519 0.72187364 0.0019010729 0.0058500585 0.28411677 -0.04931634 0.42717198
0.08191161 0.23006074 -0.1077287 -0.14981699 -0.05529442 0.019136373 0.0017645078 -0.019630186
-0.22465092 0.00036776805 0.23826809 -0.5432263 0.15064058 -0.008929292 -0.020900892 -0.09500593
0.16444899 0.03340697 -0.23013279 0.2539106 0.17262295 0.014279802 -0.033341315 0.010090142
0.004508058 -0.01592788 -0.025677769 -0.021374619 0.012236032 0.01594748 3.9298964 -0.01758383
0.019741893 0.014395029 0.2461774 -0.13275924 0.6642312 1.6489841 -0.04952102 0.92781657
-0.05044832 0.7209564 14.784697 0.0070286985 3.747152 -0.022074804 0.007590696 -0.0378251
-0.061193753 2.7905197 0.6049731 -0.053298954 0.09868551 -0.3129194 -0.00016683286 0.17198534
-2.7823708e-05 1.1777515 0.12465853 0.01987126 -0.4837205 0.29765907 -0.0011984719 -0.008222486
-0.4391997 -0.014173425 -0.16933519 0.23387174 -0.04419095 0.0072163492 -0.014299145 -0.1926895
0.36037132 -0.0024911456 -0.023910562 -0.052242685 3.971563 -0.015167601 -0.05881667 0.1371349
0.009280313 0.0041901353 0.12491863 -0.02285284 0.008733509 0.010947182 -0.032590434 -0.06250943
0.008371325 -0.003252616 -0.066931784 -0.045524508 0.31176972 -0.28715298 -0.039205473 -0.10893206
-0.2509953 6.515696 -0.004018014 -0.14855039 -0.057067066 0.012391326 -0.19581752 -0.017784761
-0.10773065 -0.032172985 -0.22267602 -0.042987116 0.017377391 0.07535956 1.0283396 5.0103307
-0.19052485 0.01807169 -0.01076839 0.23769103 -0.036837082 -0.1390883 -0.21644764 -0.017093034
-0.26613036 0.26260716 0.015920348 -0.05505533 -0.41915995 1.330527 -0.025703868 0.64401966
-0.01767941 -0.052858975 -0.038503584 -0.0039627342 0.011422705 0.99787056 0.002028456 -0.13717683
